dqn-reinforcement/a2_part_2_dqn_cartpole_kumarsat_apurvaba.pth (torch, 84062 bytes, 24 tensors)

fc1.weight f4 [64, 4]
000000 2d cd 16 3f 6d fb 27 3f 62 7a e2 3e a2 ce 06 3f
       0.58906823 0.6561802 0.44233996 0.52659047
000010 37 5a 2a bf fb 54 3d 3e ad cd 86 3f 70 99 19 3e
       -0.66543907 0.18489449 1.0531517 0.14999938
000020 87 7f c8 3e 3f d1 db be 8b 80 33 3e 93 c7 3f 3d
       0.39159796 -0.4293308 0.17529504 0.04682119
000030 3c ad a1 3e 69 06 e7 3d ba f7 28 3f 57 3b d6 3d
       0.3157748 0.112805195 0.66003 0.10460537
000040 be 0d 94 3e 0f a0 16 bd 73 cd 59 bf 62 bf 35 3e
       0.28916734 -0.036773738 -0.85079116 0.17748788
000050 e3 40 7f bf 2f 7d 44 bd 48 8c 83 3d c6 82 5e bc
       -0.99708384 -0.047970947 0.06423241 -0.0135809835
000060 4b c1 e4 be 3f c3 f6 be 8e 29 3b bf 23 bb d1 be
       -0.4467872 -0.48195836 -0.7311028 -0.40963086
000070 4c 4c 81 bd 0f 97 53 bf 41 d4 a9 bf 7c 42 17 bf
       -0.063133806 -0.8265237 -1.32679 -0.5908582
000080 33 20 24 3f b7 14 a8 3e 5a ac f7 be a1 54 77 3e
       0.6411163 0.32828304 -0.4837368 0.24153377
000090 b7 f0 0e 3b 30 6c 11 3f 5b c6 81 3f 34 7e 28 3c
       0.0021810958 0.56805706 1.0138658 0.010283995
0000a0 79 33 02 bf 74 d2 b5 be 85 ab bc 3f fb 8d a2 3e
       -0.5085979 -0.35512125 1.4739844 0.31748948
0000b0 69 f0 ee 3e c7 62 97 be b8 c7 d1 be 74 9c 79 be
       0.46667793 -0.2956755 -0.40972686 -0.24376088
0000c0 80 a7 5e be a6 a3 20 bf 33 0b f6 bf 2b ac 02 bf
       -0.21743584 -0.6274971 -1.9222168 -0.5104396
0000d0 89 76 10 3f 3b 7a c4 3e cc d6 9d 3f 15 84 d5 3e
       0.5643087 0.38374504 1.2331176 0.41702333
0000e0 19 63 29 3d 6c a9 12 3d 27 b8 01 3f 75 d3 b2 be
       0.041354273 0.035806105 0.5067162 -0.34926954
0000f0 36 96 85 bb 80 c2 d7 3b 71 55 79 bb 5a 28 d3 3b
       -0.0040767444 0.0065844655 -0.0038045312 0.0064440193
000100 89 df 5b 3e 5e f4 0b be 30 6e db 3d fe a8 1d be
       0.2147199 -0.13667437 0.10714376 -0.15396497
000110 b0 9c 38 bf ed 01 0b bf aa bd a1 3e 4c 40 99 be
       -0.72114086 -0.54299814 0.31590015 -0.29931867
000120 f4 d5 1c 3f 5b 62 ad be d6 5c bd bf 43 53 ba be
       0.61263967 -0.33864102 -1.4793956 -0.3639165
000130 50 8e 0f be 66 ee d2 3e 7d 70 f4 3f 35 9d f5 3e
       -0.14019132 0.4119751 1.9096829 0.47971502
000140 2f 87 4d bf d3 84 8d be 18 04 dd 3e f2 83 38 be
       -0.802844 -0.276404 0.43167186 -0.18019083
000150 1c 20 b1 3d aa b5 03 bd f4 35 82 3e e2 dc c7 be
       0.086487025 -0.03215567 0.25431788 -0.39035708
000160 71 90 60 be 16 bd ab 3d b4 84 5b 3b 84 da 67 3d
       -0.219301 0.08385675 0.0033495845 0.056604877
000170 2c 6d 66 3f f8 3c e7 3e ed 99 b0 be e4 8d 1a 3e
       0.90010333 0.45163703 -0.34492436 0.1509319
000180 c5 b6 e8 3e 80 ca ac 3e 30 0f 9d be 8d 76 0d bf
       0.45451942 0.33748245 -0.3067565 -0.5525902
000190 cd 05 f2 be 94 04 e6 be 3d b6 ce bf 33 b5 ba be
       -0.4727005 -0.44925368 -1.6149365 -0.3646637
0001a0 6b 11 a0 3e d1 18 a2 be 74 bf f1 bf a9 88 8b be
       0.3126329 -0.31659558 -1.8886552 -0.272527
0001b0 9d 53 a5 bf 15 dc aa be b5 a1 de 3e 74 18 ea bd
       -1.2916142 -0.33371034 0.43482748 -0.11430445
0001c0 7f 31 b7 3e ce 09 40 bf 01 a5 35 bf c0 b0 5d be
       0.3577995 -0.7501496 -0.709549 -0.21649456
0001d0 9c f6 81 3e e4 b6 cb be 77 2c e1 bf 35 ac 25 bf
       0.2538346 -0.39787972 -1.7591695 -0.6471589
0001e0 29 b7 19 3f 5f 99 9d be e6 83 71 bf 51 7f 0d bf
       0.60045105 -0.30781075 -0.94341886 -0.55272394
0001f0 bc 21 57 be 21 12 e9 be cf 14 6e bf ee c0 44 be
       -0.21008962 -0.45521644 -0.930005 -0.19214222
000200 69 f8 98 3e b0 04 cf bd d1 4b 31 3f 14 6b 60 3e
       0.29877022 -0.10108316 0.6925631 0.21915847
000210 4b 1e ec be 07 65 14 3f 44 d0 a5 be 42 a4 13 3e
       -0.46116862 0.57966655 -0.32385457 0.14418128
000220 f3 30 b5 bf 13 d2 47 bf 37 70 7f be 74 98 25 bf
       -1.4155563 -0.7805492 -0.2494515 -0.6468575
000230 46 ff a6 3d 54 a4 64 be 69 cf 1c bc 4e 9e 81 3e
       0.08154158 -0.22328311 -0.009570935 0.2531609
000240 e6 97 6d be cd 33 27 3e 40 b9 fc 3f 91 51 25 3f
       -0.23202476 0.16328354 1.9744034 0.64577585
000250 f9 84 05 3d 74 c1 c2 bd 28 71 a5 3d db c5 f4 3d
       0.032597516 -0.095095545 0.080782235 0.119518004
000260 cf f5 72 3d 91 b2 38 bf ce 1e 1c 3e ad ca 19 bf
       0.059316453 -0.7214747 0.15246126 -0.60074884
000270 67 19 81 3f fc b6 ba 3e 59 96 d0 3f e9 fc 94 3e
       1.0085877 0.3646773 1.6295882 0.29099205
000280 0d 76 95 3f b5 72 68 3e d9 6a a7 3f 2d 84 5e 3e
       1.1676651 0.22700007 1.3079482 0.21730109
000290 7b 82 cf 3e d0 46 04 be f7 f0 f5 bf f6 92 b3 3d
       0.40529236 -0.12917638 -1.9214162 0.08768265
0002a0 c2 79 9e bf 02 44 7b bf 4b 1e b0 bf 2f 5c 2c bf
       -1.2380908 -0.98150647 -1.3759245 -0.6732816
0002b0 dd 20 8c 3f 12 d7 25 3e 4e 02 64 3f 6c 7d a4 3d
       1.0947529 0.16195324 0.89066017 0.08031735
0002c0 20 6f 1b bf 9d e9 c5 3e 9c 8e f8 3e 21 87 9a be
       -0.6071644 0.38654795 0.48546302 -0.3018122
0002d0 1b 16 f6 be 5f 73 e0 3e ac c3 3c 3f 02 8c a2 3e
       -0.4806374 0.4383802 0.7373607 0.31747442
0002e0 f9 c0 1f 3f c1 e6 6b 3f 30 f7 df 3f 65 6b 32 3f
       0.6240383 0.9214898 1.7497311 0.6969512
0002f0 ee 38 63 3e a0 0d 60 be 17 67 da bf 8b d1 07 bf
       0.22189686 -0.21880198 -1.706271 -0.5305411
000300 85 79 87 3f e6 b4 35 3f a7 3b 92 3f 92 c8 f5 3e
       1.058396 0.70979154 1.1424454 0.48004586
000310 89 2d c4 3a ed bd ac bd ad 9e ae 3d 0d 86 aa 3e
       0.0014967184 -0.08434663 0.08526359 0.33305398
000320 5b fe a1 bf 50 21 c7 be fe 33 93 3d c8 54 45 be
       -1.2655748 -0.38892603 0.07187651 -0.19270623
000330 e0 19 31 bf 9f 27 0c bf dd 20 b4 bf fc f0 e8 be
       -0.6918011 -0.54747957 -1.4072529 -0.45496356
000340 f4 59 6e be 8e 57 5b 3e 2c 43 ee 3f 58 5b c6 3e
       -0.23276502 0.21420118 1.8614249 0.38741565
000350 03 46 3c bf 89 6b 0c bf 91 ad 50 bd 0a 31 15 3e
       -0.7354433 -0.54851586 -0.050946776 0.14569488
000360 f3 f7 2f 3e ec 4c 15 be 85 54 86 be 6e 9b eb bd
       0.17184429 -0.14580125 -0.26236358 -0.11504255
000370 81 fa da be df d3 e1 3e 90 42 d4 be 84 99 96 bd
       -0.42769244 0.44106957 -0.41457033 -0.073534995
000380 03 14 f0 bd 54 db 56 3e 4c ce cc 3f 0a ab 1f 3e
       -0.11722567 0.20982105 1.6000457 0.1559259
000390 b1 1f 84 be 45 13 2b bf c8 ee 5b bf c9 ab 34 3d
       -0.2580543 -0.6682628 -0.85911226 0.04410914
0003a0 60 20 bc 3c 71 0c 9a 3e 26 e6 f0 3e ca 6b 9d 3e
       0.022964656 0.30087617 0.4705059 0.307463
0003b0 c3 c2 84 3e b0 33 4b bf 10 79 70 bf 49 30 e3 be
       0.2592984 -0.79375744 -0.93934727 -0.44372776
0003c0 39 75 b9 3e 0a 22 73 be f4 8f a8 bf c2 e2 9b be
       0.36222246 -0.23743454 -1.3168931 -0.3044644
0003d0 7e b1 52 be 51 0a 04 bf 62 13 46 bf 08 38 0f 3e
       -0.2057552 -0.5157824 -0.77373326 0.13986218
0003e0 20 cc d9 be a7 64 0a 3f 12 26 8d 3e 9a 6f dd 3c
       -0.42538548 0.54059833 0.27568108 0.027030755
0003f0 27 ff 22 bd 9e 7d e5 bd 2c 5f 30 bf 27 40 97 be
       -0.039794113 -0.112056 -0.6889522 -0.29541132

fc1.bias f4 [64]
000000 4f 1e 16 3f a7 d7 9c be 51 b0 26 3f c0 5a 2a 3f
       0.5864 -0.3063328 0.6511279 0.66544724
000010 e2 48 30 3f 98 3b 8d be 3f 8f 20 3f 1f 43 d1 3d
       0.6886121 -0.2758453 0.62718576 0.102178805
000020 c5 e6 d0 3e 92 3a 69 3f 0e 39 93 3c 18 16 42 3e
       0.40801063 0.91104996 0.017971542 0.1895374
000030 95 95 81 be 9a 5e 38 bd 69 95 31 3f 41 80 2a bc
       -0.25309435 -0.045012094 0.69368607 -0.010406555
000040 39 79 34 3f 04 a6 24 3f 62 f6 41 3f c4 aa 80 be
       0.7049747 0.6431582 0.75766575 -0.25130284
000050 05 e8 80 be 97 44 0c 3f c8 72 2c 3f 3c fc b7 be
       -0.25177017 0.5479216 0.6736264 -0.35934627
000060 39 e0 38 bd 73 8f 18 3e 1c 6e 98 3e 81 2d 8e bd
       -0.04513571 0.14898472 0.29771507 -0.06942273
000070 72 8b da 3d 6b d5 24 be 67 41 45 be e6 34 3d 3f
       0.10671128 -0.16097037 -0.1926323 0.7390884
000080 d4 39 60 3f 35 34 b4 3e 72 01 bd 3e cb 37 06 be
       0.8758824 0.3519608 0.36915165 -0.13107221
000090 81 f5 9a be a4 1a 99 bd a8 0e cd 3e 3e 6e 2c 3d
       -0.3026543 -0.074757844 0.40050244 0.042097323
0000a0 48 cb 93 3d fe 2e 71 3c 89 a1 a5 3c f2 cc 4b 3d
       0.07216507 0.0147206765 0.020218628 0.049755998
0000b0 5d cb c9 3e dc 38 8c 3d c4 03 9d be 2f d6 98 be
       0.39412966 0.068467826 -0.30666935 -0.2985091
0000c0 df c3 bf be d6 ae 4c 3f 29 ca aa bc 1c d5 28 3f
       -0.37454125 0.7995428 -0.02084835 0.6595018
0000d0 a3 32 a6 be bb ba 22 3f 73 b9 48 3f 9e 22 2d 3f
       -0.32460508 0.6356618 0.78407973 0.67630947
0000e0 9b cb 13 3f 48 d9 0a 3f 40 3a 64 3f 3a c4 c6 3e
       0.5773255 0.54237795 0.8915138 0.38821584
0000f0 0c 05 31 3f 3b 71 49 3f 41 fc 45 3e 4c 2e 2c 3f
       0.69148326 0.786884 0.19334508 0.67258143

fc2.weight f4 [64, 64]
000000 9a 7f 9d 3d 82 69 9c bf 23 88 a7 3e 9c fc a2 3e
       0.07690354 -1.2219698 0.32721052 0.3183335
000010 dc 14 35 3e 95 e0 bc bf 85 e4 27 3d 68 d5 ab bf
       0.17683738 -1.4756037 0.040989418 -1.3424501
000020 6d b2 46 3e 45 df 8f 3e 29 15 34 be 6b 8f 9e 3e
       0.19404002 0.2810003 -0.17586197 0.30968794
000030 17 46 f5 bf c8 ed a8 be 9f 0d d3 3e 7a 49 2b ba
       -1.9162015 -0.32993913 0.4122133 -0.0006534081
000040 e6 ad 62 3e b3 7c 5a 3e 21 88 56 3e a7 dd 00 3e
       0.2213665 0.21336631 0.20950367 0.12584554
000050 1a 69 9e bf 2b fa 9f 3e bf d6 50 3e 8b 07 f1 be
       -1.2375824 0.3124555 0.20394419 -0.47076067
000060 83 be cf be 20 5c 8c bf 99 4f ab be 98 05 3f bf
       -0.40575036 -1.0965614 -0.33459166 -0.7461791
000070 e4 03 f5 bd 37 7b d5 3d 10 a0 39 bf a3 4d 7e 3e
       -0.11963633 0.10423892 -0.7250986 0.24834304
000080 38 5f b9 3e 05 34 a6 3e e8 67 c0 be 8f 84 83 3e
       0.3620546 0.32461563 -0.37579274 0.25687072
000090 f1 9f 93 be 02 84 47 3c c7 8d f4 3d da d7 a2 be
       -0.28832963 0.012177469 0.119411044 -0.31805307
0000a0 ae ba 08 bf a5 c4 23 3e 9f 56 1a bf 82 5f 0c bf
       -0.5340985 0.15992983 -0.60288423 -0.54833233
0000b0 4b e2 d8 3d 2e 8d c4 3e b0 27 0e bf 05 0f 6a 3d
       0.10590037 0.38388962 -0.5552931 0.05714323
0000c0 e0 98 52 bf cb 19 8f 3e b0 e2 87 be 9c bc 09 be
       -0.8226452 0.27949366 -0.26540136 -0.13450855
0000d0 f4 b3 38 3d 22 5d f5 bc ff 38 17 3e e7 bb a8 3e
       0.04509349 -0.029951636 0.14767836 0.32955858
0000e0 bb be 7e 3e ea 72 e7 3d a0 b7 c0 3e f8 97 7d bc
       0.24877445 0.11301215 0.37640095 -0.015478127
0000f0 ad 99 f7 3e c2 89 02 3e 26 3a f3 bd 75 ee c1 3e
       0.48359433 0.12747863 -0.11876325 0.3787724
000100 7d 6b 86 3d 70 db b5 81 49 7f 88 3c 6a 0a 7d 3d
       0.065634705 -6.6803777e-38 0.016662257 0.06177751
000110 2f 1d 12 3d 88 49 37 01 19 27 50 bd 7d dd c3 be
       0.035672363 3.3664548e-38 -0.050818536 -0.3825492
000120 5b 85 67 3d 39 92 85 3d 1c 74 3c 3c 7d df c3 3c
       0.056523662 0.065220304 0.011502292 0.023910278
000130 a8 97 57 00 a4 24 ba be 70 17 01 3d 9d 38 9a af
       8.044092e-39 -0.3635608 0.031516492 -2.8052663e-10
000140 81 ea b4 3c 69 c1 6c bd e5 77 e1 3c c5 9a af bd
       0.022084476 -0.057801638 0.02752299 -0.08574442
000150 f0 9b 78 01 24 b0 e4 3c 35 6a 91 3a ee b7 51 3e
       4.5662286e-38 0.027916022 0.0011094274 0.2048032
000160 f6 c1 44 3e fe 8a a3 be be 19 c0 bc e1 54 d0 bd
       0.19214615 -0.3194198 -0.023449775 -0.10172439
000170 af 2b eb bd ed cd f5 bc ac a1 a5 3e 13 e1 f1 bc
       -0.11482941 -0.03000542 0.32349908 -0.029526269
000180 34 eb 11 3d 63 a8 09 3d 2f 85 4f be 1e 71 b8 bd
       0.035624698 0.03360785 -0.2026565 -0.090059504
000190 1a d7 e2 3d be e3 cf bc 39 38 50 bd 41 6d 98 be
       0.110761836 -0.02537715 -0.050834868 -0.29770854
0001a0 fc 64 16 bd 1a 89 97 bd 62 3e d8 be 79 17 3a bd
       -0.0367174 -0.07399197 -0.42235094 -0.04543254
0001b0 09 4c a9 bc 8e 15 1b be c3 2e 0c 3e f8 9e d7 3c
       -0.02066614 -0.15144941 0.13689713 0.02632092
0001c0 d4 76 c5 3d cd a9 9d 3b c1 45 89 be 28 28 8d bd
       0.09641805 0.0048115016 -0.2681103 -0.06892425
0001d0 23 a3 94 bc fc f8 86 bd 99 96 5e 3c f7 aa 60 3c
       -0.018144196 -0.06590459 0.01358571 0.013712636
0001e0 52 67 3b 3d a9 75 78 bd a1 84 33 3d bc 2b 52 bd
       0.04575283 -0.060659084 0.043827657 -0.05131124
0001f0 dc 25 67 3c e5 9a fb bc fe d2 ad ba 8d 86 98 bb
       0.0141081475 -0.030713508 -0.0013261733 -0.0046547116
000200 72 f4 8f 3e 55 4e 21 bf ff 98 9b 3e d9 33 54 3e
       0.28116184 -0.6301015 0.30390164 0.20722903
000210 25 2e 53 3e 30 b0 b5 be cf bc b3 3e eb 37 2a bf
       0.20623071 -0.35485983 0.35104987 -0.66491574
000220 18 78 6c 3e 44 bd f4 3e b0 55 13 3e d2 3b 8d 3e
       0.23092687 0.47800648 0.14388156 0.27584702
000230 71 e3 6d bf 41 e9 97 be 7b 62 02 3f b9 a1 03 bb
       -0.92925173 -0.29670146 0.5093152 -0.0020085408
000240 21 c0 c3 3e 42 c7 8d 3e 55 bf 9c 3e 55 e1 0f 3e
       0.3823252 0.27691084 0.30614725 0.14050801
000250 24 75 fa be 28 ff 1b 3f 61 4f e7 3e 01 ee 9d 3d
       -0.48917496 0.6093621 0.4517775 0.07711411
000260 08 62 05 3e 36 c0 7b be e4 5b 9b be 32 a0 49 be
       0.13025677 -0.24585041 -0.30343544 -0.19690016
000270 6f 53 47 3e 94 98 31 be fb b4 d5 be 12 cd c1 3e
       0.19465421 -0.1734336 -0.4173964 0.3785177
000280 bf 05 bd 3e a7 58 ac 3e cf 74 75 3d a4 44 01 bd
       0.36918446 0.33661386 0.05992585 -0.0315596
000290 f8 b8 e8 be 0d 25 75 bb f9 e6 ef 3e ea 2c 7c be
       -0.4545362 -0.0037406117 0.46855906 -0.24626508
0002a0 21 dd cc bd 8a 32 9f 3e 27 a4 d5 3d b4 7c b7 be
       -0.100031145 0.31093246 0.104317 -0.35837328
0002b0 83 0e aa 3e 8b 8c 27 3f cf 3d b6 bd 3f 17 4a bf
       0.33214197 0.65448827 -0.08898508 -0.7894172
0002c0 14 49 9e be 4a 09 e9 3e 7d d8 a0 bd a2 27 07 3d
       -0.3091513 0.455149 -0.07853792 0.03299678
0002d0 57 66 23 bf ba 4c 16 3e b8 48 b8 3e f4 0a 17 3f
       -0.63828033 0.14677706 0.3599298 0.5900109
0002e0 48 b1 82 3e 24 bc a3 3e 83 57 55 3e 41 bf 81 3e
       0.2552588 0.31979477 0.20834164 0.25341228
0002f0 8c cc 0e 3f b9 f1 a5 3e cb 4f 82 3e ae 4a a7 3e
       0.55780864 0.32410982 0.25451502 0.32674164
000300 f6 64 07 3e 90 71 18 81 5b 89 10 3d 4a 35 06 3d
       0.13222107 -2.7999468e-38 0.035287242 0.032765664
000310 21 f5 99 3e 75 6a 7d 80 a6 dd 4f 3d eb de 2c c0
       0.3006983 -1.1517627e-38 0.05074849 -2.7011058
000320 3c 86 42 3e 54 04 49 3e 7f 48 d3 bd 1a 61 0d 3f
       0.18996519 0.19630557 -0.10316562 0.5522629
000330 0a 46 1c 13 c7 fd 18 bf 23 79 1f 3e a8 26 d4 ba
       1.97245e-27 -0.59762233 0.15573554 -0.0016185837
000340 ba 85 13 3e 60 56 3c be 5c 7d 93 3e eb 2d 7e 3d
       0.14406481 -0.18392324 0.2880658 0.06205551
000350 2a 02 f8 80 dc 2b 3e 3e 05 10 e3 3d ec f6 21 bf
       -2.277598e-38 0.18571419 0.1108704 -0.632674
000360 24 d6 c0 bd f3 ae fc bf 15 fc 03 bf 95 52 93 bd
       -0.09415844 -1.974089 -0.5155652 -0.07193486
000370 4c 54 b4 be ad 1a 50 be 71 5b b9 be 94 bc 62 3d
       -0.35220563 -0.20322676 -0.36202577 0.055355623
000380 cb 8b 6a 3e ea 9c a3 bd cd d0 a1 bf e2 18 3b 3f
       0.2290489 -0.07988913 -1.2641846 0.73084843
000390 89 38 b5 3e 08 10 87 3e 2c 7f a7 bd 3a 05 80 be
       0.35394695 0.26379418 -0.08178553 -0.25003988
0003a0 3e aa 80 be 2e 77 60 3e cb 80 35 c0 74 b8 f0 be
       -0.25129884 0.21920463 -2.835986 -0.47015727
0003b0 88 48 8d be 1b e5 a0 3f 2c 37 31 be 26 38 32 3d
       -0.275944 1.2569917 -0.17306203 0.04351058
0003c0 5d 99 12 bf f1 e3 3e 3e 8e da d1 bf a3 8b 26 bf
       -0.57265264 0.1864164 -1.6394823 -0.6505682
0003d0 ab f6 b2 3c cb ac 03 bf 77 bc 4a 3c 14 d1 9c bc
       0.021846136 -0.51435536 0.012374035 -0.019142665
0003e0 a1 6a c3 bd 22 74 8f be 30 39 ae 3c e3 bf d8 bd
       -0.09541822 -0.2801829 0.021267503 -0.105834745
0003f0 b0 9e 33 3e df 7d 1d 3d 9a a0 a5 bc 04 6e bf bd
       0.17541003 0.03845012 -0.020218182 -0.09347156

fc2.bias f4 [64]
000000 0e 3a b6 3e e7 da 54 3c b1 f2 86 3e 18 f8 a8 3d
       0.35591167 0.0129916435 0.26357034 0.08250445
000010 77 38 96 bb a9 d0 82 3e e7 23 56 3e fc cf 5c 3e
       -0.004584368 0.2554982 0.20912133 0.21563715
000020 de 3c 17 be 8b 4d 9f bb 54 66 bb 3e 24 e2 70 3e
       -0.14769313 -0.0048615388 0.36601508 0.23523766
000030 60 c9 0b be 52 cd 1f be d7 7a 52 3e 89 d5 bb 3c
       -0.13651037 -0.15605667 0.20554672 0.02292897
000040 62 82 8f bd 1a d2 d2 bb 4d f2 74 8e 9f 5b c8 3d
       -0.070072904 -0.0064337375 -3.0191986e-30 0.097831
000050 e8 5d 78 be 4f 30 9d 3e 83 0d 12 3e 8c 86 87 bd
       -0.24254572 0.3070092 0.14262967 -0.0661746
000060 f7 5a 35 3e 12 84 f9 3a 53 d3 11 bc 6b e4 19 bb
       0.17710482 0.0019036552 -0.008900481 -0.0023482095
000070 11 92 d2 3e fd a9 b9 3e c6 8e 56 3e 6f 59 33 bb
       0.41127065 0.36262503 0.20952901 -0.002736654
000080 25 44 81 bb c6 7e 80 3e c1 0d cd 3d 68 16 c3 3e
       -0.003944891 0.2509672 0.10012389 0.38103032
000090 bf 5b 25 bc ba 6a 9e be 8a 92 ba 3e c1 5e f7 3d
       -0.010092675 -0.309408 0.36439925 0.1207862
0000a0 9e 96 ac 3e e9 8a 0c 3e 9d bf c9 3d b6 ea 8e bc
       0.33708662 0.13724865 0.098510005 -0.017445903
0000b0 b4 b8 4e bc b2 e9 9e 3e b9 50 24 bd 7f 5b bb 3e
       -0.012617279 0.3103767 -0.040116046 0.36593243
0000c0 d0 3e a1 bc 9b 38 c2 3e 5d 19 b3 3e d1 7b b2 3e
       -0.019683272 0.37933812 0.34980288 0.3486009
0000d0 60 3a ff 3e f8 90 9a 3e e3 9c ca 3e 10 e2 e6 3d
       0.49849224 0.30188727 0.3957282 0.11273587
0000e0 b9 86 8b 3e f9 76 df ba 82 86 96 3c ae 1e b3 95
       0.27251223 -0.0017049006 0.018374685 -7.234593e-26
0000f0 6e 80 75 3e cd 02 f9 ba 29 35 d0 bc 1a ba f7 b8
       0.23974773 -0.0018998027 -0.025415974 -0.00011812542

fc3.weight f4 [2, 64]
000000 2f 3e c6 3e f8 2e a0 3d c2 88 11 3f 2a 8b 8f 3f
       0.38719317 0.078214586 0.568493 1.1214345
000010 57 2e 15 30 cb 04 f3 3e bd 99 23 3f a6 0c 08 3f
       5.4271737e-10 0.47464594 0.6390646 0.531443
000020 76 33 17 bf b2 4d 62 3f f9 da fa 3e c1 86 1f 3f
       -0.590629 0.88399804 0.48995188 0.62314993
000030 06 cb 09 bf ad c3 9b 3d 4b 4c 8d 3f 98 84 b5 3e
       -0.53825414 0.076056816 1.1038908 0.35452724
000040 6f f6 04 bf 1c 08 cb ba fd 10 1b bb 8a 50 7a 3f
       -0.5193853 -0.0015490088 -0.002366125 0.9777914
000050 eb a5 78 bf d7 6a f4 3e cb d4 1f 3f 5f c5 5a 3e
       -0.9712817 0.47737762 0.6243407 0.21364354
000060 6e 63 a6 3e b9 e2 22 3e ac 06 59 bc b4 91 74 3b
       0.32497734 0.159068 -0.01324622 0.003731829
000070 71 cf c7 be e7 1d 8a 3f cd 86 ca 3e 57 c6 bd 3a
       -0.39025453 1.0790375 0.3955597 0.0014478666
000080 fb 5b 0a bc e6 cb 37 3f 4c 8f d8 3f 92 de 13 bf
       -0.008444781 0.717955 1.6918731 -0.5776149
000090 6d af b2 3b a4 19 a9 bf f7 94 bc 3e 75 06 55 3f
       0.0054530413 -1.321095 0.368324 0.8321298
0000a0 44 e7 96 3e bf f6 07 be 67 90 a5 be 9a 0f 61 bb
       0.29473317 -0.1327772 -0.32336733 -0.0034341575
0000b0 da b3 74 bf 18 77 d9 bf a8 6d 05 3e ce 23 07 3f
       -0.9558693 -1.698947 0.13030112 0.5278901
0000c0 0c b0 c8 3b be 33 14 3f a1 8b 16 3f 99 2c c0 3f
       0.006124502 0.5789145 0.58806807 1.501361
0000d0 38 ea eb 3e 92 9c 4a 3f 88 05 05 3f 38 75 b3 be
       0.46077132 0.7914516 0.51961565 -0.35050368
0000e0 1f 57 15 3f d0 14 41 3c fb 9a a9 bf 06 f3 32 ba
       0.5833606 0.011784747 -1.3250421 -0.00068263744
0000f0 f7 10 a4 3f bb 49 aa 3f 99 0e 95 3d af 17 86 3b
       1.2817677 1.3303751 0.07278175 0.004092179
000100 e6 db 51 3f fd 9a 85 bc b7 77 4b 3f 32 58 73 3f
       0.81976163 -0.016309256 0.79479545 0.9505645
000110 b8 b6 e9 36 ea f1 32 3f a5 25 62 3f 78 5f 65 bf
       6.9652124e-06 0.6990038 0.8833869 -0.895988
000120 34 af 80 bf 8c d8 79 3f a4 b8 50 3f dc c0 58 3f
       -1.0053468 0.9759605 0.8153174 0.8466928
000130 04 1f 83 bf 99 46 4d 00 55 89 50 3f d0 39 12 be
       -1.024384 7.096659e-39 0.8145955 -0.14279866
000140 70 8b 48 bf 48 41 bf 3b 9b a8 16 39 68 6d 49 3f
       -0.78337765 0.0058366396 0.00014367925 0.78682566
000150 84 4e 0e 3f a9 f6 44 3f da 13 64 3f f3 f8 b9 3d
       0.55588555 0.76938874 0.8909279 0.090806864
000160 63 ae 12 bf a8 86 5a 3e 75 c3 1e 3c 1a 16 5c 3b
       -0.57297343 0.2134043 0.009690155 0.003358251
000170 1b e6 2e 3f 37 fc 8a 3f 31 7b 7b 3f e6 64 5d 3a
       0.68319863 1.085822 0.9823485 0.0008445516
000180 ba 95 e3 ba dc 56 35 3f 72 4f 6d 3f a1 fc ea bb
       -0.0017363348 0.7083566 0.9269935 -0.007171229
000190 bd 45 3a bb a9 25 10 bf 75 8b 48 3f 96 6c 4c 3f
       -0.0028422915 -0.56307465 0.78337795 0.7985319
0001a0 99 e1 43 3f 66 bf 8e bf f8 ad 0d bf 71 c1 a1 bc
       0.7651611 -1.115216 -0.5534358 -0.01974556
0001b0 06 0c 4a bf 58 10 16 bf 58 8d 13 3d 40 3b 4f 3f
       -0.78924596 -0.5861869 0.036023468 0.80949783
0001c0 bf 0a 1d bc 84 8d 2d 3f b7 bb 2f 3f 0e 68 83 bd
       -0.009585082 0.6779406 0.68645805 -0.06416331
0001d0 b3 bb 46 3f 12 a9 5f 3f 7e 57 39 3f cf c1 7d 3e
       0.77630156 0.87367356 0.7239913 0.24780963
0001e0 6a 6a 20 3f 6b ac b0 bb 17 4a 85 bf de 6e 3a 3a
       0.62662375 -0.0053916476 -1.0413235 0.00071118574
0001f0 f2 99 13 bf 23 2f 96 3f 43 52 98 bb 51 7e f8 3b
       -0.57656777 1.1733135 -0.0046484782 0.0075834175

fc3.bias f4 [2]
000000 34 98 d8 3d b4 ab 8a 3e
       0.105759054 0.27084124

fc1.weight f4 [64, 4]
000000 44 f9 16 3f 5f 00 28 3f c6 cf e3 3e 12 f9 06 3f
       0.589741 0.65625566 0.44494456 0.527238
000010 26 5b 2a bf 8a 30 3c 3e ac 58 87 3f eb 58 1a 3e
       -0.6654533 0.18377891 1.0573936 0.15072982
000020 9f b3 c8 3e 30 1a dc be fc 64 33 3e 66 15 45 3d
       0.3919954 -0.4298873 0.17518991 0.04811611
000030 e5 14 a1 3e 2d 0c e4 3d bc d7 28 3f 62 c8 d7 3d
       0.31461254 0.11135135 0.65954185 0.10536267
000040 4b 3c 94 3e 6d b7 19 bd ce 9f 59 bf 5a 1f 37 3e
       0.2895225 -0.037528444 -0.8500947 0.17883053
000050 ef 2b 7f bf 2d 2f 43 bd 72 bc 93 3d 22 e7 33 bc
       -0.9967641 -0.047652412 0.072136775 -0.010980399
000060 5e f7 e3 be be 93 f6 be c3 ac 3a bf a8 dc d0 be
       -0.44524664 -0.48159593 -0.72919863 -0.40793347
000070 96 ff 7d bd c5 f6 53 bf 67 d7 a9 bf 42 2c 17 bf
       -0.062011324 -0.82798415 -1.326886 -0.5905191
000080 88 dd 23 3f 69 96 a7 3e 70 7e f6 be 45 de 78 3e
       0.64009905 0.3273194 -0.4814334 0.24303539
000090 ab 7a 09 3b 67 46 11 3f 8d be 81 3f c7 be 35 3c
       0.0020977657 0.5674805 1.0136276 0.011092848
0000a0 3e 66 02 bf 57 60 b6 be d8 51 bc 3f 91 75 a2 3e
       -0.5093726 -0.35620376 1.4712477 0.3173032
0000b0 1a 4a ee 3e ff 3a 98 be 56 8d d0 be c5 98 78 be
       0.4654091 -0.2973251 -0.4073283 -0.24277027
0000c0 f3 4f 5f be 3f 53 20 bf eb a2 f5 bf fa 52 03 bf
       -0.21807842 -0.62627023 -1.9190344 -0.5129849
0000d0 e9 77 10 3f e8 ae c6 3e 5e 2d 9d 3f e5 69 d3 3e
       0.5643297 0.38805318 1.227947 0.4129173
0000e0 45 11 2a 3d c3 5f 10 3d 9e ba 01 3f a8 43 b2 be
       0.041520376 0.035247575 0.5067538 -0.34817243
0000f0 14 cf 87 bb 6c 42 dc 3b 0c 0d 98 bb 85 54 d8 3b
       -0.0041445587 0.0067217853 -0.004640227 0.0066018724
000100 61 d9 5b 3e 1a 86 0c be dc 06 dc 3d f5 ad 1c be
       0.21469642 -0.1372303 0.10743496 -0.15300734
000110 27 33 38 bf f7 ef 0a bf 0f 38 a2 3e 6a 4e 98 be
       -0.7195305 -0.5427241 0.31683394 -0.29747325
000120 2c 98 1c 3f 1a 4f ae be e5 3c bd bf 55 96 b9 be
       0.61169696 -0.34044725 -1.4784209 -0.36247507
000130 4e b2 0e be 1a aa d3 3e ee 30 f4 3f 7c 2f f5 3e
       -0.13935205 0.41340715 1.9077432 0.4788779
000140 31 71 4d bf 5d 47 8d be b2 d7 e0 3e bd e8 35 be
       -0.8025084 -0.27593508 0.43914562 -0.17764564
000150 41 38 b1 3d 81 c3 05 bd 95 2d 82 3e 1f 61 c7 be
       0.08653308 -0.03265715 0.254254 -0.38941285
000160 2f 7f 60 be d1 75 aa 3d 4d 2e 63 3b 67 67 6c 3d
       -0.21923517 0.08323253 0.0034665049 0.0577158
000170 ad 86 65 3f b8 23 e9 3e d0 99 b9 be 37 79 0c 3e
       0.89658624 0.45535064 -0.36250162 0.13718115
000180 eb 7b e8 3e 7f 6c ab 3e 34 d6 9d be fe 02 0e bf
       0.45407042 0.33481213 -0.30827487 -0.55473316
000190 9a 29 f2 be 61 70 e6 be 3d b5 ce bf a2 a2 ba be
       -0.47297364 -0.45007613 -1.614906 -0.36452204
0001a0 e1 49 a0 3e e1 74 a1 be 99 b4 f1 bf 55 53 8c be
       0.31306365 -0.31534484 -1.8883239 -0.27407327
0001b0 96 2e a5 bf 0c 82 a9 be fc 6e e2 3e 18 2c ef bd
       -1.2904842 -0.3310703 0.442253 -0.11678332
0001c0 07 99 b7 3e d0 2d 40 bf ca e3 35 bf 1d df 5b be
       0.35858938 -0.75069904 -0.71050704 -0.2147183
0001d0 12 a2 87 3e 98 95 c6 be 14 dd df bf e9 cd 26 bf
       0.26490837 -0.38786006 -1.7489343 -0.65157944
0001e0 a8 3f 1a 3f 16 37 9d be 10 d4 72 bf 1e f6 0c bf
       0.6025338 -0.3070609 -0.9485483 -0.55063045
0001f0 59 ec 55 be b1 e9 e8 be 5e b7 6d bf bb 63 43 be
       -0.2089094 -0.45490792 -0.9285792 -0.19081013
000200 00 1d 99 3e ec bb cf bd e0 53 31 3f ee 8c 61 3e
       0.29904938 -0.10143265 0.6926861 0.22026417
000210 90 e4 eb be d7 f0 13 3f bd f1 a5 be e9 40 16 3e
       -0.46072817 0.5778937 -0.32410994 0.14673199
000220 34 2e b5 bf a0 83 48 bf ae 65 80 be 9f 69 24 bf
       -1.4154725 -0.78325844 -0.25077575 -0.64223665
000230 60 e9 a7 3d 85 f4 62 be b1 ed d2 bb 73 e8 81 3e
       0.081988096 -0.2216359 -0.0064370264 0.25372657
000240 0a d9 6d be cf 68 2b 3e b8 94 fc 3f 93 60 24 3f
       -0.23227325 0.167392 1.9732885 0.6420986
000250 2e 5a 14 3d 33 b3 b8 bd 80 da a4 3d 1e b9 ee 3d
       0.036218815 -0.090185545 0.08049488 0.11656402
000260 d3 40 77 3d 3a b8 38 bf f6 53 1d 3e 67 5a 19 bf
       0.060364556 -0.7215611 0.1536406 -0.5990357
000270 29 e1 80 3f 2a 14 bb 3e 1d 42 d0 3f dd de 93 3e
       1.0068713 0.3653882 1.6270176 0.2888097
000280 04 40 95 3f b3 de 68 3e df ed a6 3f 33 e8 5b 3e
       1.1660161 0.22741203 1.3041342 0.21475296
000290 90 d6 ce 3e c6 c9 05 be 36 a9 f4 bf 4e e9 b9 3d
       0.40398073 -0.13065252 -1.9114139 0.090777025
0002a0 64 4e 9e bf 2f f8 7a bf a8 f5 af bf 7b ed 2c bf
       -1.2367673 -0.9803495 -1.3746843 -0.67549866
0002b0 5d d3 8b 3f 9d 25 23 3e 50 56 63 3f 27 5a a7 3d
       1.0923878 0.15932317 0.8880358 0.08171492
0002c0 82 61 1b bf 1f 4e c5 3e 66 6d f7 3e 30 46 99 be
       -0.6069566 0.38536164 0.48325652 -0.2993636
0002d0 fa 80 f6 be 00 34 df 3e 16 46 3b 3f 35 be a2 3e
       -0.48145276 0.4359436 0.7315382 0.3178574
0002e0 6b d5 1e 3f 03 09 6c 3f 22 e8 de 3f a4 54 31 3f
       0.620444 0.9220125 1.7414591 0.69269776
0002f0 d7 83 67 3e 5d b5 5c be 3c d7 d9 bf 86 dc 06 bf
       0.22608887 -0.2155356 -1.7018809 -0.5268024
000300 a0 2d 87 3f 74 b9 36 3f 25 64 90 3f ea 39 f0 3e
       1.0560799 0.7137673 1.1280562 0.46919185
000310 8d ca ec 3a a3 e3 ad bd b2 7d ae 3d ef 26 ab 3e
       0.0018065736 -0.08490684 0.08520068 0.3342814
000320 0c cb a1 bf 8b ee c5 be 22 e1 9b 3d 11 5b 47 be
       -1.264009 -0.38658556 0.076113 -0.19468333
000330 4f 83 31 bf bf 8b 0c bf 15 5c b4 bf 6a e6 e7 be
       -0.69340986 -0.54900736 -1.4090601 -0.4529298
000340 50 df 6f be 44 d1 57 3e 5c a4 ee 3f 2b c4 c8 3e
       -0.2342503 0.21075922 1.8643909 0.39212164
000350 f3 0d 3c bf c8 77 0c bf 29 f2 5a bd 95 d3 17 3e
       -0.73458785 -0.5487027 -0.0534536 0.14826806
000360 e3 04 30 3e 80 0a 16 be 14 2d 86 be f3 2f e9 bd
       0.17189364 -0.14652443 -0.26206267 -0.11386099
000370 a9 e1 da be a1 77 e1 3e 84 50 d4 be 14 33 94 bd
       -0.4275029 0.44036582 -0.4146768 -0.07236305
000380 0a ae ee bd aa a5 57 3e 5e a6 cc 3f e9 5d 20 3e
       -0.11654289 0.2105929 1.5988271 0.15660824
000390 1f 5d 83 be 40 12 2b bf 79 b2 5b bf 3e 85 3d 3d
       -0.25656983 -0.6682472 -0.858192 0.046269648
0003a0 ce 02 bd 3c 6e c9 99 3e 06 d0 f0 3e c2 02 9e 3e
       0.023072626 0.3003649 0.4703371 0.3086148
0003b0 45 6b 85 3e e2 31 4b bf 3d fb 6f bf 75 44 e2 be
       0.26058403 -0.7937299 -0.93742734 -0.44192854
0003c0 ae 87 b9 3e 2c 91 74 be 3e 83 a8 bf 0c 01 9b be
       0.36236328 -0.23883504 -1.3165052 -0.30274236
0003d0 04 ad 51 be ea 11 04 bf 24 e6 45 bf 49 bc 10 3e
       -0.20476156 -0.51589835 -0.7730429 0.14134325
0003e0 0e a0 d9 be 95 3d 09 3f e8 ec 8c 3e 79 10 00 3d
       -0.42504925 0.5360959 0.27524495 0.03126571
0003f0 ed d4 21 bd 49 b3 e7 bd 76 5f 30 bf e0 6a 96 be
       -0.039509702 -0.11313493 -0.6889566 -0.29378414

fc1.bias f4 [64]
000000 1a 24 16 3f 94 20 9c be 2e aa 26 3f b9 63 2a 3f
       0.58648837 -0.30493605 0.65103424 0.66558415
000010 6a 46 30 3f 80 f6 8c be ee 91 20 3f 3b 3d cf 3d
       0.68857443 -0.27531815 0.6272267 0.10119101
000020 d4 53 d1 3e af 38 69 3f 35 07 9d 3c 4a 4b 42 3e
       0.40884268 0.9110212 0.019168476 0.18974033
000030 ef 4b 80 be 69 46 37 bd 3f 8f 31 3f a8 d7 2b bc
       -0.25057933 -0.044744883 0.693592 -0.010488428
000040 76 6e 34 3f a2 b3 24 3f a8 f4 41 3f 40 de 80 be
       0.7048105 0.643366 0.7576394 -0.25169563
000050 77 97 80 be 55 39 0c 3f 62 6a 2c 3f c3 85 b8 be
       -0.25115559 0.5477498 0.6734983 -0.36039552
000060 e7 32 3b bd a7 ae 17 3e e1 50 98 3e b4 6d 8d bd
       -0.04570284 0.14812718 0.29749206 -0.0690569
000070 88 c2 da 3d f9 cd 27 be 6d 44 44 be b8 35 3d 3f
       0.10681635 -0.16387166 -0.19166727 0.73910093
000080 e1 38 60 3f 79 46 b4 3e 52 20 bc 3e d3 d0 05 be
       0.8758679 0.35210016 0.36743408 -0.13067941
000090 d8 98 9c be db ec 9a bd 5f 10 cd 3e d5 8f 28 3d
       -0.3058536 -0.07564708 0.40051553 0.041152794
0000a0 6f 38 93 3d 58 55 89 3c 18 37 b7 3c 29 e9 4e 3d
       0.07188498 0.016764328 0.022365138 0.050515328
0000b0 f9 c0 c9 3e 9f 30 8e 3d d8 83 9c be 6c 00 9b be
       0.3940504 0.069428675 -0.3056934 -0.3027376
0000c0 e4 d4 bf be 5e a9 4c 3f 31 9b a5 bc 51 30 28 3f
       -0.3746711 0.79945934 -0.020215603 0.65698725
0000d0 ff 9c a4 be 83 ca 22 3f aa af 48 3f 53 1a 2d 3f
       -0.3215103 0.6359026 0.7839304 0.6761829
0000e0 bd ca 13 3f bb e4 0a 3f 0d 3b 64 3f 19 bb c6 3e
       0.5773123 0.54255265 0.89152604 0.3881462
0000f0 cf 00 31 3f cc 71 49 3f 12 e2 46 3e fc 22 2c 3f
       0.6914186 0.78689265 0.19422176 0.6724088

fc2.weight f4 [64, 64]
000000 56 7e 9f 3d 07 88 9c bf 8d bf a7 3e 7e 3a a3 3e
       0.077877685 -1.2229012 0.3276333 0.31880563
000010 96 79 35 3e 81 1b bd bf 7d 0c 26 3d 2e 32 ac bf
       0.17722163 -1.4774019 0.040539254 -1.3452814
000020 0b ac 47 3e 97 fd 8f 3e d3 01 34 be ad de 9e 3e
       0.19499223 0.2812316 -0.17578821 0.31029263
000030 4b d1 f5 bf 9a 88 a7 be 8a 10 d3 3e b0 ca 4a ba
       -1.9204496 -0.32721406 0.41223556 -0.0007735891
000040 bf e5 62 3e 22 09 5a 3e fb c1 56 3e 68 fa ea 3d
       0.22157954 0.21292546 0.20972435 0.114735425
000050 96 a5 9e bf 6f f6 9f 3e 7c ea 50 3e 24 05 ef be
       -1.2394283 0.312427 0.20401949 -0.4668361
000060 a2 a2 cf be 64 93 8c bf 3d 69 ab be 60 2d 3f bf
       -0.40553766 -1.098248 -0.33478728 -0.7467861
000070 d0 6b f5 bd dd 82 ce 3d df b0 39 bf 95 30 7e 3e
       -0.11983454 0.10083554 -0.7253551 0.2482322
000080 5e 96 b9 3e 2c 19 a6 3e 8c 0e c1 be 23 d5 84 3e
       0.36247534 0.3244108 -0.3770641 0.2594386
000090 dc 5f 92 be 13 65 88 3c 16 ca f3 3d b9 55 a1 be
       -0.2858876 0.016649758 0.11903779 -0.31510714
0000a0 16 15 08 bf cb 35 23 3e 81 c3 1a bf 34 b0 0b bf
       -0.53157175 0.15938489 -0.60454565 -0.5456574
0000b0 44 db d6 3d a1 dd c3 3e fa 17 0d bf fd f0 38 3d
       0.1049104 0.38255027 -0.5511471 0.0451517
0000c0 a6 69 51 bf 12 44 8f 3e 47 58 88 be 48 6b 0a be
       -0.8180183 0.2798162 -0.2662985 -0.13517487
0000d0 dd 3c eb 3c cc b5 f6 bc 95 68 17 3e 78 a6 a8 3e
       0.028715545 -0.030115984 0.14785989 0.32939506
0000e0 d7 13 7f 3e 29 6b e7 3d 0b e4 c0 3e ad b9 7f bc
       0.24909912 0.11299736 0.37673983 -0.015608233
0000f0 54 aa f7 3e bb 9e 02 3e 42 23 f5 bd 38 e4 c1 3e
       0.48372138 0.12755863 -0.119696155 0.3786943
000100 3c 1b 8d 3d 25 6a 33 90 d7 be a6 3c ce 99 84 3d
       0.0688996 -3.5383296e-29 0.020354671 0.064746484
000110 38 12 1f 3d 77 20 f6 98 9c 2c 4c bd db 58 c0 be
       0.038835734 -6.362229e-24 -0.04984723 -0.3756779
000120 ae 6c 75 3d 9b d2 89 3d b6 a7 34 3c e9 ae e2 3c
       0.0599181 0.06729623 0.0110263135 0.027671294
000130 39 de c6 26 e8 ab b8 be 5d 75 09 3d 5f 70 bd b2
       1.3799244e-15 -0.36068654 0.033559192 -2.2053596e-08
000140 95 53 cb 3c f2 02 6b bd 52 03 f9 3c e5 24 c3 bd
       0.024820128 -0.057375856 0.030397091 -0.095285214
000150 9d 6a 38 92 e8 f8 f4 3c cc fe 64 3b 32 0d 4e 3e
       -5.8191574e-28 0.029903844 0.003494191 0.20122221
000160 ef e8 42 3e 39 f3 a1 be 0f ae a9 bc 91 65 ba bd
       0.1903417 -0.31630877 -0.02071288 -0.091014035
000170 a0 6a e4 bd ba d1 06 bd 8f 03 9f 3e bf 73 e0 bc
       -0.111531496 -0.032914855 0.31057402 -0.027398942
000180 cd 41 1f 3d e0 b5 0b 3d 7f 35 51 be dc 46 b1 bd
       0.038881112 0.034108996 -0.20430563 -0.086560935
000190 c1 fa e4 3d 73 06 b4 bc b5 27 49 bd 35 b8 95 be
       0.1118064 -0.021975731 -0.049110133 -0.292421
0001a0 87 db ff bc 83 e3 95 bd 1d 33 de be 49 6d 24 bd
       -0.031232608 -0.07318785 -0.4339837 -0.040143285
0001b0 68 35 ac bc d1 70 1c be aa 93 0e 3e 8d 4b 75 3c
       -0.02102156 -0.15277411 0.13923517 0.014971626
0001c0 45 3e c7 3d 8c 29 04 3c 97 b2 85 be 7d 9e 8b bd
       0.09728674 0.008066546 -0.26112816 -0.068173386
0001d0 a4 10 9b bc 3a 17 85 bd e0 bf 85 3c a6 4c 77 3c
       -0.018928833 -0.06498571 0.016326845 0.015093958
0001e0 77 d1 45 3d 81 46 70 bd b3 af 3e 3d 21 c7 47 bd
       0.048295464 -0.058660988 0.04655428 -0.04877389
0001f0 5b 83 89 3c 4f bc e5 bc c1 05 10 bb 1c 42 21 bb
       0.016786268 -0.028043894 -0.0021976086 -0.0024606055
000200 a9 fb 8f 3e 92 03 21 bf 4f 9b 9b 3e 01 e6 53 3e
       0.2812169 -0.6289607 0.3039193 0.20693208
000210 48 16 53 3e 88 4a b5 be 03 92 b3 3e c2 6a 2a bf
       0.20613968 -0.35408425 0.35072336 -0.6656915
000220 65 77 6c 3e 34 7b f4 3e e3 a6 13 3e 05 48 8d 3e
       0.2309242 0.47750247 0.14419131 0.2759401
000230 81 50 6d bf 3d 8e 98 be bc 46 02 3f fc ae 13 bb
       -0.92700964 -0.2979602 0.5088918 -0.0022534719
000240 dc a1 c3 3e 0b 9b 8d 3e b4 9d 9c 3e d1 9c 08 3e
       0.38209426 0.2765735 0.30589068 0.1334107
000250 47 0a fa be e1 e1 1b 3f 24 39 e7 3e 9c b7 95 3d
       -0.48835966 0.6089154 0.45160782 0.07310411
000260 55 ad 02 3e b0 ec 7b be 72 76 9b be ed e3 48 be
       0.12761433 -0.24602008 -0.30363804 -0.19618197
000270 3f ac 47 3e 84 ef 30 be 74 73 d7 be 0b bd c1 3e
       0.194993 -0.17278868 -0.4208027 0.3783954
000280 cd f5 bc 3e b6 1b ac 3e d7 75 74 3d 02 37 e8 bc
       0.3690628 0.33614892 0.059682693 -0.028346542
000290 a5 c0 e7 be eb 62 b9 3a aa bd ef 3e ac d7 7b be
       -0.45264164 0.001414386 0.4682439 -0.24593991
0002a0 e8 2c cc bd 09 88 9e 3e cd 85 d6 3d e5 53 b7 be
       -0.09969503 0.30963162 0.10474739 -0.35806194
0002b0 b1 a2 a9 3e d6 43 27 3f 19 c0 bb bd 2e ef 4a bf
       0.33131936 0.65337884 -0.09167499 -0.7927121
0002c0 69 7f 9f be 87 07 e9 3e 6e a6 9f bd 1b 7f 05 3d
       -0.31151894 0.45513555 -0.07795416 0.03259192
0002d0 66 24 23 bf e1 2b 16 3e 95 2f b8 3e d7 f0 16 3f
       -0.63727415 0.14665176 0.35973802 0.5896124
0002e0 b2 8d 82 3e dd bc a3 3e d8 1c 55 3e 86 b3 81 3e
       0.2549873 0.3198003 0.20811784 0.25332278
0002f0 df bd 0e 3f 72 f3 a5 3e 32 b8 81 3e f8 29 a7 3e
       0.5575847 0.32412297 0.25335842 0.32649207
000300 0c 2a 0a 3e 34 72 18 81 97 14 19 3d 1b 95 0f 3d
       0.13492602 -2.7999928e-38 0.03737315 0.035054307
000310 8b e2 9a 3e ab 6a 7d 80 71 48 52 3d aa ee 2c c0
       0.30250964 -1.1517702e-38 0.051338617 -2.702067
000320 ad 01 45 3e cc 26 4b 3e 95 1c d0 bd 66 db 0d 3f
       0.1923892 0.19839019 -0.101617016 0.554129
000330 d7 6e 55 2c 63 1c 17 bf fa 4d 21 3e 47 56 04 bb
       3.033065e-12 -0.5902769 0.15752402 -0.0020193027
000340 95 6f 15 3e 29 94 3b be 71 47 94 3e 26 4b 83 3d
       0.14593346 -0.18318237 0.28960755 0.06410818
000350 4b 02 f8 80 9a e7 3f 3e aa 72 e6 3d 75 de 1e bf
       -2.2776026e-38 0.18740693 0.11252339 -0.6205819
000360 72 1c be bd df 57 fc bf 84 e0 03 bf 78 7f 8e bd
       -0.09282769 -1.9714316 -0.5151446 -0.069579065
000370 cc 5e b4 be 73 f4 4d be d0 9c b9 be 9d 36 67 3d
       -0.35228574 -0.20112781 -0.3625245 0.056448568
000380 e8 cc 6c 3e 25 36 a1 bd 97 49 a1 bf f4 81 3b 3f
       0.2312504 -0.078716554 -1.2600583 0.7324517
000390 d3 91 b7 3e 1a 43 88 3e 0c 3b a5 bd f9 9f 7a be
       0.35853443 0.26613694 -0.08067903 -0.24475087
0003a0 04 93 7c be 57 a3 5f 3e 2a 39 36 c0 65 80 ee be
       -0.24665457 0.21839653 -2.847239 -0.46582332
0003b0 f0 cb 8c be 1f 18 a1 3f 97 16 1e be d7 9f 3f 3d
       -0.27499342 1.2585486 -0.15438305 0.046783295
0003c0 32 e1 0e bf c5 e2 40 3e 7c 97 d1 bf 58 76 26 bf
       -0.5581237 0.18836506 -1.6374354 -0.6502433
0003d0 a6 b2 be 3c 5c 7b 03 bf 49 4b 67 3c 00 06 92 bc
       0.023278546 -0.51360106 0.0141170705 -0.017825127
0003e0 65 6b be bd 3e 0b 8f be b2 3a bf 3c a4 05 d7 bd
       -0.09297828 -0.27938265 0.023343418 -0.10499123
0003f0 b2 16 35 3e 5d f2 22 3d de 56 9c bc 66 b8 bc bd
       0.17684439 0.039781917 -0.01908439 -0.09214859

fc2.bias f4 [64]
000000 c1 4b b6 3e 4d 12 7f 3c 6a d3 86 3e 35 95 ac 3d
       0.3560467 0.015568328 0.2633317 0.084268965
000010 53 22 d9 bb 91 cd 82 3e 87 64 55 3e 9b 7f 5c 3e
       -0.006626406 0.2554746 0.2083913 0.21533053
000020 6d b9 1a be f7 8b e4 bb 5e 72 bb 3e 83 f0 70 3e
       -0.15109797 -0.006974693 0.36610693 0.23529248
000030 58 5c 08 be f3 42 21 be fc ce 51 3e 4c 95 e9 3c
       -0.13316476 -0.15748195 0.20489115 0.028513573
000040 0c b7 8a bd ed 76 d3 bb 50 7f c8 aa 79 6f c6 3d
       -0.06773195 -0.006453386 -3.5615478e-13 0.096892305
000050 65 46 76 be 6f 2f 9d 3e 0c 79 12 3e 35 3f 55 bd
       -0.24050291 0.3070025 0.14303988 -0.052062232
000060 d8 8f 34 3e 96 ad 24 3b 29 52 12 bc 63 8a 41 bb
       0.17632997 0.002512788 -0.008930721 -0.0029531948
000070 fa c5 d2 3e 10 eb b9 3e 02 fc 54 3e 06 35 60 bb
       0.4116667 0.3631215 0.20799258 -0.0034211292
000080 bf 6d 8c bb 7d 82 80 3e 74 d3 ce 3d 2b 0c bd 3e
       -0.0042855437 0.25099555 0.10098925 0.36923346
000090 4f 6c 27 bc 37 c1 9f be a7 80 ba 3e 7d cd f7 3d
       -0.010218694 -0.312021 0.3642628 0.12099741
0000a0 30 8a ac 3e bb 90 0c 3e 11 bc c9 3d 1c bc 8d bc
       0.3369918 0.13727085 0.09850324 -0.017301612
0000b0 c4 dd 2b bc 47 63 9e 3e 5f 80 1a bd e3 56 bb 3e
       -0.010489885 0.30935118 -0.03772008 0.36589727
0000c0 f6 e1 a7 bc f5 30 c2 3e a3 f4 b2 3e e3 28 b2 3e
       -0.020493489 0.37927976 0.34952268 0.3479682
0000d0 07 37 ff 3e 8e 18 9a 3e 86 98 ca 3e ad ee e2 3d
       0.4984667 0.3009686 0.3956949 0.1108068
0000e0 05 80 8b 3e 10 08 ff ba ff 35 78 3c 69 ee af ab
       0.2724611 -0.0019457359 0.015149592 -1.250067e-12
0000f0 9a e8 74 3e f7 99 0f bb c4 2d ea bc 41 f0 27 37
       0.23916855 -0.0021911839 -0.028586276 1.0009914e-05

fc3.weight f4 [2, 64]
000000 63 7c c5 3e 74 95 ad 3d 98 59 11 3f 7b 4c 8f 3f
       0.38571462 0.084757715 0.56777334 1.1195215
000010 21 56 11 33 36 87 f2 3e 3d 31 23 3f 27 e2 07 3f
       3.3838777e-08 0.47368783 0.63747007 0.53079456
000020 9c 50 17 bf 1a 21 61 3f f8 2e fa 3e 69 30 1f 3f
       -0.59107375 0.87941134 0.4886396 0.62183243
000030 f4 5a 09 bf c9 89 b6 3d 0a 29 8d 3f 28 9d b9 3e
       -0.5365441 0.08912999 1.1028149 0.36252713
000040 30 16 04 bf 1f 18 cb ba e1 b6 26 bb 74 64 79 3f
       -0.51596355 -0.001549486 -0.0025438594 0.97418904
000050 13 c9 78 bf 43 f2 f3 3e 69 2c 1f 3f 64 95 4f 3e
       -0.97181815 0.4764577 0.6217714 0.20271832
000060 dd 5f a6 3e 05 66 23 3e a2 14 59 bc df 4a 7f 3b
       0.32495013 0.15956886 -0.013249548 0.0038954539
000070 7d 48 c8 be 81 f4 89 3f 37 ef ca 3e 58 66 bf 3a
       -0.39117804 1.0777742 0.3963563 0.0014602644
000080 ec 47 0b bc e4 76 37 3f 57 8e d8 3f 34 d7 11 bf
       -0.008501034 0.7166579 1.6918439 -0.56969
000090 2e cf b2 3b a5 2f a9 bf 64 34 bc 3e fa 9b 54 3f
       0.0054568266 -1.3217665 0.3675872 0.830505
0000a0 53 84 96 3e b8 2b 07 be 15 9e a5 be dd f1 37 bb
       0.2939783 -0.13200271 -0.3234717 -0.0028067746
0000b0 b6 be 75 bf dc af d8 bf bf 2c ea 3d 0e e9 06 3f
       -0.95994127 -1.6928668 0.11434316 0.52699363
0000c0 53 90 c9 3b 70 f5 13 3f ef 5a 16 3f c1 11 c0 3f
       0.006151238 0.5779638 0.58732504 1.5005418
0000d0 d3 71 eb 3e bd 35 4a 3f 52 c7 04 3f 18 1a b3 be
       0.45985278 0.7898825 0.5186664 -0.34980845
0000e0 19 1e 15 3f d8 d4 43 3c 18 a0 a9 bf a9 23 81 ba
       0.5824905 0.011952601 -1.3251982 -0.0009852547
0000f0 44 f9 a3 3f ab bf a9 3f fe 03 a3 3d 93 76 57 3b
       1.2810445 1.3261617 0.07959746 0.0032877072
000100 25 22 52 3f ab 25 ba bc f8 7d 4b 3f f8 2b 73 3f
       0.8208335 -0.02272304 0.7948909 0.94988966
000110 0b 7e a4 37 85 00 33 3f b1 2e 62 3f 94 68 65 bf
       1.9609017e-05 0.6992267 0.88352495 -0.896127
000120 3d 09 80 bf f2 7f 79 3f 64 c7 50 3f 7f ce 58 3f
       -1.0002819 0.97460854 0.81554246 0.8469009
000130 0d 5a 83 bf 76 96 ca 86 57 ba 50 3f 05 2e 10 be
       -1.0261856 -7.620504e-35 0.8153433 -0.14080055
000140 e0 f8 48 bf 18 4e bf 3b 94 24 8c 39 a6 52 49 3f
       -0.78504753 0.005838167 0.00026730134 0.78641737
000150 0c 1f 10 3f 6c 03 45 3f 68 f8 63 3f 61 3e b4 3d
       0.56297374 0.76958346 0.8905091 0.0880096
000160 c2 cc 12 bf ed d7 59 3e 77 cb 1e 3c d7 b3 60 3b
       -0.57343686 0.21273775 0.0096920645 0.003428688
000170 ad f6 2e 3f 00 19 8b 3f 10 18 7b 3f 22 21 5f 3a
       0.6834515 1.0867004 0.9808359 0.0008511712
000180 85 a7 e6 ba 67 61 35 3f 61 ee 6c 3f 21 35 1a bc
       -0.0017597532 0.7085175 0.9255124 -0.009412081
000190 54 64 3a bb 0d 5d 0e bf 5c 92 48 3f f2 75 4c 3f
       -0.0028441148 -0.55610734 0.78348327 0.7986747
0001a0 6a e9 43 3f 77 c1 8e bf f5 d1 0d bf fc b0 9d bc
       0.76528037 -1.1152791 -0.55398494 -0.019249432
0001b0 4e ca 49 bf 63 02 17 bf d9 bb 06 3d 4b 49 4f 3f
       -0.7882432 -0.58988017 0.03289399 0.8097121
0001c0 4d 3e 1d bc bb 9b 2d 3f 83 c3 2f 3f 2d 18 83 bd
       -0.009597373 0.6781575 0.686577 -0.064010955
0001d0 d5 ca 46 3f bc b0 5f 3f 53 66 39 3f a9 62 7d 3e
       0.7765325 0.8737905 0.7242176 0.24744667
0001e0 f4 76 20 3f 6a 05 b4 bb 1d 2b 85 bf 3a 46 4f 3a
       0.6268151 -0.0054938095 -1.0403782 0.0007906888
0001f0 28 97 13 bf 41 20 96 3f 7c b9 a5 bb 82 7d e4 3b
       -0.5765252 1.1728593 -0.005057512 0.0069729695

fc3.bias f4 [2]
000000 44 45 d7 3d 39 b3 8a 3e
       0.10511258 0.2708986

exp_avg f4 [64, 4]
000000 11 7c b8 3a cf 40 8a bd a6 ce ea bb 8b 8e 1a 3d
       0.0014075061 -0.067506425 -0.0071657477 0.037733596
000010 c5 aa 87 bd 50 80 c9 39 09 20 88 3b e9 5c a1 bc
       -0.066243686 0.00038433308 0.0041542095 -0.019697623
000020 7d 91 84 3b fb fd de bd 1f 84 4f bc 39 39 95 3d
       0.004045664 -0.10888287 -0.0126657775 0.07286305
000030 fa 43 5a 3d c5 b1 82 bd 40 88 fd bb 7e 33 86 3d
       0.053287484 -0.06381563 -0.0077371895 0.0655279
000040 04 6b 85 bc e7 45 f2 bd 15 12 56 bc 22 41 89 3d
       -0.01628638 -0.11829739 -0.0130658345 0.06701876
000050 65 4b 90 bd f0 23 a7 3c 43 6f 2a 3b 57 8c ec bc
       -0.0704563 0.020402879 0.0026006259 -0.028875513
000060 0f 9c 7c 3d 4a 4f 8a bd e1 43 02 bc 43 29 9c 3d
       0.061672267 -0.067534044 -0.007950754 0.076250575
000070 11 3a 04 be 3d c7 55 3e 47 5a 0d 3d 0b 65 6d be
       -0.12912776 0.20876785 0.034509923 -0.23183076
000080 b7 c5 4a bc 00 40 d2 bd ef f3 32 bc cb a0 8a 3d
       -0.01237624 -0.10266113 -0.010922416 0.0676895
000090 46 ff 9d 3d 7d 8b 57 bd 9d 92 eb bb 57 a4 94 3d
       0.07714705 -0.05262326 -0.0071891085 0.07257908
0000a0 9d de 0e 3d c3 6b 3e bc 9a ad 0f ba db fc ba 3c
       0.03488027 -0.011622372 -0.0005480886 0.022825649
0000b0 75 1a 2c bd 60 41 fc bd 9f 61 58 bc 89 13 8a 3d
       -0.04201742 -0.12317157 -0.013206868 0.06742007
0000c0 e0 df 8f bd 59 f3 cd bb 73 84 28 3b e5 81 c8 bc
       -0.07025123 -0.006285113 0.0025713712 -0.024476001
0000d0 d4 a6 80 3d 90 e0 7c 3e 33 ab d4 3c 94 5f 25 be
       0.0628182 0.24695039 0.02596054 -0.16149741
0000e0 45 22 0d 3d 8d 6a ff bd 58 a0 72 bc ad a6 c6 3d
       0.03445651 -0.12471495 -0.014808737 0.0969976
0000f0 b5 40 2f b3 44 8f 8d 33 28 11 25 b3 1d 91 8a 33
       -4.0804213e-08 6.591884e-08 -3.843266e-08 6.452522e-08
000100 65 fd 5b 3c 1b dd c4 bd 64 e5 3b bc d3 20 87 3d
       0.013427113 -0.09612485 -0.011468265 0.065980576
000110 9b 5c 85 3d 1c 5c 85 bd cb c7 f5 bb f4 7b 9f 3d
       0.06511804 -0.06511709 -0.007500624 0.07787314
000120 0c a3 93 bd f8 9a 58 be 23 75 c7 bc db e4 b3 3d
       -0.07208833 -0.21152866 -0.024347847 0.08783885
000130 7f 05 dd 3c 96 a7 ed 3c 8f 6a 2a 3b da 09 43 b9
       0.02698016 0.029010575 0.0026003455 -0.00018600319
000140 6f 22 7e bd 4a ec c7 3c bf 87 5b 3b 90 63 b5 bc
       -0.062044557 0.024404664 0.003349766 -0.022142202
000150 7f 9f f1 3b 6d 47 13 be ee 62 8e bc 14 e5 b1 3d
       0.0073737497 -0.14382716 -0.017381158 0.08686271
000160 cb 9e 99 3c b0 f1 cc bd b3 bf 3e bc 66 e7 92 3d
       0.018752476 -0.10007036 -0.011642384 0.07173042
000170 7a ee 00 3d b5 8e 2c 3d ab 84 af 3a a1 86 95 bc
       0.03147743 0.042128284 0.0013390979 -0.018252673
000180 83 05 22 3c fd 15 1e 3c ba 54 2e 3a 87 7a 63 bb
       0.009889009 0.009648797 0.00066501985 -0.0034710483
000190 a7 08 97 bd e2 e4 e1 3d 27 22 7e 3c ef f4 04 be
       -0.07374697 0.11029984 0.015511072 -0.1298406
0001a0 68 32 35 bc e0 65 d0 3d bf 3d 4e 3c 8f 3c ba bd
       -0.011059381 0.10175681 0.012587964 -0.09093582
0001b0 b3 cf fe bc 9f 97 c8 3c af 7b 1c 3b d5 5b 84 bc
       -0.031104898 0.024486361 0.0023877432 -0.01615707
0001c0 27 de 90 ba 57 56 3f bd a5 d2 b1 bb 16 c4 e0 3c
       -0.0011052535 -0.0467132 -0.005426722 0.027437251
0001d0 5b aa f3 3c f7 f9 c3 3c 39 b4 6e 3a 96 71 06 bc
       0.029744318 0.023922903 0.0009105835 -0.008205792
0001e0 71 55 5f 3d ae d0 0f 3d f3 41 8d 3b 3f f3 8e 3c
       0.054524843 0.03511112 0.0043108403 0.017449973
0001f0 41 ec 57 3d 59 fe 97 bd b5 c7 17 bc c6 7c 99 3d
       0.052715544 -0.0742156 -0.009263922 0.07494502
000200 dc 58 b1 3c ce cf cd bd 2e 99 49 bc 30 19 9c 3d
       0.021648817 -0.10049401 -0.012304587 0.07621992
000210 a2 e1 90 bc 67 ca d7 bd eb 8f 49 bc cf a5 4c 3d
       -0.017685715 -0.10536652 -0.012302379 0.049962815
000220 75 14 22 3c 8d 15 96 bc ab 12 5a 3a 07 bd 6b 3c
       0.009892573 -0.018320823 0.0008318822 0.014388329
000230 5b 4f a6 3a 31 c4 90 3b 03 1f 12 ba 9d ac 7f bb
       0.0012688445 0.004417919 -0.0005574079 -0.0039012798
000240 68 16 e5 3c 7c 6e f8 3c 45 72 e2 39 09 49 2a bb
       0.027964786 0.03032612 0.00043191217 -0.0025983474
000250 ba fb 73 3a e5 5b fe 3a a2 b4 83 38 8c be c2 ba
       0.00093072245 0.0019406049 6.280212e-05 -0.0014857813
000260 d7 b6 8f 3d 9a 3c a1 bd a9 1b 16 bc c9 d0 b6 3d
       0.07017296 -0.07872887 -0.009161868 0.08926541
000270 7f 07 a4 bb 35 26 15 3e 78 62 a6 3c 55 e6 ca bd
       -0.0050057764 0.14565356 0.020310625 -0.099072136
000280 14 36 2b b7 e4 15 10 3e 4e 7f 8f 3c bf a6 d5 bd
       -1.0204985e-05 0.1407085 0.017516758 -0.10432195
000290 6e 58 05 3c 6e 1f dd bc 3b 12 7b bb 76 6e d4 3c
       0.008138759 -0.026992526 -0.0038310427 0.025931578
0002a0 5b 88 9a 3b 3e d8 42 3c 5a 7e d4 ba 84 3c 83 bc
       0.004715962 0.0118923765 -0.0016211972 -0.016020067
0002b0 2b 69 99 3c c0 fc 4a 3e 1c 2a dd 3c b6 cb f7 bd
       0.018726906 0.19822979 0.026997618 -0.12099402
0002c0 58 69 53 bb 1a 71 7c bd 93 4b ed bb bd db f0 3c
       -0.0032258835 -0.0616313 -0.007241675 0.029401654
0002d0 73 da c3 bd b4 7e 2d be 33 88 a5 bc 5b 29 25 3d
       -0.0956315 -0.16942865 -0.020206546 0.040322643
0002e0 04 58 c0 bc 21 d1 e6 bc b4 b1 73 bb 51 bc 44 3b
       -0.02347947 -0.028175892 -0.0037184777 0.0030019472
0002f0 5a 8c 05 3e 9a 7a 9a 3d ed e6 52 3c 43 4f 8e 3c
       0.13041821 0.07542916 0.01287244 0.01737178
000300 0d fc ac 3d ff bf c7 3d 7f c5 87 3b 64 a3 cb bc
       0.08446512 0.09753417 0.0041434164 -0.024858184
000310 21 74 8a 3c 72 88 f8 bd aa 22 6a bc e0 d1 ac 3d
       0.016901078 -0.121354 -0.014290491 0.08438468
000320 15 e8 d8 bc a4 c9 6c 3c 4f da 02 3b 83 68 88 bc
       -0.026477853 0.014452372 0.0019966548 -0.016651398
000330 d3 bc b2 bc 9f ff 55 bc 7f f5 63 ba 6d 24 c0 bb
       -0.021818554 -0.013061433 -0.00086959446 -0.0058637173
000340 76 21 dd 3c e8 6a 06 3d 0c 57 1c b7 fd 13 2f bc
       0.026993494 0.032816797 -9.318592e-06 -0.010685918
000350 ad be d2 3c 85 7a d0 bc e4 d0 4a bb ff 6f e4 3c
       0.025725687 -0.025449047 -0.0030947262 0.027885435
000360 0c 99 07 3c 5b 0c ec bd 22 bb 5a bc af 3f 95 3d
       0.008276235 -0.11525794 -0.01335028 0.07287537
000370 db ee 81 3c f5 a6 1b be 09 e8 8d bc f3 5f d0 3d
       0.015860965 -0.15200408 -0.017322557 0.10174551
000380 f6 a2 d6 3c 90 bd 44 bd 57 57 00 bc 20 9b 48 3d
       0.026200753 -0.048032343 -0.007833323 0.048976064
000390 a4 ef 3f 3d 75 f2 37 bd 95 a9 a7 bb 4f 93 57 3d
       0.0468594 -0.04490896 -0.0051166513 0.05263072
0003a0 dd 23 92 3c 02 9a b0 bd aa 34 2b bc 6f 30 87 3d
       0.017839367 -0.08623125 -0.010449568 0.06601035
0003b0 2b c9 3a 3d 37 d3 67 bd 8c 1b dd bb 82 a0 6a 3d
       0.045602005 -0.056597915 -0.0067476686 0.05728198
0003c0 7f 2c 96 bd 99 dd 8f be 7f 75 f6 bc 09 ef fe 3d
       -0.07332706 -0.28098753 -0.030085323 0.12447936
0003d0 94 e8 5a 3d 02 4d 9d bd aa 4b 17 bc 6c df 9f 3d
       0.05344446 -0.07680704 -0.009234348 0.07806286
0003e0 f3 95 81 bd b6 5d da bd 98 ea 2f bc 75 42 b7 3c
       -0.06327429 -0.10662405 -0.010737084 0.022370556
0003f0 30 d9 3d bc d4 ee 1b be 04 78 88 bc 29 5f ab 3d
       -0.011587426 -0.15227824 -0.01665879 0.0836776
