dqn-reinforcement/a2_part_2_dqn_lunalander_kumarsat_apurvaba.pth (torch, 90274 bytes, 24 tensors)

fc1.weight f4 [64, 8]
0	0x3d63725b	0.05552898
1	0x3db483cd	0.088142015
2	0x3f58f9a9	0.8475595
3	0xbd324e3d	-0.043531645
4	0xbf4f5cfc	-0.8100126
5	0x3e99414a	0.29932624
6	0x3e1b2a5c	0.15152878
7	0xbf197a7a	-0.5995251
8	0x3fc83422	1.564091
9	0xbd948b0e	-0.07253085
10	0x3f13e8e8	0.5777726
11	0xbe6b609d	-0.22986074
12	0x3e7dc544	0.24782282
13	0x3e35eed9	0.17766894
14	0xbc0a2d26	-0.008433616
15	0x3d148baf	0.036266025
16	0x3f5ff09a	0.87476504
17	0xbfaab7ed	-1.333738
18	0x3e2830fd	0.16424938
19	0xbe94d9f2	-0.2907253
20	0x3de48432	0.11158027
21	0x3d490c3b	0.04908393
22	0xbede6f8c	-0.4344448
23	0x3da3a4d4	0.07990423
24	0xbf4de6ac	-0.804301
25	0xbf40403e	-0.75098026
26	0x3efe0f9f	0.49621293
27	0xbf77cb82	-0.96794903
28	0xbee1dd35	-0.4411408
29	0xbe8372bf	-0.25673482
30	0x3e547b98	0.20750272
31	0xbcce96cd	-0.025218392
32	0x3e62aa69	0.22135319
33	0x397fc9fe	0.00024393943
34	0xbdc3b208	-0.09555441
35	0x3e1ae314	0.15125686
36	0x3f2ab870	0.6668768
37	0x3db8e107	0.090272956
38	0xbf2870e4	-0.6579726
39	0x3eaeaa82	0.34114462
40	0x3daf333c	0.08554694
41	0xc02fca81	-2.7467349
42	0xbde89688	-0.113568366
43	0xbe89baa9	-0.26900223
44	0xbe227d6d	-0.15868159
45	0xbd0b4de5	-0.034009833
46	0xbeb64aba	-0.35603887
47	0x3d9bdf0a	0.07610901
48	0xbd118a4e	-0.03553229
49	0xbf247819	-0.64245754
50	0xbfa790ef	-1.3091105
51	0xbf9d41a4	-1.2285657
52	0x3ee6da11	0.45088246
53	0x3efe8913	0.49713954
54	0x3df8a6c0	0.1214118
55	0x3e0cbc20	0.13743639
56	0x3e2913b7	0.16511427
57	0x3d8a65af	0.06757676
58	0x3eeaa15a	0.45826226
59	0xbe9cef10	-0.3065114
60	0xbf4f3374	-0.80937886
61	0xbf5494c7	-0.83039516
62	0x3e8e1bf3	0.277557
63	0x3d20155f	0.03908288
64	0x3df1f705	0.11814693
65	0xbde67b22	-0.112539545
66	0x3f0fba3e	0.5614356
67	0xbe85ae0a	-0.26109344
68	0xbf512ef0	-0.81712246
69	0xbf40fcf3	-0.7538597
70	0x3ea5011f	0.32227418
71	0xbd421f4b	-0.047393125
72	0x3c7925a4	0.015206728
73	0xbfd3976c	-1.6530585
74	0xbdbfc1f2	-0.09363164
75	0xc00c0384	-2.1877146
76	0xbd8daa0f	-0.06917202
77	0x3f2b50ee	0.66920364
78	0x3ec80add	0.39070788
79	0x3e4f29ad	0.20230742
80	0xbf481ce2	-0.7816907
81	0xbf60568f	-0.8763208
82	0xbc19c241	-0.009384693
83	0xbf42bf7e	-0.76073444
84	0x3eff4838	0.49859786
85	0x3e313eb7	0.1730908
86	0x3e946391	0.28982213
87	0x3cb5fd20	0.022215426
88	0xbef2c0dd	-0.47412768
89	0x3dc1f924	0.09471348
90	0x3f173fb3	0.5908157
91	0xbffbd69e	-1.9674871
92	0x3f27d992	0.6556636
93	0x3eefae57	0.46812698
94	0xbef74682	-0.4829598
95	0xbe45f02e	-0.19329903
96	0x3e85097d	0.259838
97	0xbe859cec	-0.26096284
98	0xbf1227da	-0.5709206
99	0xbffc9ebc	-1.9735942
100	0xbf0879df	-0.5331096
101	0xbc68adbe	-0.01420158
102	0x3d7d6445	0.061863203
103	0x3de22ac7	0.110433154
104	0xbdc2a41f	-0.0950396
105	0xbf94bf6b	-1.1620916
106	0xbe015d33	-0.12633209
107	0xbf514b1c	-0.8175523
108	0xbf1fdacc	-0.6244323
109	0xbed8dfd9	-0.42358282
110	0xbdf26a05	-0.11836628
111	0xbea855b5	-0.3287789
112	0xbe03ad33	-0.12859039
113	0xbf752279	-0.95755726
114	0xbf620d49	-0.8830152
115	0xbf92249e	-1.1417425
116	0x3ee059b9	0.43818453
117	0x3e63ec2b	0.2225806
118	0x3d15331f	0.036425706
119	0xbef5befe	-0.47997278
120	0x3e05163c	0.12996763
121	0x3f23ec89	0.640328
122	0xbe5726aa	-0.21010843
123	0xc00726ee	-2.111751
124	0xbfee8343	-1.8633808
125	0xbefd64f3	-0.4949108
126	0x3caae5bb	0.020861497
127	0xbeac13c7	-0.3360884
128	0x3d32c905	0.04364874
129	0xbe85be2c	-0.26121652
130	0xbebf57d0	-0.37371683
131	0x3f05a616	0.5220655
132	0xbffa4496	-1.9552181
133	0xbdf1c150	-0.118044496
134	0x3ed36d7c	0.41294467
135	0xbe29aa71	-0.16568924
136	0xbf4a827c	-0.79105353
137	0xbf3127f9	-0.6920162
138	0xbc7012c0	-0.014652908
139	0xbf48c018	-0.7841811
140	0xbe04f2fb	-0.12983315
141	0x3d8c949b	0.06864282
142	0x3eb2e12e	0.34937423
143	0xbee29f10	-0.4426198
144	0xbe6af693	-0.22945623
145	0x3f0cf5f0	0.5506277
146	0x3efc0c17	0.49227974
147	0x3f3d4512	0.7393352
148	0x3d55f1aa	0.052232422
149	0xbf548937	-0.83021873
150	0x3eaa4b7a	0.3326071
151	0x3ed59bac	0.4172033
152	0x3dfa891a	0.12233181
153	0xbf2f902e	-0.68579376
154	0x3edbea46	0.42952174
155	0xbf3e9530	-0.7444639
156	0x3f2f5d6b	0.6850192
157	0x3e9c4ad7	0.30525848
158	0xbd400e76	-0.04688879
159	0xbeabd989	-0.33564404
160	0x3ee9b011	0.4564214
161	0xbf349cfe	-0.7055205
162	0x3f045777	0.5169596
163	0xbf0ed41c	-0.55792403
164	0x3e77075f	0.24123906
165	0x3e4522dc	0.19251579
166	0xbb00b323	-0.0019638024
167	0x3df05c2f	0.117363326
168	0xbc6e9283	-0.014561298
169	0xbdb25390	-0.087073445
170	0xbf5f0be8	-0.8712754
171	0xbf628ac7	-0.8849301
172	0x3c017d73	0.007903445
173	0xbe56a86a	-0.20962682
174	0xbea7130a	-0.32631713
175	0xbdc19dbd	-0.09453914
176	0xbeb87a2e	-0.36030716
177	0x3f3aff7c	0.7304609
178	0xbd9fea6d	-0.07808385
179	0xbfdc10af	-1.7192591
180	0x3bfa76fa	0.0076435776
181	0x3e786b95	0.2425979
182	0xbd82bb63	-0.063833974
183	0xbd19ef36	-0.037581645
184	0xbbce5c1f	-0.006297603
185	0xbdb62e77	-0.08895581
186	0x3e5caec7	0.21551047
187	0xbeaf5d38	-0.34250808
188	0xc02851f9	-2.6300032
189	0x3dd7fbaa	0.10546048
190	0x3e44063d	0.19143005
191	0x3e28f7bd	0.16500755
192	0x3ea70ff7	0.32629368
193	0x3f58c68d	0.84677964
194	0xbe0e29ed	-0.13883181
195	0xbd243d61	-0.040097598
196	0x3e0e2f06	0.13885126
197	0xbe5217af	-0.20516847
198	0xbf137e34	-0.57614446
199	0x3eefcba3	0.4683505
200	0xbf28f0df	-0.6599254
201	0xbe4f7ca9	-0.20262398
202	0x3ef292c2	0.47377592
203	0x3d9faabe	0.07796238
204	0xbf88683c	-1.065681
205	0xbead934d	-0.33901444
206	0x3f0fe085	0.56201965
207	0xbe046185	-0.12927826
208	0x3ea5e7d2	0.32403427
209	0x3e7b519a	0.24542847
210	0x3ecabd61	0.3959761
211	0x3d1f6b17	0.03892049
212	0xbf5010e0	-0.8127575
213	0xbef2e976	-0.47443742
214	0x3e5a7104	0.21332175
215	0x3f11e22c	0.56985736
216	0x3f430c95	0.76191074
217	0xbea98693	-0.33110484
218	0xbd8c846a	-0.068611935
219	0xbf1c0ff6	-0.60961854
220	0xbf876ca1	-1.0580026
221	0xbe86cd61	-0.26328567
222	0x3c76db55	0.015066941
223	0xbdc8d814	-0.09806839
224	0xbd17560e	-0.036947303
225	0x3d2986dc	0.041388378
226	0xbe5d5988	-0.21616185
227	0x3cb33970	0.021877974
228	0xbf322eb4	-0.69602513
229	0xbf9ec6a9	-1.2404376
230	0xbf726c14	-0.94696164
231	0x3ebf4383	0.37356195
232	0xbd4a8b05	-0.049448986
233	0x3ea90697	0.3301284
234	0x3eccbe76	0.3998906
235	0xbeb9b415	-0.36270204
236	0x3f2f2608	0.68417406
237	0xbf501961	-0.81288725
238	0xbe53b4f1	-0.20674492
239	0x3de59068	0.11209184
240	0xbe951787	-0.29119512
241	0xbf5b0210	-0.8555002
242	0x3e90dd6a	0.28293926
243	0xbf3a86ce	-0.72861946
244	0xbf08e2c1	-0.53471
245	0xbec1d037	-0.37854168
246	0xbe5ca786	-0.2154828
247	0x3e70c61d	0.23513074
248	0xbd19fbf8	-0.03759381
249	0x3ea78ada	0.32723123
250	0xbeb8e623	-0.3611308
251	0xbf1ee09d	-0.6206148
252	0x3cd06c93	0.025442397
253	0xbf8fdd81	-1.1239473
254	0xbdcf12c0	-0.10110998
255	0x3e44c506	0.19215783

fc1.bias f4 [64]
0	0x3da8aef1	0.082364924
1	0xbd4f27ce	-0.05057507
2	0xbe1e83ad	-0.15479918
3	0xbea655f0	-0.3248744
4	0x3f0c5dee	0.54830825
5	0x3e40b9be	0.18820855
6	0x3c9a6925	0.018848965
7	0xbeb31e40	-0.34984016
8	0xbe96c729	-0.29448822
9	0xbd8dbb88	-0.06920534
10	0xbeba01b5	-0.36329427
11	0x3e7241a5	0.23657854
12	0x3e3474b9	0.17622651
13	0xbeea1c46	-0.45724696
14	0xbb866afe	-0.00410211
15	0x3e9c2827	0.30499384
16	0x3d472cb9	0.048626635
17	0xbc51c378	-0.012802951
18	0x3e76edd6	0.24114165
19	0xbf3b9520	-0.7327442
20	0xbf24adf9	-0.6432796
21	0x3f2f02b4	0.683635
22	0x3e84f97c	0.2597159
23	0x3cfe9019	0.03107457
24	0xbe08e6d0	-0.13369298
25	0x3e487107	0.19574367
26	0xbe3de4c8	-0.18544304
27	0x3c9cdbfd	0.019147867
28	0xbcca1829	-0.024669724
29	0x3ed46c54	0.41488898
30	0xbe8a1974	-0.26972544
31	0x3dc9d5a8	0.09855205
32	0x3e8d23e6	0.2756645
33	0xbe3ed614	-0.18636352
34	0xbbfeea00	-0.00777936
35	0xbcf5aae1	-0.029988708
36	0x3e68945c	0.22712845
37	0xbe4dbe61	-0.20092155
38	0x3d8ea3b0	0.06964815
39	0x3e80408c	0.25049245
40	0x3e621ec8	0.22082055
41	0x3f0cb7ee	0.54968154
42	0xbd3c3fe0	-0.045959353
43	0xbec0faa7	-0.37691233
44	0x3ec8398b	0.39106402
45	0xbe9d679d	-0.30743113
46	0x3f0de8ae	0.55433166
47	0x3eba00f1	0.36328843
48	0x3f20cfe6	0.6281723
49	0x3eb1ef44	0.34752858
50	0x3ecb9111	0.39759114
51	0xbf2cce0a	-0.6750189
52	0xbf0ea1d5	-0.55715686
53	0xbe155e95	-0.14586861
54	0x3e782784	0.24233824
55	0x3dc3f200	0.09567642
56	0xbec4c9e1	-0.3843527
57	0xbe0eee6b	-0.13958137
58	0xbea0f25c	-0.31434906
59	0xbf2606e8	-0.6485429
60	0xbeab4f1b	-0.3345879
61	0x3e947c3a	0.29001027
62	0x3eb22814	0.34796202
63	0x3dd07ffe	0.101806626

fc2.weight f4 [64, 64]
0	0x3f5dd54c	0.8665359
1	0xbf4e98a7	-0.8070168
2	0x3dd3a107	0.10333448
3	0x3c816631	0.015795799
4	0x3e96c8f4	0.2945019
5	0x3f1c0624	0.6094687
6	0xbc8834af	-0.016626684
7	0x3d83abda	0.064292625
8	0x3d9e5684	0.07731345
9	0x3ee57bae	0.44820923
10	0xbf50a5b6	-0.81502855
11	0xbf531ede	-0.82468975
12	0x3e1691af	0.14704011
13	0xbc8befa9	-0.017082052
14	0xbea18818	-0.31549144
15	0x3f0adac1	0.5424004
16	0x3f806839	1.0031806
17	0xbe10a8e9	-0.14126934
18	0xbeff5b52	-0.4987436
19	0x3c358901	0.011080028
20	0xbf03f9d4	-0.5155308
21	0xbe6137ce	-0.21993944
22	0xbdbb97cc	-0.09159812
23	0x3f58eea2	0.84739125
24	0xbdd47567	-0.10373955
25	0x3e638945	0.22220333
26	0xbe41e287	-0.1893407
27	0x3f799aaa	0.97501624
28	0x3db436fc	0.0879955
29	0xbf0a77d4	-0.54089093
30	0x3db83901	0.08995248
31	0xbeaafa9d	-0.33394328
32	0x3d8f5dc7	0.070003085
33	0xbd5040c5	-0.05084302
34	0x3f4134c9	0.7547117
35	0x3e7fae95	0.24968942
36	0x3d9430b6	0.072358534
37	0xbe0b8850	-0.13626218
38	0x3b969ca8	0.0045963116
39	0xbe205c5b	-0.15660231
40	0x3dafbe36	0.08581202
41	0x3ec6a3f4	0.3879696
42	0x3f5204c0	0.820385
43	0x3de5857f	0.11207103
44	0xbea347a6	-0.318906
45	0x3f33f9df	0.7030315
46	0x3f059542	0.52180874
47	0xbf1ca72d	-0.6119259
48	0xbbaf18d9	-0.0053435382
49	0x3f1a8874	0.6036446
50	0xbecfc77a	-0.40581876
51	0xbeba7023	-0.3641368
52	0xbd7ce0a6	-0.06173768
53	0xbd3cedc1	-0.046125177
54	0x3e94c16b	0.29053816
55	0xbf0fd3ce	-0.56182563
56	0x3c361119	0.011112475
57	0x3f173f11	0.59080607
58	0xbdd98922	-0.10621859
59	0xbdd09d85	-0.101862945
60	0xbe5d46a3	-0.21608977
61	0x3d98e7d0	0.0746609
62	0x3db5a569	0.0886944
63	0xbfa4d609	-1.2877818
64	0x3e64c7b7	0.2234181
65	0x3f9d7726	1.2301986
66	0x3cad53e0	0.021158159
67	0x3f421252	0.75809205
68	0xbf6b82f0	-0.9199667
69	0xbf4695c7	-0.7757229
70	0x3cd435e1	0.025904598
71	0x3edfbf84	0.43700802
72	0x3ed72a21	0.4202433
73	0xbd78f18c	-0.060777232
74	0x3f8a361f	1.0797766
75	0xbea3dc1b	-0.32003865
76	0x3d7a803b	0.061157446
77	0x3ef13ee6	0.471183
78	0x3ed7f122	0.42176157
79	0x3f4e6783	0.80626696
80	0x3ef19ffd	0.47192374
81	0x3da24625	0.07923535
82	0x3e2cc6f2	0.16872767
83	0xbdb5ed1d	-0.088831164
84	0x3e8f4d85	0.2798883
85	0xbe10ff21	-0.14159824
86	0xbe3a6897	-0.1820396
87	0x3ee81612	0.45329338
88	0xbf857716	-1.0426967
89	0xbe79d1d6	-0.24396452
90	0x3e86b15a	0.26307184
91	0x3ef6a434	0.48172152
92	0xbe2bc881	-0.16775705
93	0xbf59102b	-0.84790295
94	0xbe284330	-0.1643188
95	0xbeddd8e2	-0.4332953
96	0xbdde92cc	-0.10867843
97	0xbf340ee8	-0.70335245
98	0xbd434b79	-0.0476794
99	0x3d89a721	0.067213304
100	0x3ebc48b5	0.3677422
101	0x3f08753e	0.533039
102	0x3e5a3510	0.21309304
103	0x3da732ab	0.08163961
104	0xbd8687ba	-0.065688565
105	0x3eafa72b	0.34307227
106	0xbf114bfc	-0.5675657
107	0x3babec8c	0.0052467044
108	0xbcc178b2	-0.023617122
109	0x3eaa7c24	0.33297837
110	0xbc81f494	-0.015863694
111	0xbdfedcd5	-0.12444464
112	0xbe537d1a	-0.20653191
113	0x3eaa7213	0.33290157
114	0xbf68483a	-0.9073521
115	0x3f6ceb2f	0.9254636
116	0x3f3cef00	0.73802185
117	0x3f67adad	0.90499383
118	0x3efb635b	0.4909924
119	0x3e50ac98	0.2037834
120	0x3f7eef24	0.9958365
121	0xbf98bdec	-1.193296
122	0x3e977097	0.29578087
123	0x3d1bbc4b	0.038021367
124	0x3f1afabf	0.6053886
125	0xbe23243f	-0.15931796
126	0xbdeee4e8	-0.11664754
127	0xbf126126	-0.57179487
128	0xbefa0c6b	-0.488376
129	0xbd9775a5	-0.07395486
130	0xbeb77e43	-0.35838518
131	0xbece3abe	-0.40279192
132	0xbe4b53d7	-0.19856201
133	0x3f2f1b09	0.6840063
134	0x3e958057	0.29199478
135	0x3eb96ab1	0.36214212
136	0x3dc96fec	0.098358005
137	0x3e828eb2	0.25499493
138	0xbf0f1bab	-0.5590159
139	0x3f1fda35	0.6244233
140	0x3f0319d1	0.5121127
141	0xbec5a756	-0.3860423
142	0x3ea9d1d7	0.33167908
143	0xbf281734	-0.65660405
144	0xbf8ceb2c	-1.1009269
145	0x3e4b2370	0.19837737
146	0x3f1283bb	0.57232255
147	0xbed3aeae	-0.41344208
148	0xbe78f0de	-0.24310634
149	0x3deba523	0.11506107
150	0xba7fc745	-0.00097571715
151	0xbe1f95ff	-0.15584563
152	0x3e6070a2	0.21917966
153	0x3ece982b	0.4035047
154	0x3e4261c9	0.18982615
155	0x3e772af2	0.24137476
156	0x3e9e0aa7	0.30867502
157	0x3f0505da	0.51962054
158	0x3f71055e	0.94148815
159	0x3ee1b6be	0.44084734
160	0x3f137165	0.575949
161	0xbeb9dc32	-0.36300808
162	0x3c181333	0.009281921
163	0x3f3ce61a	0.7378861
164	0x3f197528	0.5994439
165	0x3e0d091b	0.13773005
166	0x3e69f500	0.22847366
167	0x3e2a4377	0.16627298
168	0x3ea3b2e4	0.3197242
169	0xbef95464	-0.48697197
170	0xbdfbae51	-0.122891076
171	0xbeaca808	-0.33721948
172	0x3d7f49e9	0.062326346
173	0xbeefc3ee	-0.4682917
174	0xbcba8394	-0.02276782
175	0x3edaea48	0.42756867
176	0xbe1a14a3	-0.15046935
177	0xbee627f1	-0.44952348
178	0x3f18a154	0.5962117
179	0x3ef44d4c	0.47715223
180	0xbe0f6f54	-0.14007312
181	0x3eb484a3	0.35257444
182	0xbf0d8d6f	-0.55293936
183	0x3b3a8608	0.0028461237
184	0x3de001cf	0.10937845
185	0xbe798d02	-0.24370196
186	0xbd63f9e5	-0.05565824
187	0xbda2ead6	-0.07954948
188	0xbe308df1	-0.17241646
189	0x3e9a3781	0.3012047
190	0xbd82378e	-0.063582525
191	0x3df001be	0.11719082
192	0x3e01aea4	0.12664276
193	0x3f8f5af6	1.1199634
194	0x3f7fc575	0.9991067
195	0x3f52a38d	0.8228081
196	0xbe92f94f	-0.28705832
197	0xbfa744c7	-1.3067864
198	0xbd5a6c9b	-0.05332623
199	0x3ee99642	0.4562245
200	0x3ecd3ba3	0.40084562
201	0xbe09faa1	-0.13474514
202	0x3f5f28af	0.87171453
203	0x3eb10c02	0.34579474
204	0xbe4177aa	-0.18893304
205	0x3f1b856f	0.6075048
206	0x3c9d4d81	0.019201996
207	0x3f363400	0.71173096
208	0xbec63a1b	-0.38716206
209	0x3e08ec12	0.13371304
210	0x3d949e04	0.072567016
211	0x3ca4a085	0.020096073
212	0x3e894989	0.26813915
213	0x3e6d0d81	0.23149683
214	0x3db742eb	0.089483105
215	0xbe43e167	-0.19128953
216	0xbeaad64a	-0.33366615
217	0xbf566658	-0.83749914
218	0x3ebda7bb	0.3704203
219	0x3e344e25	0.17607935
220	0x3ef1d059	0.4722927
221	0xbf0fca17	-0.5616774
222	0x3dcb9b0a	0.09941681
223	0x3de901b7	0.1137728
224	0xbf82b76b	-1.0212225
225	0xbf47d72c	-0.780627
226	0xbee390e1	-0.4444647
227	0x3eee149f	0.46500108
228	0x3e9cfdb3	0.30662307
229	0x3f169900	0.5882721
230	0x3e965aea	0.29366237
231	0x3ed21f9b	0.41039738
232	0x3e0301fd	0.12793727
233	0x3ed96b8d	0.42464867
234	0xbf306108	-0.6889806
235	0x3f333144	0.6999705
236	0x3e075954	0.1321767
237	0x3da888f1	0.082292445
238	0x3e914188	0.2837031
239	0xbdc3f7ed	-0.095687725
240	0x3e87765e	0.26457494
241	0x3ee999e4	0.45625222
242	0xbf0c93bc	-0.54912925
243	0x3f64ae0b	0.8932807
244	0x3f730d3a	0.9494206
245	0x3f405606	0.7513126
246	0x3e40c0c5	0.18823536
247	0x3e11390e	0.14181921
248	0x3f6b66cd	0.91953737
249	0xbfe99fe1	-1.8251916
250	0x3e58a076	0.21154961
251	0x3e8dfd3a	0.2773226
252	0x3f35c113	0.7099773
253	0xbdef370c	-0.11680421
254	0x3e6b5b7a	0.22984114
255	0xbf94cb14	-1.1624475

fc2.bias f4 [64]
0	0x3e591b52	0.21201828
1	0xbe8325ef	-0.2561488
2	0xbd30262e	-0.04300516
3	0xbc5780a3	-0.013153228
4	0x3c671428	0.014103927
5	0x3e32049f	0.17384575
6	0xbedf1079	-0.43567255
7	0x3de02f2a	0.10946496
8	0xbe8cccbc	-0.2749995
9	0xbf05c41c	-0.52252364
10	0xbe19b6a6	-0.15011081
11	0xbd608c46	-0.054821275
12	0x3c9c3186	0.019066583
13	0x3e9a6d2f	0.30161425
14	0x3d771e25	0.060331482
15	0xbe8de75e	-0.27715582
16	0x3f6fc8a8	0.9366555
17	0xbde2b41b	-0.11069509
18	0x3ed489fc	0.41511524
19	0xbf14d2c8	-0.58134127
20	0xbce006c5	-0.027346978
21	0xbe8ae875	-0.27130476
22	0xbd54a933	-0.051919173
23	0xbe20b9cd	-0.15695877
24	0x3e0e5bd8	0.13902223
25	0x3dd16769	0.10224802
26	0x3d7f3770	0.06230873
27	0x3e483f7c	0.19555467
28	0x3e1b9477	0.15193354
29	0xbedaad27	-0.4271023
30	0x3e02fd8e	0.12792036
31	0x3be77397	0.00706334
32	0x3e0021f4	0.12512952
33	0x3e2c7ecd	0.16845246
34	0x3e13047a	0.14357176
35	0x3e7ae5de	0.2450175
36	0xbdaa1e6b	-0.08306583
37	0xbd2c6474	-0.042087987
38	0xbc1d2c46	-0.009593075
39	0x3e85d4ba	0.2613886
40	0xbed6aba0	-0.41927814
41	0xbb35e618	-0.0027755555
42	0x3ebc45f2	0.36772114
43	0x3e3cc155	0.18433125
44	0x3d2d3576	0.042287312
45	0x3d0bad5a	0.034100868
46	0x3e367cc6	0.17821035
47	0x3ea6db84	0.32589352
48	0x3ee249c7	0.44196913
49	0x3d529e5b	0.05142055
50	0xbe38867d	-0.18020053
51	0x3ec87f83	0.39159784
52	0xbda9c71d	-0.08289931
53	0x3d8c2ee3	0.068448804
54	0x3d4306e2	0.047613986
55	0x3c6b92ed	0.014378292
56	0xbc4fd702	-0.012685539
57	0x3e9bd0c3	0.3043271
58	0xbe71f1eb	-0.2362744
59	0x3e904a8d	0.28181878
60	0xbf134426	-0.5752586
61	0x3d662755	0.056189854
62	0x3c538d8e	0.012912167
63	0x3d89f677	0.067364626

fc3.weight f4 [4, 64]
0	0xbe7b5fc8	-0.24548256
1	0xbf749f3c	-0.9555547
2	0x3e5c032d	0.21485586
3	0xbf2d83b3	-0.6777908
4	0xbef91588	-0.4864924
5	0x4018ee94	2.3895617
6	0x3ee93815	0.455506
7	0xbf281a7c	-0.6566541
8	0xbf374f3b	-0.7160527
9	0xbd32c732	-0.043647
10	0xbf157a22	-0.58389485
11	0xbef4ad7d	-0.4778861
12	0xbf293173	-0.6609108
13	0x3fcbf927	1.593541
14	0xbdf27483	-0.11838629
15	0xbeb5a8ef	-0.3548045
16	0x3fd3172b	1.6491445
17	0xbedbd781	-0.42937854
18	0x3fe6c8e9	1.8030063
19	0xbf63cfbe	-0.88988864
20	0xbf045502	-0.5169221
21	0xbf1de6c7	-0.61680263
22	0x3e4f0382	0.20216182
23	0x3d152bd8	0.036418766
24	0xbeefa773	-0.4680744
25	0x3f015cda	0.50532305
26	0x3faa414e	1.330118
27	0xbf6357be	-0.8880576
28	0x3ff51174	1.9145951
29	0xbf55563e	-0.8333472
30	0xbf4dfe3a	-0.80466044
31	0xbf1457c5	-0.57946426
32	0x3f40f884	0.75379205
33	0x3e936314	0.28786528
34	0xbf5103bb	-0.8164632
35	0x3fa0ac09	1.2552501
36	0xbf42ac54	-0.760442
37	0xbf17980c	-0.5921638
38	0xbeba7517	-0.36417457
39	0x3fd47319	1.6597625
40	0xbf22df0e	-0.63621604
41	0xbf118f1f	-0.5685901
42	0xbea84c80	-0.32870865
43	0x3eff7ff0	0.49902296
44	0xbf1dd2b3	-0.61649626
45	0xbf0a598f	-0.54042906
46	0xbfa2e8e2	-1.272732
47	0x3fe1fc43	1.7655109
48	0xbf35ce09	-0.7101751
49	0xbf0b9e49	-0.545384
50	0xbf01d78d	-0.5071953
51	0x3e5b0f6e	0.21392605
52	0xbf236f6a	-0.6384188
53	0xbee4b6e1	-0.44670776
54	0xbfa3c17a	-1.2793419
55	0xbcebfa6d	-0.028805936
56	0xbf068f5c	-0.525625
57	0xbed9fc52	-0.42575318
58	0xbf31b993	-0.6942379
59	0xbf815fdd	-1.010738
60	0x3e8becea	0.2732919
61	0xbf34b9e1	-0.7059613
62	0xbf2ba84c	-0.67053676
63	0x40199cac	2.4001875
64	0x3e347ace	0.17624971
65	0xbeb83cd6	-0.35983914
66	0xbf004e2a	-0.5011927
67	0xbf1597df	-0.5843486
68	0xbef2c5ee	-0.47416633
69	0x4015a2db	2.338065
70	0xbeff7244	-0.49891865
71	0xbf0e3140	-0.555439
72	0xbe68edd5	-0.22746976
73	0xbf07ee17	-0.5309767
74	0xbf33f517	-0.7029585
75	0xbeacffa5	-0.3378879
76	0xbf22063e	-0.63290775
77	0x3f83139e	1.0240362
78	0xbf51e4a0	-0.8198948
79	0xbe9cbdf4	-0.30613673
80	0x3fc70064	1.5546994
81	0xbf238335	-0.6387208
82	0x3fc3fb2a	1.5311024
83	0xbe9c68e7	-0.30548784
84	0xbf1fef3f	-0.62474436
85	0xbe9b3d29	-0.303201
86	0xbe1a5a98	-0.15073621
87	0x3feb79c7	1.8396538
88	0xbf445175	-0.76686794
89	0x3f545706	0.8294529
90	0x3f3591b4	0.7092545
91	0xbf90e49d	-1.1319767
92	0x400a9657	2.165426
93	0xbf0a79ca	-0.54092085
94	0xbf17d8de	-0.5931529
95	0xbefaa140	-0.4895115
96	0x394f2347	0.000197542
97	0x3efad539	0.489908
98	0xbf099640	-0.5374489
99	0x3facbeaf	1.3495692
100	0xbef2ffc2	-0.47460753
101	0xbecd7963	-0.40131673
102	0xbf2d2e30	-0.676486
103	0x3ffae22d	1.9600273
104	0xbf83332c	-1.0249991
105	0xbf313cdd	-0.69233495
106	0x3eda1689	0.42595318
107	0x3ee6231b	0.44948658
108	0xbf272918	-0.6529708
109	0xbf0544a1	-0.52057844
110	0xbf862b20	-1.0481911
111	0x3ffd5acd	1.9793335
112	0xbf5772ab	-0.84159344
113	0xbf0cb73e	-0.54967105
114	0xbf092868	-0.5357728
115	0x3f2fc271	0.6865607
116	0xbeec2161	-0.46119216
117	0x3f999a74	1.200026
118	0xbf507ba9	-0.8143869
119	0xbcc3247a	-0.023821104
120	0xbf251483	-0.64484423
121	0xbf8c4fbe	-1.0961835
122	0x3e2d65e1	0.16933395
123	0xbf940324	-1.1563458
124	0xbf7788c2	-0.9669305
125	0xbf145313	-0.5793926
126	0xbcfa5b17	-0.030561013
127	0x400a606b	2.162135
128	0x3fe9c034	1.8261781
129	0xbf3a77a5	-0.72838813
130	0x3f794573	0.97371596
131	0xbf12567e	-0.57163227
132	0xbf4d4908	-0.8018956
133	0x400860ef	2.1309164
134	0xbf605847	-0.876347
135	0xbe95bf45	-0.2924749
136	0xbf096049	-0.53662544
137	0xbfa203b7	-1.2657384
138	0xbf1096f1	-0.5648032
139	0xbf15e6bf	-0.58555216
140	0xbefc1bf7	-0.49240085
141	0x3fc2ab4c	1.5208526
142	0xbf68970a	-0.9085547
143	0xbf8ed86a	-1.1159794
144	0x3f4e91a9	0.8069101
145	0xbf0a926c	-0.5412967
146	0x3fba9f48	1.4579859
147	0xbf8fc4d3	-1.1231941
148	0xbf206eaf	-0.6266889
149	0xbf540135	-0.8281434
150	0x3f103da0	0.5634403
151	0x3f583500	0.8445587
152	0xbed3972c	-0.41326272
153	0x3ea55a17	0.32295296
154	0x3ff51277	1.914626
155	0xbec0552d	-0.37564984
156	0x3fa379e5	1.2771574
157	0xbf4e1d8b	-0.8051383
158	0xbea70fa1	-0.3262911
159	0xbf17c69b	-0.5928742
160	0x3fb4663e	1.4093702
161	0x3f8460ea	1.0342076
162	0xbee13877	-0.43988392
163	0x3fb28be2	1.3948939
164	0xbf3d13af	-0.7385816
165	0xbf63ba8c	-0.8895652
166	0xbf0e05b4	-0.5547745
167	0x3fc2a15e	1.5205495
168	0xbe96631c	-0.2937249
169	0xbf078573	-0.52938
170	0x3b97b4ff	0.0046297307
171	0xc002d6f8	-2.0443707
172	0xbf3dce9c	-0.74143386
173	0xbf5ea751	-0.86974055
174	0xbefe1c51	-0.4963098
175	0x3fcc4346	1.595803
176	0x3e3bd64c	0.18343467
177	0xbf168548	-0.5879712
178	0xbf1cd54c	-0.61262965
179	0xbe02d4da	-0.12776509
180	0xbf4f1367	-0.8088898
181	0xbfdacf52	-1.7094519
182	0xbf15df61	-0.58543974
183	0x3c8087b3	0.015689706
184	0xbf109c67	-0.5648865
185	0xbfbedb4d	-1.4910675
186	0x3e50a58f	0.20375656
187	0x3d99576a	0.07487376
188	0xbfc00bd2	-1.5003607
189	0xbf123265	-0.57108146
190	0xbf43a3dd	-0.7642191
191	0x3ffa3d86	1.9550025
192	0x3fa17bd1	1.2615911
193	0xbf533d27	-0.82515186
194	0x3e9617f0	0.29315138
195	0xbf399c3a	-0.7250401
196	0xbf60a0be	-0.87745273
197	0x3ff5b78c	1.9196639
198	0xbf1883b3	-0.5957596
199	0xbf40361a	-0.7508255
200	0xbfddb7b1	-1.7321683
201	0x3ceece93	0.029151237
202	0xbf2e271e	-0.6802844
203	0xbf213946	-0.6297802
204	0xbf279fe5	-0.65478355
205	0x3fcda76a	1.6066716
206	0xbe9756d1	-0.29558423
207	0x3d01f27b	0.031725388
208	0x3f83e4af	1.0304164
209	0xbf18b142	-0.59645474
210	0x3fb74c36	1.4320133
211	0xbe994cd7	-0.29941437
212	0xbf01fb32	-0.5077392
213	0xbf844655	-1.0333964
214	0x3f19b55f	0.60042375
215	0xbede9c3e	-0.43478578
216	0xbf160e58	-0.58615637
217	0x3f19fdb1	0.6015273
218	0x3f92fad1	1.1482793
219	0xbee6b457	-0.45059463
220	0x3ffb9567	1.9654969
221	0xbed9e784	-0.42559445
222	0xbf1aaaa6	-0.6041664
223	0xbf2dcfe5	-0.67895347
224	0x3f90002f	1.1250056
225	0xbd116f91	-0.03550679
226	0xbf14b603	-0.5809023
227	0x3fb554c6	1.4166496
228	0xbf178298	-0.59183645
229	0xbf34f87f	-0.70691675
230	0xbf2d3a94	-0.6766751
231	0x3ffbe9c1	1.9680711
232	0xbefade9e	-0.48997968
233	0xbf1c9c83	-0.6117632
234	0xbf1770e1	-0.59156615
235	0x3f6da61d	0.92831594
236	0xbec6b5c9	-0.38810566
237	0xbf2d083f	-0.6759071
238	0xbf08bc66	-0.53412473
239	0x3faafccf	1.3358401
240	0x3d2ca098	0.04214534
241	0xbf18c039	-0.5966831
242	0xbf47e024	-0.78076386
243	0x3f8e090e	1.1096513
244	0xbf654c0d	-0.8956917
245	0xbe7aface	-0.24509737
246	0xbf8d2165	-1.1025816
247	0x3c1e4f9f	0.009662538
248	0xbf3779be	-0.7167014
249	0x3de602d2	0.11231007
250	0xbf3b13d3	-0.73077124
251	0xbfadf99a	-1.3591797
252	0xbec0936d	-0.37612477
253	0xbf2baa06	-0.6705631
254	0xbe7c65fc	-0.24648279
255	0x400d98c6	2.2124496

fc3.bias f4 [4]
0	0xbdb6557b	-0.08903023
1	0x3e650240	0.2236414
2	0x3e9a5ef3	0.30150566
3	0x3e87afd6	0.2650134

fc1.weight f4 [64, 8]
0	0x3d7942d0	0.060854733
1	0x3dbb431f	0.09143662
2	0x3f574f64	0.84105515
3	0xbd4b89e0	-0.049692035
4	0xbf51cd6b	-0.8195407
5	0x3e9011b2	0.281385
6	0x3e21568f	0.15755676
7	0xbf17d5cb	-0.593106
8	0x3fc71fd7	1.5556592
9	0xbd9919d6	-0.07475631
10	0x3f161be0	0.58636284
11	0xbe71255d	-0.23549409
12	0x3e818c72	0.25302464
13	0x3e3d5b6e	0.18491909
14	0xbc857b19	-0.01629405
15	0x3d0aec79	0.033916924
16	0x3f5fb4be	0.87385166
17	0xbfac2141	-1.3447648
18	0x3e2b4432	0.16725233
19	0xbe94f34f	-0.2909188
20	0x3db5c2a1	0.08875013
21	0x3d0f9559	0.03505454
22	0xbedee11f	-0.4353113
23	0x3db76880	0.08955479
24	0xbf501433	-0.8128082
25	0xbf3e0b77	-0.74236244
26	0x3f019736	0.50621355
27	0xbf74b50e	-0.9558877
28	0xbedb9c21	-0.42892554
29	0xbe81eb1b	-0.25374684
30	0x3e56d6e0	0.20980406
31	0xbce7b31a	-0.028283644
32	0x3e61dc08	0.22056592
33	0x3b5203e8	0.0032045785
34	0xbdc7e42a	-0.09760316
35	0x3e20ca4f	0.15702175
36	0x3f2ea5a3	0.6822149
37	0x3dc40be3	0.0957258
38	0xbf2939c5	-0.66103774
39	0x3eace1c3	0.33765993
40	0x3da5e206	0.08099751
41	0xc02dd1cb	-2.7159297
42	0xbe05dbf6	-0.1307219
43	0xbe8834c2	-0.2660275
44	0xbe24de2d	-0.16100378
45	0xbd10d1a2	-0.03535617
46	0xbeb35539	-0.35025957
47	0x3d933f9e	0.071898684
48	0xbd2bc2de	-0.041933887
49	0xbf220339	-0.6328617
50	0xbfa767c6	-1.3078544
51	0xbf989a01	-1.1921998
52	0x3ee8d9a4	0.45478547
53	0x3f028c15	0.50995
54	0x3e000f4d	0.12505837
55	0x3e0ffa3e	0.14060304
56	0x3e1beae6	0.15226325
57	0x3d81d9a1	0.063403375
58	0x3eee4f31	0.46544793
59	0xbe9f10dd	-0.31067553
60	0xbf4da980	-0.8033676
61	0xbf52a188	-0.8227773
62	0x3e9043fd	0.2817687
63	0x3d31b0ee	0.043381624
64	0x3dd8da9f	0.10588574
65	0xbdf91c77	-0.12163632
66	0x3f0f01e8	0.55862284
67	0xbe897267	-0.26845095
68	0xbf4f2867	-0.80921024
69	0xbf411214	-0.7541821
70	0x3ea4492e	0.32087082
71	0xbd306aaa	-0.043070473
72	0x3c813dcc	0.015776537
73	0xbfd1ec28	-1.6400194
74	0xbdd52b2e	-0.104086265
75	0xc00aae95	-2.1669056
76	0xbd8045d0	-0.06263316
77	0x3f2d283f	0.67639536
78	0x3ec9b2bf	0.39394185
79	0x3e50718d	0.20355816
80	0xbf443acb	-0.7665221
81	0xbf5a9731	-0.8538695
82	0xbcbbd01b	-0.02292638
83	0xbf47af94	-0.78002286
84	0x3ef98171	0.48731568
85	0x3e2b6b96	0.1674026
86	0x3e94a42c	0.29031503
87	0x3ccb43e5	0.024812648
88	0xbee73119	-0.45154646
89	0x3dbdd273	0.09268656
90	0x3f13e4f6	0.5777124
91	0xbffaf6e7	-1.9606599
92	0x3f264aa4	0.6495764
93	0x3ef37b83	0.4755517
94	0xbef62f0d	-0.48082772
95	0xbe3f85b1	-0.18703343
96	0x3e80f5ae	0.2518744
97	0xbe86c1d6	-0.2631976
98	0xbf1380b1	-0.5761824
99	0xbffbc226	-1.9668624
100	0xbf08fcf4	-0.53510976
101	0xbc8e38a9	-0.017361002
102	0x3d803521	0.062601335
103	0x3de229b8	0.110431135
104	0xbdc4f85d	-0.09617684
105	0xbf95366a	-1.1657231
106	0xbdce9156	-0.100863144
107	0xbf5786e0	-0.8419018
108	0xbf2163e6	-0.6304306
109	0xbedbd4fe	-0.42935938
110	0xbdca370d	-0.09873781
111	0xbea3a60b	-0.31962618
112	0xbe013c4d	-0.12620659
113	0xbf788e6c	-0.9709232
114	0xbf682452	-0.9068042
115	0xbf928590	-1.144701
116	0x3edd7da6	0.43259925
117	0x3e3a2d91	0.18181445
118	0x3d1082ba	0.03528092
119	0xbeed65aa	-0.46366626
120	0x3e0b24c3	0.13588242
121	0x3f2351f1	0.6379691
122	0xbe6377c7	-0.2221366
123	0xc0075b0e	-2.1149325
124	0xbfed9fee	-1.8564432
125	0xbef93090	-0.48669863
126	0x3ca2ed47	0.019888533
127	0xbeabbf49	-0.33544376
128	0x3d26d9e5	0.040735144
129	0xbe842707	-0.25811026
130	0xbebfa091	-0.3742719
131	0x3f097193	0.53688926
132	0xbff96198	-1.9482908
133	0xbdf6f98f	-0.12059318
134	0x3ed42034	0.4143082
135	0xbe2ae2c6	-0.1668807
136	0xbf48ce0e	-0.78439415
137	0xbf31eec0	-0.6950493
138	0xbc92095e	-0.017826732
139	0xbf4aba59	-0.79190594
140	0xbe17223a	-0.1475915
141	0x3d7acadc	0.061228618
142	0x3eb54510	0.35404253
143	0xbee157a5	-0.4401218
144	0xbe6fba9b	-0.23411028
145	0x3f0cec91	0.5504847
146	0x3eff61aa	0.498792
147	0x3f3c744b	0.7361495
148	0x3d5977b9	0.053092692
149	0xbf539d28	-0.82661676
150	0x3eab7d6c	0.33494127
151	0x3ed6ad7c	0.41929233
152	0x3dfe4701	0.12415887
153	0xbf302271	-0.68802553
154	0x3ed9c50f	0.42533156
155	0xbf3ed695	-0.74546176
156	0x3f2f3314	0.68437314
157	0x3e9c1657	0.30485794
158	0xbd5b2158	-0.053498596
159	0xbeb00525	-0.34378925
160	0x3eed868f	0.46391723
161	0xbf32ea4a	-0.69888747
162	0x3f069f53	0.5258686
163	0xbf10cbce	-0.5656098
164	0x3e66bc23	0.22532706
165	0x3e4d0c83	0.20024304
166	0xbcce37bf	-0.025173066
167	0x3df08c78	0.11745542
168	0xbbf06a96	-0.007336925
169	0xbdae1af4	-0.08501235
170	0xbf5e0982	-0.8673326
171	0xbf619b29	-0.8812738
172	0x3b16cbfc	0.0023009768
173	0xbe5ab40c	-0.21357745
174	0xbea828dc	-0.32843673
175	0xbdc279d4	-0.09495893
176	0xbeb2ee88	-0.3494761
177	0x3f3b6f3e	0.7321662
178	0xbd845699	-0.0646183
179	0xbfdc0dfa	-1.7191765
180	0xbc2ac2d9	-0.010422432
181	0x3e7b4d5a	0.24541226
182	0xbd759130	-0.059952915
183	0xbcf347be	-0.029697295
184	0xbc5a7d3c	-0.013335522
185	0xbdc1bd76	-0.09459965
186	0x3e694f8f	0.22784255
187	0xbeb34adf	-0.3501806
188	0xc027d927	-2.622629
189	0x3dc93b07	0.09825712
190	0x3e46920e	0.19391653
191	0x3e26dd9b	0.16295473
192	0x3ea4c9a5	0.32185093
193	0x3f58e114	0.8471844
194	0xbdfc48c7	-0.12318569
195	0xbd113aca	-0.035456456
196	0x3e16cc02	0.1472626
197	0xbe58067c	-0.21096224
198	0xbf178a39	-0.59195286
199	0x3eeb2d20	0.45932865
200	0xbf27a0be	-0.6547965
201	0xbe539bf7	-0.20664965
202	0x3ef2d90f	0.47431228
203	0x3da74e40	0.08169222
204	0xbf88a124	-1.0674176
205	0xbeadb2f6	-0.339256
206	0x3f1003af	0.5625562
207	0xbe06ca95	-0.13163216
208	0x3ea67926	0.32514304
209	0x3e77f4bc	0.24214453
210	0x3ecad965	0.39618984
211	0x3d0c58e4	0.03426446
212	0xbf4f0f82	-0.8088304
213	0xbef3923f	-0.47572514
214	0x3e58da09	0.21176924
215	0x3f118bf9	0.56854206
216	0x3f3e943a	0.74444926
217	0xbeb12610	-0.34599352
218	0xbd6aa524	-0.057286397
219	0xbf1f9db6	-0.6235002
220	0xbf8704ac	-1.0548301
221	0xbe87c059	-0.26513937
222	0x3c912174	0.017716147
223	0xbdc880bc	-0.09790179
224	0xbd02809e	-0.03186094
225	0x3d34b9f1	0.04412264
226	0xbe5d825a	-0.21631756
227	0x3ccf522a	0.025307734
228	0xbf2dbbc7	-0.6786465
229	0xbf9cd780	-1.2253265
230	0xbf7a70c8	-0.9782834
231	0x3eb79544	0.35856068
232	0xbd3cf0c1	-0.04612804
233	0x3ea97d51	0.3310342
234	0x3ec99275	0.3936955
235	0xbeb78d14	-0.35849822
236	0x3f2ec8e9	0.68275315
237	0xbf514294	-0.81742215
238	0xbe5302e9	-0.20606579
239	0x3de523d2	0.11188473
240	0xbe9bd37e	-0.30434793
241	0xbf5a98bd	-0.8538931
242	0x3ea1afd0	0.31579447
243	0xbf39b507	-0.7254185
244	0xbf05086c	-0.51965976
245	0xbeb8cc3a	-0.36093313
246	0xbe6d87c4	-0.23196322
247	0x3e5c38ed	0.2150609
248	0xbd01d378	-0.031695813
249	0x3ea85d2b	0.32883582
250	0xbeb7da3d	-0.3590869
251	0xbf1e6183	-0.6186754
252	0x3cdb5169	0.026772218
253	0xbf8fac8c	-1.1224532
254	0xbdd07f55	-0.10180537
255	0x3e43a532	0.19105986

fc1.bias f4 [64]
0	0x3da596bc	0.08085391
1	0xbd58be62	-0.05291594
2	0xbe177843	-0.1479197
3	0xbeaa1e8f	-0.3322644
4	0x3f0b2f3a	0.54368937
5	0x3e389763	0.180265
6	0x3cbc451b	0.02298217
7	0xbeadf24e	-0.33973926
8	0xbe93ab77	-0.28841755
9	0xbd8b0b5a	-0.067892745
10	0xbebb6d26	-0.3660671
11	0x3e72de07	0.23717509
12	0x3e36166a	0.17781988
13	0xbee05b6d	-0.43819752
14	0x3b4aa75f	0.0030922515
15	0x3e9c4c97	0.30527183
16	0x3d4f8b7a	0.050670125
17	0xbba12511	-0.0049177487
18	0x3e784313	0.24244337
19	0xbf3b19a3	-0.73085994
20	0xbf227c14	-0.6347058
21	0x3f2dfb60	0.6796169
22	0x3e849094	0.25891554
23	0x3d09e40d	0.03366475
24	0xbe09bc66	-0.13450775
25	0x3e470b5b	0.19437926
26	0xbe3ab52d	-0.18233176
27	0x3cb00afe	0.021489616
28	0xbce98e38	-0.028510198
29	0x3ed46a41	0.41487315
30	0xbe8c52bc	-0.2740687
31	0x3dcd0063	0.100098394
32	0x3e8c87a2	0.2744723
33	0xbe385ff6	-0.18005356
34	0xbbd40c49	-0.006471191
35	0xbcf3166d	-0.02967378
36	0x3e6a1b7e	0.2286205
37	0xbe5ad4a9	-0.21370186
38	0x3d90e1ee	0.07074343
39	0x3e7ff9b6	0.24997601
40	0x3e60c3b5	0.21949656
41	0x3f0c7043	0.548588
42	0xbd44af85	-0.04801895
43	0xbebf17de	-0.37322897
44	0x3ec7c05b	0.39013943
45	0xbe9bbd98	-0.30418086
46	0x3f0dfc7d	0.5546339
47	0x3eba421b	0.3637856
48	0x3f1f83a2	0.6231023
49	0x3eb1aaa7	0.3470051
50	0x3ecba31b	0.39772877
51	0xbf2bbea1	-0.6708775
52	0xbf0e0211	-0.55471903
53	0xbe166b54	-0.1468938
54	0x3e6f2390	0.2335341
55	0x3dbaa145	0.09112791
56	0xbec1d1a4	-0.37855256
57	0xbe122583	-0.14272122
58	0xbe9f8017	-0.31152412
59	0xbf287bf5	-0.65814143
60	0xbe9f5337	-0.31118175
61	0x3e9444f6	0.28958863
62	0x3eb02399	0.3440216
63	0x3dce642a	0.100776985

fc2.weight f4 [64, 64]
0	0x3f5af644	0.8553202
1	0xbf4a752f	-0.7908506
2	0x3dcf85c2	0.10132934
3	0x3be97abd	0.0071252272
4	0x3e948fbf	0.2901592
5	0x3f184332	0.5947753
6	0xbc97259c	-0.01845055
7	0x3d5dd214	0.054155424
8	0x3d8f60c9	0.07000882
9	0x3edff031	0.4373794
10	0xbf457787	-0.7713551
11	0xbf54523e	-0.8293799
12	0x3e0e4527	0.13893567
13	0xbc6e00c8	-0.014526553
14	0xbea82488	-0.3284037
15	0x3f097b72	0.5370399
16	0x3f7f6640	0.99765396
17	0xbe1adb84	-0.15122801
18	0xbf00bdf7	-0.50289863
19	0x3cd07356	0.025445621
20	0xbf067075	-0.52515346
21	0xbe636e5f	-0.22210072
22	0xbdc2a0f9	-0.09503359
23	0x3f570f76	0.84007967
24	0xbdd6c14b	-0.104860865
25	0x3e5b6503	0.21425252
26	0xbe4756c3	-0.1946669
27	0x3f7a8686	0.97861516
28	0x3da42858	0.080155075
29	0xbf0b0b66	-0.5431427
30	0x3da35baf	0.07976472
31	0xbead0b75	-0.33797804
32	0x3d565ea1	0.05233634
33	0xbd35e642	-0.044409044
34	0x3f3f6cc5	0.74775344
35	0x3e778dc2	0.2417517
36	0x3d847f52	0.06469597
37	0xbde67529	-0.11252815
38	0x3b551c33	0.0032518029
39	0xbe2489a5	-0.16068132
40	0x3d99f491	0.075173505
41	0x3ec4aee4	0.3841468
42	0x3f545f21	0.82957655
43	0x3dd4b9be	0.1038699
44	0xbea3c845	-0.3198873
45	0x3f2e3db9	0.6806293
46	0x3f04a2a1	0.5181065
47	0xbf1e6f1d	-0.61888295
48	0xbb97162d	-0.004610798
49	0x3f197b9b	0.5995423
50	0xbed134a8	-0.40860486
51	0xbeb95f70	-0.36205626
52	0xbd7f5291	-0.0623346
53	0xbcd0c3fd	-0.02548408
54	0x3e96f012	0.29480034
55	0xbf0f4f07	-0.5597996
56	0x3b058996	0.0020376197
57	0x3f0e04b5	0.5547593
58	0xbddeb3b8	-0.108741224
59	0xbdb23c42	-0.087028995
60	0xbe58d217	-0.21173893
61	0x3d884501	0.066537865
62	0x3db55424	0.08853939
63	0xbfa5d95d	-1.2956959
64	0x3e690e95	0.22759469
65	0x3f9c9aca	1.2234738
66	0x3d039e77	0.032133546
67	0x3f4561bb	0.7710225
68	0xbf69a6d4	-0.91270185
69	0xbf46de30	-0.7768278
70	0x3d0a3aeb	0.033747595
71	0x3eda4ea4	0.42638123
72	0x3ed168bf	0.40900227
73	0xbd6ea1d4	-0.0582598
74	0x3f881685	1.0631872
75	0xbea7c283	-0.32765588
76	0x3d824604	0.06361011
77	0x3eefa61e	0.46806425
78	0x3edea99a	0.4348877
79	0x3f4e2bf0	0.80535793
80	0x3eedfc70	0.46481657
81	0x3db0fbd1	0.0864178
82	0x3e2e1862	0.17001489
83	0xbdd9c45a	-0.10633154
84	0x3e8fce6f	0.28087184
85	0xbe0ad900	-0.13559341
86	0xbe2ea646	-0.17055616
87	0x3ee63242	0.4496022
88	0xbf8352d3	-1.0259651
89	0xbe7af57f	-0.24507712
90	0x3e85c600	0.26127625
91	0x3eee3faf	0.46532962
92	0xbe327a58	-0.17429483
93	0xbf57783d	-0.84167844
94	0xbe2ff7c2	-0.17184356
95	0xbeda517d	-0.42640296
96	0xbdd02553	-0.10163369
97	0xbf334f1a	-0.70042574
98	0xbd4c3b0a	-0.04986099
99	0x3d8f1bf9	0.06987757
100	0x3eb977a1	0.36224082
101	0x3f0a0e06	0.5392765
102	0x3e5b3900	0.21408463
103	0x3da7a2ef	0.08185374
104	0xbd7fb949	-0.06243256
105	0x3eafcefe	0.3433761
106	0xbf15c154	-0.5849812
107	0x3c9a799f	0.018856822
108	0xbcab93d9	-0.020944523
109	0x3ea95876	0.33075303
110	0xbc7f5a44	-0.015585486
111	0xbdf9ba37	-0.12193721
112	0xbe4b4e02	-0.19853976
113	0x3eaa6074	0.33276713
114	0xbf661423	-0.89874476
115	0x3f6aefc7	0.9177212
116	0x3f3d8198	0.7402587
117	0x3f64944b	0.8928878
118	0x3efb67ec	0.49102724
119	0x3e52d279	0.20588101
120	0x3f7ae502	0.9800569
121	0xbf98886b	-1.1916631
122	0x3e98900f	0.29797408
123	0x3d31c827	0.04340377
124	0x3f1b1d36	0.6059145
125	0xbe24e1bf	-0.1610174
126	0xbdec287c	-0.11531159
127	0xbf10391b	-0.56337136
128	0xbef96faa	-0.48718005
129	0xbd86147f	-0.06546878
130	0xbead376e	-0.33831352
131	0xbed27d61	-0.41111282
132	0xbe4c9d57	-0.19981895
133	0x3f2a3be1	0.6649762
134	0x3e99e32b	0.30056128
135	0x3eb18d11	0.34677938
136	0x3db17756	0.0866534
137	0x3e85dca3	0.26144895
138	0xbf0bf980	-0.5467758
139	0x3f1f1095	0.6213468
140	0x3f014ef6	0.5051111
141	0xbeba11c0	-0.36341667
142	0x3eaf7357	0.34267685
143	0xbf29a69d	-0.66269857
144	0xbf8e02ff	-1.1094664
145	0x3e49dba1	0.19712688
146	0x3f124d5c	0.5714929
147	0xbee2569b	-0.442067
148	0xbe81ee8f	-0.25377318
149	0x3de314a3	0.110879205
150	0xbb4fb295	-0.0031692137
151	0xbe2363e1	-0.1595607
152	0x3e5997f8	0.21249378
153	0x3ecda04c	0.4016136
154	0x3e3b70b1	0.18304707
155	0x3e70c713	0.23513441
156	0x3e9b72a2	0.30360895
157	0x3f04483a	0.5167271
158	0x3f6de69d	0.9293001
159	0x3edcbfad	0.43114987
160	0x3f13e0f5	0.5776513
161	0xbeb78260	-0.35841656
162	0x3c19b564	0.009381626
163	0x3f3bf7ce	0.73424995
164	0x3f17aedc	0.5925119
165	0x3e12664f	0.1429684
166	0x3e703021	0.2345586
167	0x3e26f9d8	0.16306245
168	0x3ea14165	0.31495205
169	0xbefb79dd	-0.49116412
170	0xbe02a607	-0.12758647
171	0xbea76f9e	-0.32702345
172	0x3d8b478e	0.06800757
173	0xbeed1213	-0.46302852
174	0xbcda8c98	-0.026678368
175	0x3edb3d93	0.42820415
176	0xbe1ec9e5	-0.15506704
177	0xbee8d0f1	-0.4547191
178	0x3f178563	0.59187907
179	0x3ef5d7d4	0.48016226
180	0xbe1e9833	-0.15487747
181	0x3eb2e900	0.3494339
182	0xbf0ed4eb	-0.5579364
183	0x3c2a32f3	0.010388124
184	0x3ddae4d1	0.106881745
185	0xbe84cbc9	-0.25936726
186	0xbd43408d	-0.047668982
187	0xbdbf707b	-0.09347626
188	0xbe177369	-0.14790119
189	0x3e9b56f0	0.30339766
190	0xbd8b6b6b	-0.06807598
191	0x3df6d35e	0.12052034
192	0x3e0a3450	0.13496518
193	0x3f8f1205	1.1177374
194	0x3f800d82	1.0004122
195	0x3f54d8b8	0.83143187
196	0xbe9206fb	-0.2852095
197	0xbfa3d173	-1.2798294
198	0xbd68842c	-0.056766674
199	0x3ee3e5d2	0.44511276
200	0x3ec821c6	0.39088267
201	0xbe0b6e7f	-0.1361637
202	0x3f5dca4f	0.86636823
203	0x3eae7c01	0.34078982
204	0xbe428e32	-0.18999556
205	0x3f1b0047	0.605473
206	0x3cd5a929	0.026081638
207	0x3f35b231	0.70975024
208	0xbec5b1d1	-0.38612226
209	0x3e104bf1	0.1409147
210	0x3d948209	0.07251365
211	0x3b93b96e	0.004508189
212	0x3e8760d0	0.2644105
213	0x3e6d6981	0.23184778
214	0x3dbb18ab	0.091355644
215	0xbe43bfa7	-0.19116078
216	0xbea912ad	-0.3302206
217	0xbf56985f	-0.8382625
218	0x3ebc7162	0.36805254
219	0x3e2e91ac	0.17047757
220	0x3ef39291	0.4757276
221	0xbf0f7436	-0.560367
222	0x3db43f34	0.088011175
223	0x3de326a3	0.11091354
224	0xbf804a04	-1.0022588
225	0xbf48d176	-0.7844461
226	0xbee570c0	-0.44812584
227	0x3eeafe37	0.45897076
228	0x3e9ca22c	0.30592477
229	0x3f162076	0.5864328
230	0x3e968a39	0.2940233
231	0x3ed19895	0.40936723
232	0x3e053efd	0.1301231
233	0x3ed91743	0.4240056
234	0xbf2e8f37	-0.6818728
235	0x3f2d068d	0.6758812
236	0x3e06a8ab	0.13150279
237	0x3dbba61c	0.09162542
238	0x3e91592c	0.28388345
239	0xbdc4722f	-0.09592091
240	0x3e87600c	0.26440465
241	0x3ee95e20	0.45579624
242	0xbf0c6d3c	-0.5485418
243	0x3f64c00b	0.89355534
244	0x3f71381f	0.9422626
245	0x3f3e0ca3	0.7423803
246	0x3e4113f6	0.1885527
247	0x3e101f1b	0.14074366
248	0x3f6880ec	0.9082172
249	0xbfea1b2a	-1.828954
250	0x3e5492c1	0.20759107
251	0x3e843cfa	0.2582777
252	0x3f36066a	0.7110354
253	0xbde8ef32	-0.11373748
254	0x3e68c1c6	0.22730169
255	0xbf942e78	-1.1576681

fc2.bias f4 [64]
0	0x3e550ca9	0.2080561
1	0xbe82837d	-0.25490943
2	0xbd308727	-0.04309764
3	0xbc4ee3cb	-0.012627552
4	0x3c4eaa26	0.012613809
5	0x3e2f8d9b	0.17143862
6	0xbedb9c5e	-0.42892736
7	0x3dda25a0	0.10651708
8	0xbe8c324e	-0.2738213
9	0xbf066b59	-0.5250755
10	0xbe1b2c41	-0.151536
11	0xbd6a2eac	-0.057173416
12	0x3c928e49	0.017890112
13	0x3e9a0d30	0.30088186
14	0x3d797a47	0.06090763
15	0xbe895597	-0.26823112
16	0x3f6f9d6f	0.935996
17	0xbde0d7ab	-0.109786354
18	0x3ed441f0	0.41456556
19	0xbf14c00a	-0.5810553
20	0xbcdbb6ef	-0.026820628
21	0xbe8ca1f2	-0.27467304
22	0xbd53c246	-0.051698945
23	0xbe252478	-0.16127193
24	0x3e0c954b	0.13728826
25	0x3dd3cdf0	0.10342014
26	0x3d807dd1	0.062739976
27	0x3e42de93	0.19030218
28	0x3e19a72e	0.1500518
29	0xbedaeb0e	-0.42757457
30	0x3e0269f0	0.12735724
31	0x3bebaf00	0.0071924925
32	0x3dfcefac	0.12350401
33	0x3e2c5e31	0.16832806
34	0x3e11f5a8	0.14253867
35	0x3e7a97db	0.24471991
36	0xbda74209	-0.08166892
37	0xbd3700a5	-0.04467835
38	0xbc242c81	-0.010020376
39	0x3e857aa1	0.2607012
40	0xbed705ec	-0.41996706
41	0xbb491e43	-0.0030688203
42	0x3eb9706c	0.36218584
43	0x3e3da270	0.18518996
44	0x3d2ee4cf	0.042698678
45	0x3d04aa42	0.032388933
46	0x3e35cebf	0.17754649
47	0x3ea662ec	0.32497346
48	0x3ee00b80	0.43758774
49	0x3d45579f	0.048179265
50	0xbe38d524	-0.18050057
51	0x3ec70c7b	0.3887671
52	0xbdac1cc0	-0.08403921
53	0x3d800f62	0.06252934
54	0x3d3d8176	0.04626604
55	0x3b2bcc22	0.0026214202
56	0xbc6e8bea	-0.014559725
57	0x3e98b76e	0.29827446
58	0xbe6dde17	-0.23229252
59	0x3e909bbb	0.28243813
60	0xbf12d96f	-0.5736303
61	0x3d6ec205	0.0582905
62	0x3c94cc63	0.018163865
63	0x3d80c130	0.062868476

fc3.weight f4 [4, 64]
0	0xbe6d4fa1	-0.23174907
1	0xbf71c253	-0.9443714
2	0x3e605b8d	0.21909924
3	0xbf2b582c	-0.66931415
4	0xbef3a7a9	-0.47588852
5	0x4019169a	2.3920045
6	0x3ee4f33b	0.4471682
7	0xbf278893	-0.6544277
8	0xbf36f419	-0.71466213
9	0xbd066567	-0.03281155
10	0xbf13bf27	-0.5771355
11	0xbef1a3b3	-0.47195205
12	0xbf26b034	-0.65112615
13	0x3fcbab11	1.591158
14	0xbde7b221	-0.11313272
15	0xbeb0e068	-0.34546208
16	0x3fd31bc5	1.649285
17	0xbed83b1a	-0.4223259
18	0x3fe692d5	1.801356
19	0xbf5fcf9a	-0.8742615
20	0xbf02833e	-0.5098151
21	0xbf1a68c2	-0.603161
22	0x3e4a2a7d	0.1974277
23	0x3d2f6b47	0.042826917
24	0xbeec2b73	-0.461269
25	0x3f004d1f	0.5011768
26	0x3faa0572	1.3282912
27	0xbf5fc88c	-0.87415385
28	0x3ff597a5	1.9186903
29	0xbf5196a7	-0.818705
30	0xbf4c45d2	-0.7979404
31	0xbf123fe9	-0.5712877
32	0x3f411459	0.75421673
33	0x3e93e818	0.2888801
34	0xbf4fb3d2	-0.8113376
35	0x3fa0588d	1.2527024
36	0xbf400f7f	-0.75023645
37	0xbf14a015	-0.58056766
38	0xbeb7b0a2	-0.35876948
39	0x3fd438fd	1.6579891
40	0xbf23b07e	-0.6394118
41	0xbf0f3667	-0.55942386
42	0xbea47b43	-0.3212529
43	0x3f011288	0.504189
44	0xbf1baf66	-0.6081451
45	0xbf0739c0	-0.52822495
46	0xbfa0a0ca	-1.2549069
47	0x3fe1be00	1.7636108
48	0xbf31f0ce	-0.69508064
49	0xbf093f72	-0.53612435
50	0xbefee992	-0.49787575
51	0x3e5b07fd	0.21389766
52	0xbf207a91	-0.6268702
53	0xbedf45f0	-0.43608046
54	0xbfa1a8af	-1.2629603
55	0xbbc20f13	-0.005922207
56	0xbf042b0b	-0.5162818
57	0xbedb8cee	-0.42880958
58	0xbf30a8ba	-0.69007456
59	0xbf7ec855	-0.9952443
60	0x3e8db0ff	0.276741
61	0xbf32edfc	-0.69894385
62	0xbf2627d3	-0.64904517
63	0x40195ef5	2.3964207
64	0x3e3602ed	0.17774554
65	0xbeb44920	-0.3521204
66	0xbf004d10	-0.5011759
67	0xbf13ca93	-0.5773098
68	0xbeeefe5b	-0.46678433
69	0x4015db3d	2.3415062
70	0xbef84a6f	-0.48494288
71	0xbf0c3e3f	-0.5478248
72	0xbe5d739f	-0.21626137
73	0xbf0261c7	-0.50930446
74	0xbf323c4a	-0.69623244
75	0xbeaab6fc	-0.3334273
76	0xbf204be2	-0.6261579
77	0x3f82a6c7	1.0207146
78	0xbf4f377b	-0.8094403
79	0xbe972b25	-0.29525104
80	0x3fc640e5	1.5488554
81	0xbf219c09	-0.63128716
82	0x3fc38dea	1.5277684
83	0xbe977737	-0.2958314
84	0xbf1e5ab4	-0.6185715
85	0xbe976354	-0.2956797
86	0xbe19c443	-0.15016274
87	0x3fe9aea8	1.8256426
88	0xbf421c5c	-0.7582452
89	0x3f5062d5	0.81400806
90	0x3f36cb6b	0.7140414
91	0xbf8fd61d	-1.1237217
92	0x40091e66	2.1424804
93	0xbf073074	-0.5280831
94	0xbf161ad4	-0.58634686
95	0xbef6f9ad	-0.48237363
96	0xbbc1bec6	-0.0059126345
97	0x3ef86b4c	0.4851936
98	0xbf07eb88	-0.5309377
99	0x3fac6ade	1.3470113
100	0xbeefdc5f	-0.46847817
101	0xbeca3133	-0.3949066
102	0xbf2baa48	-0.67056704
103	0x3ff870c9	1.9409419
104	0xbf82cef6	-1.021941
105	0xbf2f2663	-0.6841795
106	0x3edaf6a6	0.42766303
107	0x3edc64d2	0.4304567
108	0xbf24f299	-0.64432675
109	0xbf037520	-0.51350594
110	0xbf85acc0	-1.0443344
111	0x3ffd3b52	1.9783728
112	0xbf56505a	-0.83716357
113	0xbf0b37c3	-0.5438196
114	0xbf07b37e	-0.5300826
115	0x3f2e013b	0.6797063
116	0xbee88765	-0.45415798
117	0x3f99145d	1.1959339
118	0xbf4e991e	-0.8070239
119	0xbb9e5f5f	-0.0048331465
120	0xbf22fe9e	-0.63669765
121	0xbf8a74b4	-1.0816865
122	0x3e39646d	0.18104716
123	0xbf8f7b8b	-1.1209577
124	0xbf720c49	-0.94549996
125	0xbf126897	-0.5719084
126	0xbd0dfe59	-0.034666393
127	0x400a8cd0	2.1648445
128	0x3fe9e0b5	1.82717
129	0xbf367494	-0.71271634
130	0x3f786cd9	0.9704109
131	0xbf110164	-0.56642747
132	0xbf4c73b1	-0.7986403
133	0x40082cab	2.1277263
134	0xbf5ff185	-0.87477905
135	0xbe92adf5	-0.28648344
136	0xbf062f6f	-0.5241613
137	0xbf9f0868	-1.242444
138	0xbf0f457c	-0.559654
139	0xbf14d99c	-0.58144546
140	0xbef9a7d5	-0.48760858
141	0x3fc2ba6a	1.5213139
142	0xbf66f78b	-0.9022147
143	0xbf8d8740	-1.10569
144	0x3f4e3e1c	0.8056352
145	0xbf09579c	-0.53649306
146	0x3fba9800	1.4577637
147	0xbf8beeef	-1.0932292
148	0xbf1f3b7a	-0.6220013
149	0xbf530f4e	-0.8244523
150	0x3f0cad6f	0.5495214
151	0x3f58e0a9	0.84717804
152	0xbed0b683	-0.40764245
153	0x3ea02f0a	0.31285888
154	0x3ff54149	1.9160548
155	0xbebd6f16	-0.36998814
156	0x3fa11feb	1.2587866
157	0xbf4ee935	-0.80824596
158	0xbea4547d	-0.3209571
159	0xbf163457	-0.58673614
160	0x3fb23833	1.3923401
161	0x3f841bcd	1.0320984
162	0xbeddbabf	-0.43306538
163	0x3fb2702d	1.3940483
164	0xbf3c14f2	-0.7346946
165	0xbf621265	-0.8830932
166	0xbf0c9a42	-0.5492288
167	0x3fc27fee	1.5195291
168	0xbe973fcb	-0.29540858
169	0xbf062e67	-0.52414554
170	0x3b719713	0.003686373
171	0xc0027915	-2.0386403
172	0xbf3c0ab9	-0.7345386
173	0xbf5d996a	-0.86562216
174	0xbefc2e95	-0.4925429
175	0x3fcc3134	1.5952516
176	0x3e3de3ac	0.18543881
177	0xbf15bcbb	-0.58491105
178	0xbf1babbd	-0.60808927
179	0xbe044869	-0.12918247
180	0xbf4dc712	-0.8038188
181	0xbfd97f6a	-1.6992009
182	0xbf11a8f1	-0.5689841
183	0x3b4f0a50	0.003159184
184	0xbf0f3cd0	-0.5595217
185	0xbfbebfb3	-1.4902252
186	0x3e4b54ad	0.1985652
187	0x3daf59ff	0.08562087
188	0xbfbf18ac	-1.4929404
189	0xbf108083	-0.56446093
190	0xbf414d82	-0.7550889
191	0x3ff9eadf	1.9524802
192	0x3f9ffb5c	1.2498584
193	0xbf538385	-0.8262256
194	0x3e97142d	0.2950758
195	0xbf363e6b	-0.7118899
196	0xbf5f2a6a	-0.87174094
197	0x3ff4d33d	1.9126965
198	0xbf1a4768	-0.6026521
199	0xbf3b9243	-0.7327005
200	0xbfdbcb51	-1.7171422
201	0x3c6bff14	0.014404077
202	0xbf2c43fc	-0.67291236
203	0xbf1ec107	-0.62013286
204	0xbf249da6	-0.6430305
205	0x3fcd637d	1.6045986
206	0xbe95368c	-0.29143178
207	0x3cdbab17	0.02681498
208	0x3f83bf0c	1.0292678
209	0xbf167548	-0.58772707
210	0x3fb6e6bd	1.4289166
211	0xbe99602d	-0.2995619
212	0xbf005372	-0.5012733
213	0xbf846eef	-1.0346354
214	0x3f177332	0.5916015
215	0xbeda3c17	-0.4262397
216	0xbf120494	-0.57038236
217	0x3f17321c	0.59060836
218	0x3f90c496	1.1309993
219	0xbee19f6b	-0.4406694
220	0x3ffb6219	1.9639312
221	0xbed93ca3	-0.42429075
222	0xbf179e9a	-0.5922638
223	0xbf2b6a2e	-0.6695889
224	0x3f8fc0a6	1.1230667
225	0xbd0c2378	-0.034213513
226	0xbf128ef9	-0.5724941
227	0x3fb56082	1.4170077
228	0xbf164fd8	-0.5871558
229	0xbf3420a5	-0.7036231
230	0xbf2ad105	-0.6672519
231	0x3ffa9774	1.957747
232	0xbef71b2b	-0.48262915
233	0xbf19dca7	-0.60102314
234	0xbf164827	-0.58703846
235	0x3f6d479f	0.9268741
236	0xbec619d4	-0.3869158
237	0xbf2bc83a	-0.67102396
238	0xbf061804	-0.52380395
239	0x3faab51e	1.3336523
240	0x3d3e1ef3	0.046416234
241	0xbf16d4f9	-0.5891872
242	0xbf45d1cf	-0.7727327
243	0x3f8d8157	1.1055096
244	0xbf644bc4	-0.8917811
245	0xbe793fa4	-0.24340683
246	0xbf8a66f7	-1.0812672
247	0x39ec3d76	0.0004505922
248	0xbf3491a3	-0.70534724
249	0x3de64325	0.112432756
250	0xbf34ab1d	-0.705736
251	0xbfaaf62f	-1.3356379
252	0xbec31953	-0.38105258
253	0xbf28f011	-0.6599131
254	0xbe74b872	-0.23898485
255	0x400d3e4b	2.206927

fc3.bias f4 [4]
0	0xbdb311f6	-0.0874366
1	0x3e606878	0.21914852
2	0x3e9aabfd	0.30209342
3	0x3e86caf6	0.26326722
