dqn-reinforcement/a2_part_2_dqn_gridworld_kumarsat_apurvaba.pth (torch, 83288 bytes, 24 tensors)

fc1.weight f4 [64, 4]
0	0x3e5394e2	0.20662263
1	0x3ed786c5	0.42095008
2	0xbebb253c	-0.36551845
3	0x3f1debcf	0.6168794
4	0xbea6c0f1	-0.32569078
5	0x3e24bc86	0.16087541
6	0x3fab2618	1.3371
7	0x3ec71cf1	0.38889268
8	0x3e73c59c	0.2380585
9	0xbf0405da	-0.5157143
10	0x3f469d56	0.77583826
11	0x3ad45ceb	0.0016202008
12	0x3ed7a1c2	0.421156
13	0x3b35d925	0.0027747836
14	0x3fa53b4e	1.2908723
15	0xbe157e4f	-0.14598964
16	0x3e51cf0a	0.20489135
17	0x3db4974d	0.08817921
18	0xbf50dd8f	-0.8158807
19	0x3e41012f	0.18848108
20	0xbedf7b70	-0.43648863
21	0x3e81a726	0.25322837
22	0x3fbf62cc	1.4952025
23	0x3efca336	0.4934327
24	0xbf154644	-0.5831034
25	0xbeb455b2	-0.3522163
26	0xbe425278	-0.18976772
27	0xbe325717	-0.17416035
28	0x3ea98343	0.33107957
29	0xbee22e56	-0.44175977
30	0xbf85df0c	-1.0458694
31	0xbf1d8eda	-0.615461
32	0x3e82ff7b	0.2558554
33	0x3dabd0f9	0.08389468
34	0xbf1cc7ce	-0.6124238
35	0x3ec20bd1	0.3789964
36	0xbe297e5b	-0.16552107
37	0x3ebca10e	0.36841625
38	0xbd873aa1	-0.066029795
39	0xbe2563ac	-0.16151303
40	0x3e982601	0.29716495
41	0xbdbc4fb8	-0.09194893
42	0x3f880495	1.0626398
43	0x3ec1e3f0	0.37869215
44	0x3ee3daa2	0.4450274
45	0xbe72faa0	-0.23728418
46	0x3f89cc15	1.0765406
47	0x3d8ef37e	0.06980036
48	0x3e91fd5f	0.2851362
49	0xbeae9535	-0.3409821
50	0xbfa91e80	-1.3212433
51	0xbd83ce9f	-0.06435894
52	0xbeb5f540	-0.35538673
53	0x3eecb879	0.4623449
54	0xbe423b5b	-0.18967955
55	0x3e16c306	0.14722833
56	0x3e14e177	0.14539133
57	0xbdd2aa65	-0.102864064
58	0x3ff0ae9c	1.8803287
59	0xbe0d7bb4	-0.1381672
60	0x3d00f320	0.031481862
61	0xbeaebaf4	-0.3412701
62	0x3e1de050	0.154176
63	0xbe3052e0	-0.17219114
64	0x3e528712	0.20559338
65	0xbe27b807	-0.16378795
66	0x3fcb824c	1.5899138
67	0xbe650e9b	-0.22368853
68	0xbf1153e1	-0.56768614
69	0xbdc1d5ce	-0.09464608
70	0x3fae9622	1.3639567
71	0x3dd37d1d	0.10326598
72	0x3eaf2093	0.3420454
73	0xbecd9a65	-0.40156856
74	0xbf9e0436	-1.2345035
75	0xbe99f66f	-0.30070826
76	0xbe3eff1f	-0.18652008
77	0x3e632dc8	0.22185433
78	0x3fe37462	1.7769892
79	0x3eda077b	0.42583832
80	0xbed6cb39	-0.41951922
81	0xbf04faca	-0.51945174
82	0x3e11131b	0.14167444
83	0xbe2127dc	-0.15737861
84	0xbd5b0bf6	-0.053478204
85	0xbc9c8bbd	-0.019109601
86	0x3bdbb4d7	0.0067049074
87	0xbf0e53ce	-0.55596626
88	0xbe8ded89	-0.27720287
89	0x3e217815	0.15768464
90	0x3db91f2e	0.0903915
91	0x3d292953	0.041299175
92	0x3ed5ac19	0.41732863
93	0x3e78ea2c	0.2430808
94	0xbf843c40	-1.0330887
95	0x3d203d3d	0.0391209
96	0x3f0d1a4f	0.5511827
97	0xbe3d4396	-0.18482813
98	0xbf861ceb	-1.0477575
99	0xbea6854a	-0.32523566
100	0xbe3e9c19	-0.18614234
101	0xbe2929c1	-0.16519834
102	0xbfbef11f	-1.4917334
103	0xbec3345f	-0.38125893
104	0x3e8dc740	0.27691078
105	0xbf045f40	-0.5170784
106	0xbfe64372	-1.7989333
107	0xbe2e633d	-0.17030044
108	0xbcf74475	-0.03018401
109	0xbbcc2cb3	-0.0062309145
110	0x3ffee07f	1.9912261
111	0x3e4e217a	0.20129958
112	0x3e71baf2	0.2360647
113	0xbe7bf431	-0.2460487
114	0xbfa3f8a7	-1.2810258
115	0xbed6b936	-0.4193818
116	0x3e27f711	0.16402842
117	0xbe7db0d7	-0.2477449
118	0xbfbd7e42	-1.4804156
119	0xbeeda3ae	-0.4641394
120	0x3e1ce7e1	0.1532283
121	0xbe5512fb	-0.20808022
122	0xbfa680cc	-1.3008056
123	0xbef34841	-0.47516063
124	0xbf08ef06	-0.5348972
125	0xbef8a5ca	-0.48563987
126	0xbefb84a9	-0.4912465
127	0xbe9c97bd	-0.30584517
128	0x3e8a6e20	0.27037144
129	0xbd665c29	-0.056240235
130	0x3f0c5028	0.5480981
131	0x3e84b752	0.25921112
132	0xbef05859	-0.46942404
133	0x3e50ff5f	0.20409916
134	0xbfb1d988	-1.389451
135	0xbe3823e4	-0.17982441
136	0xbe2751a0	-0.16339731
137	0xbec54db7	-0.38535854
138	0x3d59b69c	0.053152665
139	0xbe90b8b7	-0.28265926
140	0x3f298e51	0.6623278
141	0xbeb179ca	-0.3466323
142	0xbf1af539	-0.6053043
143	0xbe805709	-0.25066403
144	0xbe360dbc	-0.17778677
145	0x3e05352d	0.13008566
146	0x3ff60932	1.9221556
147	0x3ea259f3	0.3170925
148	0x3ed9a5fb	0.42509446
149	0xbebc4958	-0.36774707
150	0x3de532f1	0.11191357
151	0xbe7bae95	-0.24578317
152	0xbc4a7be3	-0.012358638
153	0xbed9e314	-0.4255606
154	0x3fc484ec	1.5353065
155	0xbea84dba	-0.328718
156	0x3ef179b0	0.47163153
157	0x3c7774e7	0.015103555
158	0x3eda0886	0.42584628
159	0x3e1657a1	0.14681865
160	0x3f0c3435	0.5476716
161	0x3c26dc39	0.010184341
162	0xbeaceafb	-0.33773026
163	0xbeac11e9	-0.33607414
164	0x3e237009	0.15960707
165	0xbde4123d	-0.11136291
166	0xbf8fd77e	-1.1237638
167	0x3f0004a2	0.5000707
168	0x3e01f3dd	0.12690683
169	0xbec3207b	-0.38110718
170	0xbf39dedf	-0.726057
171	0x3dae031f	0.08496689
172	0x3ecf63a7	0.40505716
173	0xbd8ec1cc	-0.069705576
174	0xbfa450f6	-1.2837207
175	0xbe5cf2dc	-0.21577018
176	0xbeb55d63	-0.3542281
177	0xbd9a0259	-0.07519979
178	0xbef36b30	-0.47542715
179	0xbebf2b30	-0.37337637
180	0x3e43b1f2	0.1911085
181	0x3ddbd483	0.10733893
182	0xbcb9b894	-0.022671022
183	0xbe3b4fae	-0.18292114
184	0x3e07e036	0.13269123
185	0x3e28a722	0.16470006
186	0x3f07f54f	0.53108686
187	0xbcb6ac4b	-0.022298953
188	0xbe8109b9	-0.2520273
189	0x3d7a85a4	0.061162606
190	0xbe54376a	-0.20724264
191	0xbe8232d8	-0.25429416
192	0x3f154db4	0.5832169
193	0x3eada1ad	0.3391241
194	0xbec6b92c	-0.3881315
195	0xbc9a2d67	-0.018820478
196	0xbda37eb3	-0.0798315
197	0xbb2598ee	-0.0025268155
198	0x3e148437	0.14503561
199	0x3e8f9f1e	0.28051084
200	0x3c8858d0	0.016643912
201	0x3d5f0c51	0.054455105
202	0x3fd3e066	1.6552856
203	0x3e83b50f	0.25724074
204	0xbe1c13b0	-0.15241885
205	0xbe8f7d81	-0.2802544
206	0xbfb676fc	-1.4255061
207	0xbeda6481	-0.42654803
208	0xbda0546d	-0.07828603
209	0x3d2cdfc3	0.042205583
210	0x3fdac38b	1.7090925
211	0x3e57138e	0.21003553
212	0xbf2baaa7	-0.6705727
213	0xbe64330e	-0.22285101
214	0xbf0132ee	-0.5046834
215	0x3ee5ce16	0.44883794
216	0xbc92f35d	-0.01793831
217	0xbd97b549	-0.07407624
218	0xbc6f8dec	-0.014621239
219	0xbe0aa487	-0.13539325
220	0xbed3c384	-0.41360104
221	0x3ee3367c	0.44377506
222	0xbf3c579e	-0.73571193
223	0xbd871948	-0.06596619
224	0xbee0a714	-0.4387747
225	0x3ecaa32b	0.39577612
226	0x3ee714cc	0.45133054
227	0x3e284ef2	0.16436365
228	0xbf04179e	-0.51598537
229	0xbeec26a1	-0.46123222
230	0xbfaecf73	-1.3657058
231	0x3e79b577	0.2438563
232	0xbae3f2f6	-0.0017391134
233	0x3eb762a3	0.3581744
234	0x3dde9a48	0.108692706
235	0x3e563845	0.20919903
236	0x3e1f73c6	0.15571508
237	0xbe82dcf1	-0.2555919
238	0xbfea58f1	-1.8308393
239	0xbefe5102	-0.4967118
240	0x3e1d2196	0.15344843
241	0xbe6b57aa	-0.2298266
242	0xbf9208fc	-1.1408992
243	0xbed49692	-0.41521126
244	0x3d8515f7	0.0649833
245	0xbe3310e1	-0.17486908
246	0xbf3216f4	-0.69566274
247	0x3eaf0784	0.3418542
248	0xbe20dcb0	-0.15709186
249	0x3e73cd14	0.238087
250	0xbf80156b	-1.0006536
251	0xbd992aa6	-0.07478838
252	0x3ce7eacd	0.028310204
253	0xbe8d5be6	-0.27609175
254	0xbf08da0a	-0.534577
255	0xbed0a3c3	-0.4074994

fc1.bias f4 [64]
0	0x3ee91386	0.45522708
1	0xbeb90723	-0.36138257
2	0x3e8ba929	0.27277496
3	0x3da1039e	0.07862018
4	0x3f191200	0.5979309
5	0xbf37aabd	-0.717449
6	0x3eea889b	0.45807347
7	0xbeb5ff03	-0.3554612
8	0x3ecbb68d	0.39787713
9	0x3f362aa6	0.71158826
10	0xbeaeed28	-0.3416531
11	0xbdf0cc25	-0.117576875
12	0x3ed4b701	0.4154587
13	0xbf098423	-0.5371725
14	0x3ebf0e32	0.37315518
15	0xbefe22c2	-0.49635893
16	0x3ee43bd6	0.445769
17	0x3f195b45	0.5990489
18	0x3f3292e7	0.69755405
19	0xbecb2f3d	-0.39684477
20	0xbf0b9bdd	-0.54534703
21	0x3eb32909	0.34992245
22	0x3f0d4d3b	0.5519597
23	0xbf602ec5	-0.87571365
24	0xbea16bbe	-0.31527513
25	0xbeace282	-0.33766562
26	0x3e0dfc48	0.13865769
27	0xbe9c34ef	-0.30509135
28	0xbe90dfca	-0.28295738
29	0xbe8797e0	-0.2648306
30	0xbecff44a	-0.40616065
31	0x3ee6f8fa	0.4511183
32	0x3f214bb3	0.6300613
33	0xbde1b020	-0.11019921
34	0xbe22ba82	-0.1589146
35	0xbefdb7b7	-0.49554226
36	0xbed86319	-0.42263106
37	0xbf042805	-0.51623565
38	0x3ee21005	0.44152847
39	0xbf299355	-0.66240436
40	0xbf1cbb34	-0.6122315
41	0x3d7b204c	0.061310098
42	0xbeaf5259	-0.34242514
43	0xbec88a88	-0.3916819
44	0x3e3d22b3	0.18470268
45	0xbf0feddc	-0.5622232
46	0xbeef87c2	-0.46783262
47	0xbe9ed00b	-0.310181
48	0xbf090b26	-0.53532636
49	0x3f2920a2	0.6606542
50	0xbea85e90	-0.32884645
51	0x3f047dcc	0.5175445
52	0xbea2040a	-0.31643707
53	0xbe09b292	-0.13447025
54	0x3f3223fd	0.69586164
55	0x3f0c5800	0.5482178
56	0xbf0d4529	-0.55183655
57	0x3e54631f	0.20740937
58	0x3f21f2b2	0.6326095
59	0xbe35c097	-0.17749248
60	0x3f1958ea	0.599013
61	0x3f1a5bc4	0.60296273
62	0xbcc8bbfb	-0.024503699
63	0x3ea5791b	0.3231896

fc2.weight f4 [64, 64]
0	0x3d3e80aa	0.046509422
1	0xbf41e0bc	-0.7573354
2	0x3e3ce219	0.18445624
3	0x3df9ef46	0.12203841
4	0x3d8fb748	0.0701738
5	0x3f1e6194	0.6186764
6	0x3d850227	0.06494551
7	0xbfa771c1	-1.308159
8	0x3bc70992	0.006074139
9	0x3e55de0e	0.20885488
10	0xbdb61ed2	-0.08892597
11	0xbd5eac93	-0.0543638
12	0xbe5c414a	-0.21509281
13	0xbc840496	-0.016115468
14	0x3e8038ec	0.25043428
15	0xbdbe6c62	-0.09298016
16	0x3e358045	0.17724712
17	0x3e608058	0.2192396
18	0x3d7e7fbe	0.062133543
19	0x3e3b9dfa	0.18321982
20	0xbec9cb1e	-0.3941278
21	0xbd1030c6	-0.035202764
22	0x3e8e9cd2	0.2785402
23	0xbf3d420a	-0.7392889
24	0xbf2c50f5	-0.6731103
25	0xbf3d45cf	-0.73934644
26	0x3d820102	0.063478485
27	0xbe0c6955	-0.13712056
28	0xbf94a67d	-1.1613308
29	0xbf984126	-1.1894882
30	0xbf971a24	-1.1804852
31	0x3e75d512	0.24007061
32	0x3e77b199	0.24188842
33	0xbd98bd12	-0.07457937
34	0xbe39dac4	-0.18149859
35	0xbeca5bf4	-0.3952328
36	0xbf571f49	-0.8403211
37	0xbcc32b83	-0.023824459
38	0x3d2d81ec	0.04236023
39	0xbe78cb1b	-0.24296229
40	0xbebe86b4	-0.37212145
41	0xbe00f520	-0.12593508
42	0xbdf6b397	-0.12045973
43	0xbf5f4065	-0.87207633
44	0xbca61ce6	-0.020277452
45	0xbdce25a9	-0.10065777
46	0xbe14d973	-0.14536075
47	0xbef0af62	-0.47008806
48	0xbe78b774	-0.24288732
49	0x3e86fa28	0.2636273
50	0xbc97bc0e	-0.018522289
51	0x3dd9213d	0.10602043
52	0xbfaaf08e	-1.3354661
53	0xbd3cf8cb	-0.046135705
54	0x3e1e161e	0.15438125
55	0x3e38cfc4	0.18048006
56	0x3c61d5d3	0.01378389
57	0x3dbd8bd5	0.092551865
58	0x3e92769a	0.2860611
59	0xbf5d4ac9	-0.8644224
60	0x3ec02cf4	0.37534297
61	0x3da97ff0	0.08276355
62	0xbd585b2c	-0.052821323
63	0x3d80ea47	0.06294685
64	0xbcde4fea	-0.027137715
65	0x3de8e93e	0.113726124
66	0xbe0619ea	-0.13095823
67	0xbd9bb5ce	-0.07603036
68	0x3d35fd45	0.04443099
69	0xbcdf18c0	-0.027233481
70	0xbcd19cf0	-0.025587529
71	0xbd5565b8	-0.05209896
72	0x3d6d3f4c	0.057921693
73	0x3d05987d	0.032616127
74	0x3d241208	0.04005626
75	0xbdbd3817	-0.09239214
76	0xbdd0c5e7	-0.10193997
77	0x3c5d8350	0.013520077
78	0x3c1ebe8c	0.009688985
79	0xbd6c6580	-0.057713985
80	0xbd7df118	-0.061997503
81	0x3dace4e6	0.084420964
82	0xbc52c8d8	-0.012865268
83	0x3bb8ce00	0.0056397915
84	0xbcfc01c8	-0.030762568
85	0xbe0f3f2a	-0.13988939
86	0xbe119d18	-0.14220083
87	0xbdb2c470	-0.08728874
88	0xbdb5c2a5	-0.08875016
89	0x3d1f83f4	0.0389442
90	0xbd150c78	-0.036388844
91	0xbd484e44	-0.048902765
92	0x3df413fa	0.11917873
93	0x3d325760	0.04354036
94	0x3db680c4	0.08911279
95	0xbd77dda0	-0.060514092
96	0xbda2aef4	-0.07943526
97	0x3d3c2e44	0.04594256
98	0xbdaa9102	-0.08328439
99	0xbda75926	-0.081713006
100	0xbbc5d5e0	-0.006037459
101	0xbd3b44fc	-0.045720086
102	0xbdbfe996	-0.09370725
103	0x3d40c0dd	0.04705893
104	0x3d94a7e0	0.07258582
105	0x3bb08860	0.005387351
106	0xbcb24ac0	-0.02176416
107	0xbded203a	-0.11578412
108	0xbd3a7d80	-0.045529842
109	0x3b9d4013	0.004798898
110	0x3cfbc0fa	0.030731667
111	0xbc817398	-0.01580219
112	0xbd9f591e	-0.0778067
113	0x3d2ff47f	0.04295778
114	0xbdcbe0da	-0.099549964
115	0x3da1cbee	0.079002246
116	0xbd46a204	-0.048494354
117	0x3afac380	0.001913175
118	0xbd5457ad	-0.051841427
119	0xbc52549a	-0.012837553
120	0xbd1ab9c0	-0.0377748
121	0x3dba24fe	0.09089087
122	0xbd0376c5	-0.03209569
123	0x3dc7d55e	0.097574934
124	0x3df62396	0.12018506
125	0xbd797118	-0.06089887
126	0xbdf083c0	-0.11743879
127	0x3dcd63aa	0.10028775
128	0x3e752f71	0.23943879
129	0xbeefec4b	-0.46859965
130	0x3d949380	0.07254696
131	0xbcff40a1	-0.031158747
132	0x3d5da0a5	0.05410828
133	0x3fa65812	1.2995627
134	0x3daf7915	0.085680164
135	0xbeb387fe	-0.3506469
136	0x3db6e0d6	0.08929603
137	0x3ea96396	0.3308379
138	0xbd7d8b79	-0.06190059
139	0xbdca599a	-0.098803714
140	0xbd3cb28d	-0.046068717
141	0xbe8a0b57	-0.26961777
142	0x3e6a7f8b	0.22900216
143	0xbdb50340	-0.088385105
144	0x3e6f9cce	0.2339966
145	0x3d41c9fc	0.047311768
146	0x3d41122d	0.047136474
147	0xbc07d4ae	-0.008290453
148	0xbe9ba955	-0.30402628
149	0x3e8452a9	0.25844315
150	0x3ebf7265	0.37391964
151	0xbf00ac07	-0.5026249
152	0xbdb429e5	-0.08797053
153	0xbeab91da	-0.33509713
154	0xbe8caf55	-0.27477518
155	0xbe268a22	-0.16263631
156	0xbe4d403e	-0.20044038
157	0xbef48cf1	-0.4776378
158	0xbe75767c	-0.2397098
159	0x3da6793f	0.081285946
160	0x3e5b75b1	0.21431614
161	0xbdcfa4ce	-0.10138856
162	0xbdd03cab	-0.101678215
163	0xbef550b3	-0.4791313
164	0xbf5ce5d6	-0.862882
165	0xbdc3b7db	-0.09556552
166	0x3dee1e98	0.11626929
167	0xbedff5ec	-0.4374231
168	0x3cddca6f	0.027074067
169	0x3e532254	0.20618564
170	0xbd9f0903	-0.07765391
171	0xbf2a7f1c	-0.66600204
172	0x3d6233f2	0.05522532
173	0x3e83cfee	0.25744575
174	0xbe2fe057	-0.17175423
175	0x3cd736a7	0.026271177
176	0xbc7859ff	-0.0151581755
177	0x3eb049b6	0.34431237
178	0xbe6a75da	-0.2289652
179	0x3b09df9e	0.0021037827
180	0xbfac08bd	-1.3440167
181	0x3c265f32	0.010154532
182	0x3e702226	0.23450527
183	0x3e9f0a39	0.31062487
184	0x3db39499	0.08768577
185	0x3e123ce6	0.14281043
186	0x3da24775	0.079237856
187	0xbe5b35e9	-0.21407284
188	0x3e94f16b	0.29090437
189	0x3e037f0b	0.12841432
190	0x3cbfae2b	0.02339848
191	0xbda9fe12	-0.08300413
192	0x3e1e0ea7	0.15435277
193	0x3eddf912	0.43354088
194	0xbd8a7284	-0.06760123
195	0xbd47b318	-0.04875478
196	0x3e83e916	0.25763768
197	0x40038360	2.0548935
198	0xbb6249c3	-0.0034528829
199	0xbefb6424	-0.4909984
200	0x3debf2da	0.1152093
201	0x3e466ac0	0.1937666
202	0x3db12ed9	0.086515136
203	0x3df6a49e	0.12043117
204	0x3e83ef7e	0.25768656
205	0xbeb53154	-0.35389197
206	0x3e05fe66	0.13085327
207	0x3cc14f48	0.023597375
208	0x3dedc8ab	0.1161054
209	0x3ac713cc	0.0015188395
210	0x3e63817b	0.22217362
211	0xbe98f43e	-0.29873842
212	0xbe8d9c19	-0.27658156
213	0x3eaf4c66	0.34237975
214	0x3e48e210	0.19617486
215	0xbf3e3ec0	-0.743145
216	0xbe3e4713	-0.185818
217	0xbea27bc3	-0.31735048
218	0xbe582acb	-0.21110074
219	0xbec5a809	-0.38604763
220	0xbeb542cd	-0.35402527
221	0xbe0d6512	-0.13808087
222	0xbf04de83	-0.51902026
223	0xbdb6a926	-0.08918981
224	0x3e6ee871	0.23330857
225	0x3d0a5ba1	0.03377879
226	0x3d61ad99	0.055097196
227	0xbf2f9e83	-0.68601245
228	0xbe1410fe	-0.14459607
229	0xbd4566e8	-0.048193842
230	0xbe165940	-0.14682484
231	0xbee87d0b	-0.454079
232	0xbded31c1	-0.115817554
233	0x3eb1ceee	0.34728187
234	0xbe40dd1b	-0.18834345
235	0xbf6e70d0	-0.9314089
236	0x3e351b79	0.17686261
237	0xbe21113f	-0.15729235
238	0xbea4bfee	-0.3217768
239	0x3ca79693	0.020457542
240	0x3c9b6998	0.01897125
241	0x3e8bf3b8	0.2733438
242	0xbe98f707	-0.29875967
243	0xbd64e3ce	-0.055881314
244	0xbf93a7f9	-1.1535636
245	0x3e12e161	0.14343788
246	0x3cb351d1	0.021889599
247	0x3d905302	0.070470825
248	0xbe044e86	-0.1292058
249	0x3d2753e7	0.0408515
250	0x3d046429	0.032322083
251	0xbdb2c7cc	-0.087295145
252	0x3e81acd6	0.25327176
253	0x3e194889	0.14969076
254	0x3e2e4451	0.17018248
255	0x3daca906	0.08430676

fc2.bias f4 [64]
0	0x3ebaaf5c	0.36461914
1	0xbe151a43	-0.145608
2	0x3e34ca61	0.17655326
3	0x3e3f479f	0.18679665
4	0xbe1cf56c	-0.15327996
5	0x3e1021a3	0.14075331
6	0x3e39f240	0.18158817
7	0x3d358745	0.044318456
8	0xbde3c512	-0.111215726
9	0x3e6aab07	0.22916804
10	0x3e8c8c27	0.27450678
11	0x3e344f00	0.17608261
12	0xbe3c5568	-0.18391955
13	0xbe1098b8	-0.14120758
14	0x3d03bb87	0.032161262
15	0x3d755776	0.059897862
16	0xbe2ad99a	-0.16684571
17	0xbe40ab8c	-0.1881544
18	0xbe14eb5f	-0.14542912
19	0x3eb27ee6	0.3486244
20	0xbd5b9180	-0.053605556
21	0x3e37f896	0.17965922
22	0x3ea6f7db	0.32610974
23	0x3d963b9d	0.07335589
24	0xbdefcef0	-0.11709392
25	0x3d1ecfcd	0.038772393
26	0xbd52f334	-0.051501468
27	0xbcbb5581	-0.02286792
28	0x3d0e35f9	0.03471944
29	0x3ea32bcf	0.3186936
30	0x3ecd6366	0.40114897
31	0x3ce07a43	0.027402049
32	0xbdf0cb5b	-0.11757537
33	0x3e4223ea	0.18959013
34	0xbe1d2480	-0.15345955
35	0x3cece1d6	0.02891628
36	0x3e636978	0.22208202
37	0xbdbd9cf0	-0.09258449
38	0x3e4b3bc2	0.19847015
39	0x3dd1f55d	0.102518775
40	0x3e5ccb9a	0.21562043
41	0x3d31e027	0.04342666
42	0xbd043a5a	-0.03228221
43	0x3db2d126	0.08731298
44	0xbda48539	-0.08033223
45	0xbe2fdd34	-0.17174226
46	0xbd33a4f4	-0.043858483
47	0x3e852dbd	0.26011458
48	0xbdd25796	-0.10270612
49	0x3e926c58	0.28598285
50	0xbdfcaede	-0.12338041
51	0x3ebd336a	0.36953288
52	0x3ecb95ab	0.39762625
53	0x3e95877a	0.29204923
54	0x3ea4d603	0.32194528
55	0xbddf65ce	-0.109080896
56	0x3e767fc5	0.24072178
57	0xbdc87289	-0.09787471
58	0xbd852f86	-0.06503205
59	0xbd4bac08	-0.04972461
60	0x3e3dd658	0.18538797
61	0x3e067cd8	0.13133562
62	0xbd8a2340	-0.06745005
63	0x3bd0acb8	0.006368246

fc3.weight f4 [2, 64]
0	0x3d8dbcd7	0.06920784
1	0xbdee6ca2	-0.11641814
2	0x3e8293dc	0.25503433
3	0x3eac09d1	0.3360124
4	0xbd97ff63	-0.07421758
5	0x3e438272	0.1909273
6	0x3e921cc4	0.2853757
7	0xbf8198a0	-1.0124702
8	0xbf875636	-1.0573184
9	0x3ea2e762	0.31817156
10	0x3e0fb4b8	0.14033782
11	0x3e40d1f9	0.18830098
12	0xbfa03c29	-1.251836
13	0x3ce88050	0.028381497
14	0x3f07c7b8	0.5303912
15	0xbc7f87df	-0.015596359
16	0xbf39a5bd	-0.7251852
17	0xbf6b77ab	-0.91979474
18	0xbd1b7383	-0.037951957
19	0x3f4bd18a	0.79616606
20	0xbe0e03b0	-0.13868594
21	0x3e2cc1e8	0.16870844
22	0x3e6e48ae	0.23269913
23	0xbc44dd20	-0.012015611
24	0xbc958a54	-0.018254437
25	0xbc501b0a	-0.012701759
26	0xbd4f70c0	-0.050644636
27	0x3d07ca6e	0.033152036
28	0xc0234132	-2.5508542
29	0x3f0a363c	0.53989005
30	0x3dccb66e	0.09995733
31	0x3be08a61	0.0068524336
32	0xbb77f963	-0.0037837855
33	0x3ece54ae	0.4029898
34	0xbd45dd36	-0.048306666
35	0xbdc8c163	-0.098025106
36	0x3e18357a	0.1486415
37	0xbf3cbd09	-0.73725945
38	0x3d4dda15	0.050256807
39	0x3e947f36	0.29003304
40	0xbd092def	-0.03349107
41	0xbde45098	-0.111481845
42	0x3d03b46c	0.032154486
43	0xbd32e7ce	-0.043678097
44	0x3c403b68	0.011732914
45	0xbf34d6c7	-0.70640224
46	0x3aad2e00	0.0013212562
47	0x3e4070d7	0.18793045
48	0x3bb72490	0.0055890754
49	0x3ebe6a20	0.37190342
50	0x3d3acae2	0.04560364
51	0x3f94df90	1.1630726
52	0x3e31744f	0.17329524
53	0x3eb1b1e9	0.34706047
54	0x3e82489a	0.25446016
55	0x3d1997c7	0.03749826
56	0x3eaf824c	0.34279096
57	0xbd8944bc	-0.06702563
58	0xbd0a6069	-0.03378335
59	0x3d5aa56c	0.053380415
60	0x3fbf50ed	1.4946572
61	0x3e99605b	0.29956326
62	0x3e32a99c	0.17447513
63	0xbc5de06d	-0.013542277
64	0x3f00fa70	0.5038214
65	0xbcbd0112	-0.0230718
66	0x3ee467f4	0.4461056
67	0x3e4ffe74	0.2031191
68	0xbc195636	-0.009358933
69	0x3e98ecb8	0.29868102
70	0x3eee6213	0.465592
71	0xbec6f480	-0.38858414
72	0x3ed7b795	0.4213225
73	0x3f0ae1aa	0.54250586
74	0x3ed79f16	0.4211356
75	0x3efd65fb	0.49491867
76	0xc0470e42	-3.1102452
77	0xbd44160e	-0.047872595
78	0x3de51737	0.111860685
79	0xbd3f1f73	-0.04666085
80	0xbfe880c9	-1.8164302
81	0x3f106e30	0.5641813
82	0x3bf6d8ff	0.007533192
83	0x3f3e11f5	0.7424615
84	0x3d8ef4ca	0.069802836
85	0x3eb11d4e	0.3459267
86	0x3eb7e3c7	0.35915968
87	0xbceb5899	-0.02872877
88	0x3db13d0e	0.086542234
89	0xbd7ca9f5	-0.06168552
90	0x3d7a60be	0.061127417
91	0xbd2ea81d	-0.042640794
92	0x3c6512a9	0.0139815
93	0x3f31af44	0.6940806
94	0x3f094f9a	0.5363709
95	0xbd56dd2e	-0.052457027
96	0x3ccd54b8	0.025064811
97	0x3ed27cfe	0.41110986
98	0xbd6c74af	-0.057728466
99	0xbd61ce0d	-0.055128146
100	0x3f087185	0.5329822
101	0xbeae448c	-0.34036672
102	0x3edc3692	0.43010384
103	0x3e8fc278	0.28078055
104	0x3f15d89f	0.5853366
105	0xbad1cb59	-0.0016006037
106	0xbc96135a	-0.018319774
107	0x3c472385	0.012154465
108	0xbb0c7fb7	-0.0021438429
109	0xc013ea17	-2.3111627
110	0x3dec8a5a	0.11549826
111	0x3ec1b9b6	0.37837
112	0xbde5584c	-0.11198482
113	0x3ebb487d	0.36578742
114	0x3be27698	0.00691111
115	0xbf09146d	-0.5354679
116	0x3ef0ba14	0.47016966
117	0x3efce5be	0.4939403
118	0x3eaa7d88	0.33298898
119	0xbab9a762	-0.0014164264
120	0x3eda810a	0.42676574
121	0xbd22010a	-0.039551772
122	0xbc78e23e	-0.015190659
123	0x3de0857e	0.109629616
124	0xbf1d2042	-0.61377347
125	0x3eac9b37	0.3371217
126	0xbe395694	-0.18099433
127	0xbcd64dbc	-0.026160114

fc3.bias f4 [2]
0	0x3e2bb80e	0.1676943
1	0x3e3d46a9	0.18483986

fc1.weight f4 [64, 4]
0	0x3e54496d	0.20731135
1	0x3ed7f823	0.421815
2	0xbebb89a8	-0.3662846
3	0x3f1d17e9	0.6136461
4	0xbea5e0f7	-0.32398197
5	0x3e21c3d1	0.15797354
6	0x3fa91cc6	1.3211906
7	0x3ec43769	0.38323525
8	0x3e757d4c	0.23973578
9	0xbf039555	-0.5139974
10	0x3f48778c	0.78307414
11	0x3c8f45a0	0.017489254
12	0x3ed874c4	0.42276585
13	0x3c002b0c	0.007822763
14	0x3fa3d0d5	1.2798105
15	0xbe19c3bc	-0.15016073
16	0x3e52a00d	0.20568867
17	0x3db52b82	0.08846189
18	0xbf50ce33	-0.81564635
19	0x3e402f61	0.18768074
20	0xbee15097	-0.44006798
21	0x3e824b34	0.25448
22	0x3fbc7810	1.472414
23	0x3efb2c31	0.49057153
24	0xbf15e379	-0.5855022
25	0xbeb8bfe3	-0.36083898
26	0xbe4e5e85	-0.20153244
27	0xbe309dd6	-0.1724771
28	0x3ea8f4fd	0.3299941
29	0xbeeb8c46	-0.46005458
30	0xbf823c64	-1.017468
31	0xbf1b0432	-0.60553277
32	0x3e8421b9	0.25806978
33	0x3dadfd1a	0.08495541
34	0xbf1d0b9c	-0.6134584
35	0x3ec0708b	0.37585863
36	0xbe2c01f5	-0.16797622
37	0x3ebbfc35	0.36715856
38	0xbd76d785	-0.06026413
39	0xbe209ba5	-0.15684374
40	0x3e97984f	0.2960839
41	0xbdbeff9f	-0.093260996
42	0x3f882747	1.0636986
43	0x3ec3ab70	0.38216734
44	0x3ee44998	0.44587398
45	0xbe719160	-0.23590612
46	0x3f898f2f	1.0746821
47	0x3d93d24a	0.07217844
48	0x3e91c732	0.28472286
49	0xbeb13d46	-0.3461706
50	0xbfa9754e	-1.3238924
51	0xbd8e2541	-0.06940699
52	0xbebe7f55	-0.37206522
53	0x3ee6cd79	0.45078638
54	0xbe4dc56c	-0.20094842
55	0x3e1c0c24	0.15239006
56	0x3e187726	0.14889202
57	0xbdd02a4d	-0.10164318
58	0x3fef0d3f	1.8675917
59	0xbe0e15fa	-0.13875571
60	0x3d00f320	0.031481862
61	0xbeaebaf4	-0.3412701
62	0x3e1de08a	0.15417686
63	0xbe305341	-0.17219259
64	0x3e5270be	0.2055082
65	0xbe270dda	-0.16313878
66	0x3fc9a44c	1.5753264
67	0xbe65135a	-0.22370663
68	0xbf0c7bed	-0.54876596
69	0xbdc5ff06	-0.096677825
70	0x3faaa9b9	1.3333045
71	0x3dbc7a8b	0.09203061
72	0x3eaf9edf	0.34300897
73	0xbecd307e	-0.4007606
74	0xbf9d99ee	-1.2312601
75	0xbe9ad8a7	-0.30243418
76	0xbe3e87c9	-0.18606485
77	0x3e600485	0.21876724
78	0x3fe02dc1	1.7513963
79	0x3ed996f8	0.42497993
80	0xbed74e66	-0.42052
81	0xbf05166e	-0.5198735
82	0x3e0c7ed3	0.13720255
83	0xbe262295	-0.1622413
84	0xbd4cf058	-0.050033897
85	0xbc56d941	-0.013113321
86	0x3c789145	0.015171354
87	0xbf132c5f	-0.5748958
88	0xbe8e48e3	-0.27789983
89	0x3e204a88	0.15653431
90	0x3db575c9	0.08860356
91	0x3d287474	0.041126683
92	0x3ed2240d	0.4104313
93	0x3e7380db	0.23779623
94	0xbf85f620	-1.0465736
95	0x3ccb9356	0.024850529
96	0x3f0abdfc	0.54196143
97	0xbe48f331	-0.1962402
98	0xbf867591	-1.0504628
99	0xbea981ab	-0.3310674
100	0xbe4183ea	-0.18897977
101	0xbe32beac	-0.17455548
102	0xbfbc715a	-1.4722092
103	0xbebe958e	-0.37223476
104	0x3e8d4167	0.2758896
105	0xbf043a94	-0.51651883
106	0xbfe392ce	-1.7779176
107	0xbe2f5e2f	-0.17125772
108	0xbccf5049	-0.025306838
109	0xbc1ec676	-0.009690871
110	0x3ffcf625	1.9762617
111	0x3e4a1c6d	0.19737406
112	0x3e79ebd2	0.24406365
113	0xbe85ea2a	-0.26155216
114	0xbf9fcb1b	-1.2483858
115	0xbed14e1a	-0.408799
116	0x3e365a76	0.17807946
117	0xbe847734	-0.25872195
118	0xbfba278f	-1.4543322
119	0xbee8b50c	-0.45450628
120	0x3e123684	0.14278609
121	0xbe599868	-0.21249545
122	0xbfa24ea6	-1.2680252
123	0xbeef8369	-0.46779945
124	0xbf090ae7	-0.5353226
125	0xbefbcac5	-0.49178138
126	0xbef77f42	-0.48339278
127	0xbe98a186	-0.29810733
128	0x3e8b53a0	0.27212238
129	0xbd5fbd93	-0.05462415
130	0x3f09cb22	0.5382558
131	0x3e80ec14	0.25180113
132	0xbef18056	-0.47168225
133	0x3e4f6688	0.20253956
134	0xbfb055cb	-1.3776182
135	0xbe3d1650	-0.18465543
136	0xbe392718	-0.1808132
137	0xbec483d3	-0.38381824
138	0x3d68028f	0.056643065
139	0xbe8f8595	-0.28031603
140	0x3f28872c	0.65831256
141	0xbeb36d35	-0.35044256
142	0xbf1d64d2	-0.61481965
143	0xbe832e9b	-0.25621495
144	0xbe2b9be8	-0.16758692
145	0x3e0d9f5f	0.13830326
146	0x3ff50232	1.9141295
147	0x3ea20660	0.3164549
148	0x3ed9a96b	0.42512068
149	0xbebc4db2	-0.36778027
150	0x3de5367d	0.111920334
151	0xbe7bac91	-0.24577548
152	0x3b7451e8	0.0037280265
153	0xbed7183b	-0.42010674
154	0x3fc43024	1.5327191
155	0xbea42174	-0.32056773
156	0x3eeecc76	0.46640366
157	0x3c41bfaf	0.011825486
158	0x3ed39cab	0.41330466
159	0x3e16ea6a	0.1473786
160	0x3f0c4743	0.54796237
161	0x3c1a7bee	0.009428961
162	0xbead09f0	-0.33796644
163	0xbeacccdc	-0.33750045
164	0x3e23b153	0.15985613
165	0xbdebd5d7	-0.11515396
166	0xbf8fa737	-1.1222905
167	0x3efed481	0.49771503
168	0x3de4ca02	0.111713424
169	0xbeca54ce	-0.39517826
170	0xbf328fe0	-0.69750786
171	0x3dbeefe3	0.093230985
172	0x3ecf1079	0.40442255
173	0xbd981e85	-0.07427696
174	0xbfa3d87c	-1.2800441
175	0xbe5beecf	-0.21477817
176	0xbeb42cd0	-0.3519044
177	0xbd85de27	-0.06536513
178	0xbef4b697	-0.47795555
179	0xbec71b51	-0.38888028
180	0x3e3de65f	0.18544911
181	0x3dd7c35a	0.10535307
182	0xbd2741f2	-0.040834375
183	0xbe377f8f	-0.17919753
184	0x3e063572	0.13106325
185	0x3e27702a	0.16351381
186	0x3f05c1f6	0.52249086
187	0xbc39a673	-0.0113311885
188	0xbe80fce8	-0.25192952
189	0x3d6454cc	0.05574493
190	0xbe31bf58	-0.17358148
191	0xbe6edecb	-0.23327176
192	0x3f1444f7	0.5791773
193	0x3eaed5c0	0.34147453
194	0xbec5c580	-0.38627243
195	0xbcf377fc	-0.029720299
196	0xbda2f69f	-0.079571955
197	0xbabd961c	-0.0014464292
198	0x3e107871	0.14108445
199	0x3e8c5522	0.274087
200	0x3c857434	0.016290762
201	0x3d578012	0.05261237
202	0x3fd21ff0	1.6415997
203	0x3e82331a	0.25429612
204	0xbe1fa9d4	-0.15592128
205	0xbe8f958b	-0.2804378
206	0xbfb3891d	-1.4026219
207	0xbedb0f24	-0.4278499
208	0xbd9ad7ad	-0.07560668
209	0x3d3e91d7	0.046525802
210	0x3fd9eab5	1.7024752
211	0x3e5323e3	0.20619158
212	0xbf291e6f	-0.6606206
213	0xbe5fb701	-0.21847154
214	0xbf004991	-0.50112253
215	0x3ee5f9b0	0.4491706
216	0xbc98c319	-0.018647717
217	0xbd989153	-0.074495934
218	0xbc727484	-0.014798287
219	0xbe0b70dc	-0.13617271
220	0xbed4f1d1	-0.4159074
221	0x3ee2ee3e	0.4432239
222	0xbf3ac636	-0.72958696
223	0xbd8dd3de	-0.06925176
224	0xbee0aa69	-0.43880013
225	0x3ecaa1b7	0.39576504
226	0x3ee7130f	0.45131728
227	0x3e284a8f	0.16434692
228	0xbf016557	-0.5054526
229	0xbeec0fad	-0.4610571
230	0xbfad6172	-1.3545363
231	0x3e810488	0.2519877
232	0xba869ea5	-0.0010270668
233	0x3eb7b673	0.35881385
234	0x3dd81670	0.105511546
235	0x3e5534db	0.20820944
236	0x3e064632	0.13112715
237	0xbe88411a	-0.2661217
238	0xbfe45adc	-1.7840228
239	0xbf01edb6	-0.50753343
240	0x3e1d7b35	0.15379031
241	0xbe6d653c	-0.23183149
242	0xbf90ed80	-1.1322479
243	0xbed54cb2	-0.41660076
244	0x3d7d60a3	0.061859738
245	0xbe363015	-0.1779178
246	0xbf33114f	-0.69948286
247	0x3eaddd70	0.33958006
248	0xbe2b3385	-0.16718872
249	0x3e68574f	0.22689556
250	0xbf7ad359	-0.9797874
251	0xbd9ce5c8	-0.07661015
252	0x3cabe46c	0.020982943
253	0xbe8e203b	-0.27758965
254	0xbf04f09b	-0.51929635
255	0xbed13f50	-0.40868616

fc1.bias f4 [64]
0	0x3ee75506	0.45182055
1	0xbeb60fa6	-0.35558814
2	0x3e8e05fb	0.27738938
3	0x3dab5fa3	0.08367851
4	0x3f17e11f	0.5932788
5	0xbf356dbf	-0.70870584
6	0x3eea88f4	0.45807612
7	0xbeb59bd7	-0.3547046
8	0x3ec9dab2	0.39424664
9	0x3f35313f	0.7077827
10	0xbeab6c3e	-0.3348102
11	0xbde358d0	-0.11100924
12	0x3ecfe7a7	0.40606424
13	0xbf0a9f78	-0.5414958
14	0x3ebbcd9c	0.36680305
15	0xbefe22c2	-0.49635893
16	0x3ee240d2	0.4419008
17	0x3f1991ce	0.59988105
18	0x3f319db9	0.6938129
19	0xbec8cf36	-0.3922059
20	0xbf0982ed	-0.537154
21	0x3eaf976e	0.3429522
22	0x3f0bc492	0.5459682
23	0xbf61a015	-0.8813489
24	0xbea7d4bb	-0.32779488
25	0xbea954d5	-0.33072534
26	0x3e0b0f4a	0.13580051
27	0xbe9a0a7f	-0.30086133
28	0xbe9124f5	-0.28348508
29	0xbe85c462	-0.2612639
30	0xbed2f7b7	-0.41204616
31	0x3ee8f03e	0.4549579
32	0x3f203d4c	0.6259353
33	0xbdc198ba	-0.094529584
34	0xbe23daaf	-0.1600139
35	0xbeffd25d	-0.49965182
36	0xbed5b16a	-0.4173692
37	0xbf042684	-0.5162127
38	0x3ee4d25d	0.44691744
39	0xbf2ad2fe	-0.667282
40	0xbf1b9946	-0.6078075
41	0x3d3814e6	0.044941805
42	0xbeac0492	-0.33597237
43	0xbeca311a	-0.39490587
44	0x3e3cf498	0.1845268
45	0xbf0e8afd	-0.5568083
46	0xbeeda31c	-0.46413505
47	0xbea04687	-0.31303808
48	0xbf096428	-0.5366845
49	0x3f280cff	0.6564483
50	0xbea72e4d	-0.32652512
51	0x3f048326	0.51762617
52	0xbe9edf87	-0.31029913
53	0xbe0ab684	-0.13546187
54	0x3f30bc09	0.6903692
55	0x3f0ac8d7	0.5421271
56	0xbf0d4294	-0.55179715
57	0x3e52657a	0.20546523
58	0x3f20a8a1	0.6275731
59	0xbe30d3dc	-0.17268318
60	0x3f1775c6	0.59164083
61	0x3f195d8b	0.5990836
62	0xbc71c36e	-0.014756067
63	0x3ea0eeb7	0.31432125

fc2.weight f4 [64, 64]
0	0x3d380323	0.044924866
1	0xbf3e22e8	-0.7427201
2	0x3e3ad924	0.18246895
3	0x3df8c03b	0.1214604
4	0x3d88a4ac	0.06672034
5	0x3f1151bb	0.56765336
6	0x3d7e76cd	0.062125016
7	0xbfa5bda3	-1.2948498
8	0x3b991883	0.0046721115
9	0x3e50fe8f	0.20409606
10	0xbdb4773f	-0.08811807
11	0xbd639cae	-0.055569343
12	0xbe6214a6	-0.22078189
13	0x3c59d0a7	0.0132943755
14	0x3e7c7e8d	0.2465765
15	0xbdbe6cad	-0.09298072
16	0x3e30fac6	0.17283162
17	0x3e5a94a5	0.21345766
18	0x3d6333c5	0.055469293
19	0x3e3da43d	0.18519683
20	0xbecaa27a	-0.39577085
21	0xbd066172	-0.032807775
22	0x3e8ba993	0.27277812
23	0xbf3bb716	-0.7332624
24	0xbf2cf49d	-0.6756075
25	0xbf3d31a5	-0.73903877
26	0x3d5382f2	0.05163855
27	0xbe0aaf3f	-0.13543414
28	0xbf907076	-1.128432
29	0xbf938034	-1.15235
30	0xbf92d3cc	-1.1470885
31	0x3e710a60	0.23539114
32	0x3e743086	0.23846635
33	0xbd9f3217	-0.07773226
34	0xbe3b05d6	-0.18263945
35	0xbedc14e4	-0.42984688
36	0xbf531c71	-0.82465273
37	0xbcc32b89	-0.02382447
38	0x3d1845f7	0.0371761
39	0xbe7a44c0	-0.24440289
40	0xbebf485b	-0.3735989
41	0xbdf86e14	-0.12130371
42	0xbe024d11	-0.12724711
43	0xbf6148a4	-0.88001466
44	0xbcd2ef07	-0.025748743
45	0xbde226f3	-0.11042585
46	0xbe156294	-0.14588386
47	0xbeeb95b8	-0.46012664
48	0xbe786867	-0.24258576
49	0x3e849441	0.2589436
50	0xbc91d190	-0.017800122
51	0x3dbd86e9	0.09254248
52	0xbfaa3175	-1.3296343
53	0xbd36e65d	-0.044653285
54	0x3e17cd4d	0.1482441
55	0x3e32ec6e	0.17473003
56	0x3c61f43b	0.013791139
57	0x3dbe3275	0.09286968
58	0x3e90bba7	0.28268167
59	0xbf575b92	-0.841241
60	0x3eb8a91d	0.36066523
61	0x3da372d2	0.079808846
62	0xbd642ba1	-0.05570567
63	0x3d521b34	0.051295474
64	0xbcde4cf0	-0.027136296
65	0x3de8e93e	0.113726124
66	0xbe06169e	-0.13094565
67	0xbd9bb5d8	-0.07603043
68	0x3d360065	0.04443397
69	0xbcdf18c0	-0.027233481
70	0xbcd19cf0	-0.025587529
71	0xbd5565b8	-0.05209896
72	0x3d6d411c	0.05792342
73	0x3d05999c	0.032617196
74	0x3d24127f	0.0400567
75	0xbdbd3814	-0.09239212
76	0xbdd0c40d	-0.10193644
77	0x3c5d8350	0.013520077
78	0x3c1ebf31	0.009689138
79	0xbd6c6580	-0.057713985
80	0xbd7deeb3	-0.06199522
81	0x3dace4e6	0.084420964
82	0xbc52c7ae	-0.01286499
83	0x3bb8ce00	0.0056397915
84	0xbcfc0281	-0.030762913
85	0xbe0f3e65	-0.13988645
86	0xbe119bdf	-0.14219616
87	0xbdb2c443	-0.0872884
88	0xbdb5c1e6	-0.08874874
89	0x3d1f83f4	0.0389442
90	0xbd150c78	-0.036388844
91	0xbd484e44	-0.048902765
92	0x3df413fa	0.11917873
93	0x3d325760	0.04354036
94	0x3db6814e	0.08911382
95	0xbd77dda0	-0.060514092
96	0xbda2af06	-0.07943539
97	0x3d3c2e73	0.045942735
98	0xbdaa9102	-0.08328439
99	0xbda75926	-0.081713006
100	0xbbc5d5e0	-0.006037459
101	0xbd3b44fc	-0.045720086
102	0xbdbfe996	-0.09370725
103	0x3d40c256	0.047060333
104	0x3d94a921	0.07258821
105	0x3bb089f0	0.005387537
106	0xbcb24b2b	-0.021764359
107	0xbded203a	-0.11578412
108	0xbd3a7d80	-0.045529842
109	0x3b9d4448	0.0047993995
110	0x3cfbc400	0.030733109
111	0xbc817398	-0.01580219
112	0xbd9f578b	-0.07780369
113	0x3d2ff580	0.042958736
114	0xbdcbe0da	-0.099549964
115	0x3da1cc75	0.07900325
116	0xbd46a244	-0.048494592
117	0x3afac380	0.001913175
118	0xbd545620	-0.051839948
119	0xbc52527e	-0.0128370505
120	0xbd1ab9c0	-0.0377748
121	0x3dba24fe	0.09089087
122	0xbd0376bb	-0.032095652
123	0x3dc7d55e	0.097574934
124	0x3df62396	0.12018506
125	0xbd797118	-0.06089887
126	0xbdf08127	-0.11743384
127	0x3dcd63aa	0.10028775
128	0x3e72b981	0.23703577
129	0xbeeb80a5	-0.45996585
130	0x3d92d560	0.07169604
131	0xbd07e937	-0.033181395
132	0x3d51a631	0.051183883
133	0x3f9f70aa	1.2456257
134	0x3db12228	0.08649093
135	0xbeb63ba7	-0.35592386
136	0x3db2ea53	0.087361
137	0x3ea79326	0.32729453
138	0xbd896c16	-0.06710069
139	0xbdccb7ca	-0.099959925
140	0xbd43b430	-0.047779262
141	0xbe797acc	-0.2436325
142	0x3e66f3db	0.22553961
143	0xbdb50340	-0.088385105
144	0x3e6bd953	0.23032121
145	0x3d2cdbef	0.042201933
146	0x3d30e4b1	0.043186847
147	0xbbd99cae	-0.006640992
148	0xbe9b7d15	-0.30368868
149	0x3e843fbf	0.25829884
150	0x3ebda729	0.37041596
151	0xbf011cde	-0.5043467
152	0xbddf4c35	-0.10903207
153	0xbeab4b99	-0.33456114
154	0xbe90b8bb	-0.28265938
155	0xbe246aa5	-0.16056307
156	0xbe48a586	-0.19594392
157	0xbef090b2	-0.46985394
158	0xbe75627e	-0.23963353
159	0x3da550f3	0.080720805
160	0x3e57d5c1	0.21077634
161	0xbdd3a13b	-0.10333487
162	0xbdd1aea0	-0.10238385
163	0xbf024d93	-0.5089962
164	0xbf5a3841	-0.85242087
165	0xbdc3b82a	-0.09556611
166	0x3de7915e	0.113070235
167	0xbedfdfc3	-0.43725404
168	0x3c8b757f	0.0170238
169	0x3e5491cd	0.20758744
170	0xbdbda283	-0.09259512
171	0xbf31520c	-0.6926582
172	0x3d6050bd	0.054764498
173	0x3e7092cb	0.23493497
174	0xbe2dab6c	-0.16959924
175	0x3cc61620	0.024180472
176	0xbc8eeab4	-0.0174459
177	0x3eae4bb6	0.34042138
178	0xbe6ac384	-0.22926146
179	0xbb5491e5	-0.0032435593
180	0xbfab842f	-1.3399714
181	0x3bfd37ca	0.007727598
182	0x3e6c08a2	0.23050168
183	0x3e9d4b05	0.30721298
184	0x3db39870	0.087693095
185	0x3e1111e6	0.14166984
186	0x3d9c06fb	0.07618519
187	0xbe5c2447	-0.21498214
188	0x3e906309	0.28200558
189	0x3e009287	0.12555896
190	0x3c9b4ae6	0.018956613
191	0xbdb79f0b	-0.08965882
192	0x3e1b3314	0.15156204
193	0x3edbc847	0.42926237
194	0xbd8644bc	-0.06556079
195	0xbd500fda	-0.050796367
196	0x3e8289e2	0.2549582
197	0x3fffd0d8	1.9985609
198	0x3af2fd80	0.0018538684
199	0xbef7e2f0	-0.48415327
200	0x3de6bf9c	0.11267015
201	0x3e448ec6	0.19195089
202	0x3d8f4108	0.069948256
203	0x3df57147	0.119844966
204	0x3e83e7dc	0.25762832
205	0xbeaa6bc9	-0.3328536
206	0x3e0435a0	0.12911081
207	0x3cc14f48	0.023597375
208	0x3dea4cee	0.114404544
209	0xbb00513e	-0.0019579674
210	0x3e613be2	0.219955
211	0xbe986658	-0.29765582
212	0xbe8afa83	-0.2714425
213	0x3eae40fe	0.3403396
214	0x3e476c19	0.1947483
215	0xbf3f8271	-0.7480841
216	0xbe5d1e30	-0.21593547
217	0xbe9d192e	-0.30683273
218	0xbe615c80	-0.22007942
219	0xbec426f4	-0.3831097
220	0xbeb0fa8a	-0.34566146
221	0xbe06f27a	-0.13178435
222	0xbf01aa87	-0.5065083
223	0xbdad18aa	-0.0845197
224	0x3e6b7eb9	0.2299756
225	0x3d032fb7	0.032027926
226	0x3d6aec01	0.057353977
227	0xbf33ce51	-0.7023669
228	0xbe154d0c	-0.14580172
229	0xbd4565db	-0.04819284
230	0xbe170e9a	-0.14751664
231	0xbee6a7c0	-0.45049858
232	0xbdffbdb0	-0.12487352
233	0x3eb01078	0.34387565
234	0xbe5cc916	-0.21561083
235	0xbf75e686	-0.96054876
236	0x3e38b480	0.18037605
237	0xbe27f99c	-0.16403812
238	0xbe9fea40	-0.31233406
239	0x3cb63dfe	0.022246357
240	0x3c8c5ca4	0.017134018
241	0x3e8a5f09	0.2702563
242	0xbe9a1a28	-0.3009808
243	0xbd6335b3	-0.055471133
244	0xbf93a46e	-1.1534555
245	0x3e08161d	0.13289686
246	0x3ca3526d	0.019936765
247	0x3d8d7eee	0.069089755
248	0xbe044d94	-0.12920219
249	0x3d17be79	0.037046883
250	0x3cf4adb9	0.029867994
251	0xbdca8357	-0.09888332
252	0x3e7f48b2	0.24930075
253	0x3e1630cd	0.14667054
254	0x3e29b713	0.16573744
255	0x3da57915	0.08079735

fc2.bias f4 [64]
0	0x3eb76b9a	0.3582428
1	0xbe151a6a	-0.14560857
2	0x3e2f9d9e	0.1714997
3	0x3e3b771a	0.18307152
4	0xbe1cf241	-0.15326788
5	0x3e0b7983	0.13620572
6	0x3e32fdc9	0.17479624
7	0x3d3ad298	0.045610994
8	0xbdfc7139	-0.12326283
9	0x3e63d47d	0.22249027
10	0x3e8935f9	0.2679899
11	0x3e2d5a29	0.16928925
12	0xbe3ac642	-0.18239692
13	0xbe109626	-0.14119777
14	0x3cf66318	0.030076548
15	0x3d755b5b	0.059901576
16	0xbe27fd24	-0.16405159
17	0xbe4d5216	-0.20050845
18	0xbe14eb8a	-0.14542976
19	0x3eafb398	0.34316707
20	0xbd5b91b6	-0.053605758
21	0x3e359abf	0.17734812
22	0x3ea4a087	0.32153723
23	0x3d963f62	0.07336308
24	0xbdefcd77	-0.11709111
25	0x3d1ed2ba	0.038775183
26	0xbd52f2a6	-0.05150094
27	0xbcbb53b3	-0.02286706
28	0x3cf21855	0.029552618
29	0x3e9fb5fd	0.31193534
30	0x3ec9fc61	0.39450362
31	0x3ce07b89	0.027402656
32	0xbdf0cb60	-0.11757541
33	0x3e3d1aa3	0.18467192
34	0xbe1d2121	-0.15344669
35	0x3cece35b	0.028917005
36	0x3e5dfc69	0.21678318
37	0xbdbe223c	-0.092838734
38	0x3e45b115	0.19305833
39	0x3dc90295	0.098149456
40	0x3e563b82	0.20921138
41	0x3d31e1b2	0.04342813
42	0xbd043a0c	-0.03228192
43	0x3db2d3e2	0.0873182
44	0xbda483c7	-0.08032947
45	0xbe2a7229	-0.16645111
46	0xbd33a4f4	-0.043858483
47	0x3e8224af	0.25418612
48	0xbdd25666	-0.102703854
49	0x3e8fe43c	0.28103817
50	0xbdfcae62	-0.123379484
51	0x3eb8fb38	0.36129165
52	0x3ec834b1	0.391027
53	0x3e923183	0.285534
54	0x3ea2c36b	0.31789717
55	0xbddf6631	-0.10908163
56	0x3e70f7ef	0.23532079
57	0xbdc8731e	-0.09787582
58	0xbd852c3d	-0.065025784
59	0xbd4bac08	-0.04972461
60	0x3e2e405f	0.17016743
61	0x3e01e75f	0.12685917
62	0xbd7e97cf	-0.062156495
63	0x3bd0b084	0.0063686986

fc3.weight f4 [2, 64]
0	0x3d96f0e8	0.07370168
1	0xbdee6ca2	-0.11641814
2	0x3e837c15	0.25680605
3	0x3eabede1	0.33579925
4	0xbd98009c	-0.07421991
5	0x3e4561ac	0.1927554
6	0x3e924f89	0.28576306
7	0xbf79b98f	-0.97548765
8	0xbf837cd8	-1.0272474
9	0x3ea34932	0.3189178
10	0x3e12489b	0.1428551
11	0x3e43c850	0.19119382
12	0xbfa30a80	-1.2737579
13	0x3ce88240	0.02838242
14	0x3f06e4c1	0.526928
15	0xbc7f84f4	-0.015595663
16	0xbf4028ab	-0.75062054
17	0xbf6433e3	-0.8914167
18	0xbd1b7370	-0.037951887
19	0x3f4a68fe	0.79066455
20	0xbe0e01fc	-0.13867944
21	0x3e2e5a59	0.17026652
22	0x3e70b2e8	0.23505747
23	0xbc44e10a	-0.012016544
24	0xbc958bb2	-0.018255088
25	0xbc501c13	-0.012702006
26	0xbd4f70c0	-0.050644636
27	0x3d07c837	0.033149924
28	0xc01fe022	-2.498055
29	0x3f0a58f2	0.5404197
30	0x3dd3ffd2	0.10351528
31	0x3be08b29	0.0068525267
32	0xbb77fb3d	-0.0037838959
33	0x3ecdc116	0.40186375
34	0xbd45def2	-0.04830832
35	0xbdc8c525	-0.09803227
36	0x3e1aca4f	0.15116237
37	0xbf3d99e9	-0.74062973
38	0x3d5e5265	0.054277796
39	0x3e9504eb	0.29105315
40	0xbcdcc45d	-0.026949102
41	0xbde45005	-0.11148075
42	0x3d03b154	0.032151535
43	0xbd32eb52	-0.04368145
44	0x3c40399f	0.011732488
45	0xbf439a06	-0.76406896
46	0x3aad2e8f	0.0013212728
47	0x3e4151c3	0.18878846
48	0x3bb72177	0.005588706
49	0x3ebd9162	0.3702498
50	0x3d3acafa	0.04560373
51	0x3f921f9a	1.1415894
52	0x3e334cf5	0.17509826
53	0x3eb12bcf	0.34603736
54	0x3e81fb3b	0.25386986
55	0x3d199ac5	0.037501115
56	0x3eaf1bcf	0.34200904
57	0xbd894707	-0.067030005
58	0xbd0a6430	-0.033786952
59	0x3d5aa56c	0.053380415
60	0x3fb92592	1.446459
61	0x3e9a47c9	0.30132893
62	0x3e2a099e	0.16605231
63	0xbc5de377	-0.013543001
64	0x3efd32de	0.4945287
65	0xbcbd0164	-0.023071952
66	0x3ee1a12f	0.44068286
67	0x3e4bf277	0.19916712
68	0xbc19585d	-0.009359446
69	0x3e962598	0.29325557
70	0x3eead9cc	0.4586929
71	0xbec4684a	-0.38360816
72	0x3ecb1200	0.3966217
73	0x3f08f645	0.5350078
74	0x3ed3adcb	0.4134353
75	0x3ef9342f	0.48672625
76	0xc0451dbe	-3.0799403
77	0xbd4419d1	-0.047876183
78	0x3ddef307	0.108861975
79	0xbd3f205d	-0.046661723
80	0xbfe4128b	-1.7818159
81	0x3f0b4fa1	0.5441838
82	0x3bf6da2c	0.0075333323
83	0x3f3835d4	0.71957135
84	0x3d8ef814	0.06980911
85	0x3eae4061	0.34033492
86	0x3eb543b2	0.3540321
87	0xbceb5cba	-0.028730739
88	0x3db13da2	0.08654334
89	0xbd7cae61	-0.06168974
90	0x3d7a646f	0.061130937
91	0xbd2ea977	-0.042642083
92	0x3c6f0fa4	0.014591131
93	0x3f2c5d26	0.67329633
94	0x3f0732e2	0.52812016
95	0xbd56de91	-0.05245835
96	0x3ccd5522	0.025065009
97	0x3ecf117d	0.4044303
98	0xbd6c75fb	-0.057729702
99	0xbd61cf62	-0.055129416
100	0x3f07090c	0.5274818
101	0xbeaad15f	-0.33362862
102	0x3ed8a958	0.423167
103	0x3e8d165f	0.2755613
104	0x3f13934d	0.5764664
105	0xbad1cdad	-0.0016006731
106	0xbc96146a	-0.018320281
107	0x3c47232d	0.012154383
108	0xbb0c832a	-0.0021440485
109	0xc011f7e0	-2.280754
110	0x3dec8a5a	0.11549826
111	0x3ebe31ef	0.3714747
112	0xbde555be	-0.11197995
113	0x3eb82b90	0.35970736
114	0x3be27374	0.0069107357
115	0xbf055081	-0.52075964
116	0x3eec89e1	0.46198943
117	0x3ef93e6d	0.4868044
118	0x3ea75cc0	0.3268795
119	0xbab9a9e8	-0.0014165016
120	0x3ed6cd50	0.41953516
121	0xbd220324	-0.039553776
122	0xbc78de93	-0.015189785
123	0x3de0857e	0.109629616
124	0xbf1571f7	-0.5837702
125	0x3ea9e0cc	0.3317932
126	0xbe3ac8ad	-0.18240614
127	0xbcd651f0	-0.026162118

fc3.bias f4 [2]
0	0x3e2975e4	0.16548878
1	0x3e370d5e	0.17876193

exp_avg f4 [64, 4]
0	0xbd06a765	-0.032874484
1	0xbd81ebd8	-0.06343812
2	0xbbd8c439	-0.0066151884
3	0x3c4c95ff	0.012486934
4	0xbcf72a07	-0.030171407
5	0xbdaaafea	-0.08334334
6	0x3d43cd7f	0.0478034
7	0x3e6ea2f0	0.23304343
8	0x3b28a507	0.002573313
9	0xba9857b3	-0.0011622816
10	0x38dc6d9a	0.00010510832
11	0x3c0c2f2e	0.00855617
12	0xbc3aba6e	-0.011396987
13	0xbcbeff18	-0.023314998
14	0x3c1f0da6	0.009707844
15	0x3d483fdc	0.048889026
16	0xbcf9159e	-0.030405816
17	0xbd84bc20	-0.064811945
18	0xbc4ad66a	-0.012380222
19	0xba86f022	-0.0010294954
20	0xba35bb58	-0.00069325184
21	0x3d04606a	0.03231851
22	0xbbb41fa8	-0.005496938
23	0xbd86a5e1	-0.06574608
24	0x398134d1	0.0002464415
25	0xbc873fa4	-0.016509838
26	0xba6af3d0	-0.00089627225
27	0x3c980384	0.018556364
28	0x3c5cd60c	0.013478767
29	0x3d4d56f5	0.050131757
30	0xbc7c59ad	-0.01540224
31	0xbdda5d3a	-0.10662313
32	0xbd008685	-0.031378288
33	0xbd7e7b40	-0.06212926
34	0xbba75c61	-0.005107448
35	0x3cba6490	0.02275303
36	0xbcf72c4e	-0.030172493
37	0xbda2900f	-0.07937633
38	0xbbeeaa67	-0.007283497
39	0x3d14903a	0.036270358
40	0x3c222342	0.009896101
41	0xbc2a2721	-0.010385306
42	0x3c10cab2	0.008837389
43	0x3d549496	0.051899515
44	0x3c0e9fdc	0.008705106
45	0x3aae0094	0.0013275319
46	0x3c4cc65f	0.012498467
47	0x3d549c45	0.051906843
48	0xbd66c77c	-0.056342587
49	0xbd44034a	-0.0478547
50	0xbcb7a346	-0.022416722
51	0xbdb5c2bb	-0.088750325
52	0x39901c39	0.00027486848
53	0x3b3148b7	0.0027051398
54	0xb92109d0	-0.00015357812
55	0xbb59377c	-0.0033144644
56	0xbc86a4f7	-0.016436083
57	0xbd82ad09	-0.0638066
58	0x3c032bbf	0.008006035
59	0x3db3de69	0.08782656
60	0x00000000	0.0
61	0x00000000	0.0
62	0x00000000	0.0
63	0x00000000	0.0
64	0xbc944bde	-0.018102583
65	0xbd8083a6	-0.0627511
66	0x3b999a8b	0.0046876124
67	0x3d94339f	0.072364084
68	0xbc668fdf	-0.0140723875
69	0xbd53f908	-0.051751167
70	0x3bcb2ee2	0.006200657
71	0x3d980a10	0.07423794
72	0xbd50fb66	-0.051021002
73	0xbdb808d9	-0.089860626
74	0xbcd85f0f	-0.026412515
75	0xbd3dc49a	-0.046330072
76	0xbbdd3688	-0.0067508854
77	0xbd787f1c	-0.060668096
78	0x3c9f6cbc	0.019461028
79	0x3e15d4cb	0.14631955
80	0xbc07c457	-0.008286557
81	0xbb9b1ec9	-0.0047338945
82	0xb9caf067	-0.00038707556
83	0x385b9aec	5.235795e-05
84	0x3c622ad5	0.013804157
85	0xbcfbe792	-0.03075007
86	0xbc46f855	-0.012144168
87	0x3bc307cd	0.0059518577
88	0xbd1e3152	-0.038621254
89	0xbdc24e7f	-0.09487628
90	0xbc2fdf69	-0.0107344175
91	0x3d04867f	0.032354828
92	0x3de1ab46	0.11018996
93	0x3dc1439c	0.094367236
94	0x3bcaa267	0.0061839106
95	0x3c5be71d	0.013421801
96	0x3bc350f6	0.005960579
97	0x3c7ea1ad	0.015541476
98	0xbc0023f0	-0.007821068
99	0xbd6212c7	-0.05519369
100	0xbbf2f221	-0.007414118
101	0x3c883316	0.016625922
102	0xbc28d952	-0.010305719
103	0xbd87e554	-0.06635538
104	0x3907536e	0.00012905683
105	0xbc22c012	-0.009933488
106	0xbc1980e4	-0.009369109
107	0xbb6e380a	-0.003634932
108	0xbe0afd73	-0.13573246
109	0xbe59803f	-0.21240328
110	0x3d09b68a	0.03362135
111	0x3e816d7c	0.25278842
112	0x3c114a5a	0.008867824
113	0x3d061843	0.03273798
114	0xbc01d158	-0.007923447
115	0xbd6f0699	-0.0583559
116	0x3c40db59	0.011771047
117	0x3d2cea49	0.04221562
118	0xbc174aba	-0.009234125
119	0xbd8f4ef5	-0.06997482
120	0x3c4517f8	0.01202964
121	0x3d41b383	0.047290336
122	0xbc54332f	-0.012951656
123	0xbdbfeb8f	-0.09371101
124	0x3b13d7db	0.002255908
125	0xbbdd537f	-0.0067543383
126	0xbb73bf1d	-0.003719277
127	0xbacee5bf	-0.0015785022
128	0xbce98e53	-0.028510248
129	0xbd90c241	-0.07068301
130	0xb9c52c2b	-0.00037607676
131	0x3d582731	0.05277175
132	0x3b675377	0.0035297552
133	0x3cdeef16	0.027213614
134	0xbbbbdc52	-0.0057330513
135	0xbd3bdd92	-0.045865603
136	0xb9e1f5cb	-0.00043098474
137	0x39b7732f	0.00034990298
138	0xb9bb3456	-0.00035706413
139	0xbb108e64	-0.0022057528
140	0x3df19ec1	0.11797858
141	0x3ddac1d9	0.10681505
142	0x3be6d16a	0.007044007
143	0xbbf6d36d	-0.007532528
144	0x3c0d041c	0.008606937
145	0xbd5400e3	-0.05175866
146	0x3dbefdeb	0.09325775
147	0x3ed21c27	0.41037104
148	0x00000004	6e-45
149	0x80000004	-6e-45
150	0x00000004	6e-45
151	0x00000004	6e-45
152	0xbc98d0fb	-0.018654337
153	0xbd25dc3b	-0.04049323
154	0x3c920d97	0.017828746
155	0x3dc9379f	0.09825062
156	0x3d85c4d1	0.065316804
157	0x3d57e775	0.05271097
158	0x3b7642c1	0.003757641
159	0x3c520406	0.012818342
160	0x3c4f3d22	0.012648853
161	0x3c73213d	0.014839468
162	0x398c6355	0.0002677689
163	0xbbdb8a23	-0.006699817
164	0xbcfbbf8f	-0.03073099
165	0xbce14a94	-0.027501382
166	0xbc2f8182	-0.010712029
167	0xbd25a167	-0.04043713
168	0xbb45aede	-0.0030164043
169	0xbb93d04e	-0.004510916
170	0x3a4c36b1	0.0007790132
171	0x3bd78a46	0.006577763
172	0x3e260773	0.16213779
173	0x3e6f6fc1	0.23382474
174	0xbc8e6f72	-0.017387126
175	0xbe4907fd	-0.19631954
176	0x3b187702	0.0023264294
177	0x3c24583c	0.010030802
178	0xbb139778	-0.0022520702
179	0xbc854c5b	-0.01627176
180	0x3d86f736	0.065901205
181	0x3d805e68	0.062680066
182	0x3b574bcb	0.0032851573
183	0xbb1b816b	-0.0023728262
184	0x3d39986a	0.04531137
185	0x3d20cd96	0.039258562
186	0x3b01810d	0.0019760758
187	0x3ba478f9	0.005019304
188	0xbaa67a09	-0.0012701164
189	0x3c02782d	0.007963222
190	0xba1f494a	-0.00060762896
191	0xbc5f1b55	-0.013617356
192	0x3c5309df	0.012880771
193	0x3caaf361	0.020868005
194	0x3960048f	0.00021364003
195	0xbc2f68e0	-0.0107061565
196	0xbd2782e8	-0.040896326
197	0xbdc1e5a3	-0.09467628
198	0xbc070356	-0.008240541
199	0x3d1f5ee1	0.038908843
200	0x3c8f23ee	0.017473187
201	0xbd2d774f	-0.04235011
202	0x3d03ed03	0.032208454
203	0x3e36aa25	0.17838342
204	0x3cb4c41a	0.022066165
205	0x3d3c9a6f	0.046045717
206	0xbca118bf	-0.01966512
207	0xbdf08814	-0.11744705
208	0x3c90961a	0.017649699
209	0xbdd3b02d	-0.10336337
210	0x3e16e07b	0.1473407
211	0x3f2e5d30	0.6811094
212	0x3b4b237a	0.0030996487
213	0x3c03ee80	0.008052468
214	0xbb26626c	-0.0025388254
215	0xbc9328f9	-0.017963873
216	0xbd4838a3	-0.048882138
217	0xbdc8e02d	-0.09808383
218	0xbc1a5427	-0.009419478
219	0x3cf5ccc5	0.030004868
220	0xbd1d250f	-0.03836542
221	0xbde7369f	-0.11289715
222	0xbc98772e	-0.018611517
223	0x3ce550ac	0.027992569
224	0x80000004	-6e-45
225	0x00000004	6e-45
226	0x00000004	6e-45
227	0x80000004	-6e-45
228	0x3bd9149c	0.0066247713
229	0x3c37b71e	0.011213092
230	0xbbbb7d20	-0.005721703
231	0xbcd2b55a	-0.02572124
232	0xbcbf1470	-0.023325175
233	0xbd78fa2b	-0.060785454
234	0xbb95373d	-0.004553704
235	0x3cf81fa3	0.030288523
236	0x3acb0f0d	0.0015492156
237	0x3c7ed362	0.015553327
238	0xbb1911e0	-0.0023356602
239	0xbcc0e199	-0.023545073
240	0x3c9b966d	0.018992627
241	0xbd4fe2c7	-0.05075338
242	0xbd1cd4bb	-0.038288813
243	0xbd688676	-0.056768857
244	0xbcb02f4e	-0.021506932
245	0xbd400b56	-0.04688581
246	0xbc01ada5	-0.007914935
247	0x3b95c950	0.0045711175
248	0xbc06ba64	-0.00822315
249	0x39061947	0.00012788652
250	0xbb27b915	-0.0025592495
251	0xbc891a8a	-0.016736288
252	0xbb33cb3f	-0.0027434377
253	0xbcc003b0	-0.023439258
254	0xbb7f1aa0	-0.0038925782
255	0x3bb56552	0.00553576
