dqn-reinforcement/a3_part_3_ddqn_gridworld_kumarsat_apurvaba.pth (torch, 13788 bytes, 5 tensors)

fc1.weight f4 [64, 36]
000000 5c 29 65 bf 73 51 f1 3f 1c 82 00 be 52 40 0d 3d
       -0.89516234 1.8852981 -0.12549633 0.03448517
000010 8f 2a 0f bf ec d2 09 bf 2d fe 3a bf c7 c6 5b bf
       -0.55924314 -0.53837466 -0.7304409 -0.85850185
000020 bb 30 59 bf 40 68 8a be fd 60 28 3f e6 cb 00 3e
       -0.8483998 -0.2703266 0.6577299 0.12577781
000030 14 5b 41 bf 83 11 a4 3f 33 dd 08 3e 9c f5 11 3f
       -0.755296 1.2817844 0.13365631 0.57015395
000040 8e 78 ef bd ab d0 8d be 7e 13 5b bf 12 81 ea be
       -0.11692916 -0.27698264 -0.8557662 -0.45801598
000050 8a 05 b5 3f 50 96 01 3e 44 e7 85 3e 5b 07 8d be
       1.4142315 0.12654996 0.26153004 -0.27544674
000060 d0 0c 7b 3d 15 38 08 40 7e a3 28 3e 5a 5b 0c bf
       0.061291516 2.128423 0.16468617 -0.5482689
000070 40 0d 59 bf 19 ba 71 3c 51 58 68 be 5d aa 8e 3d
       -0.8478584 0.014753842 -0.2268994 0.06966088
000080 a7 02 fb 3f d0 e8 14 be 03 a8 a1 bd 50 6a 25 3d
       1.9610184 -0.14541936 -0.07893374 0.04038459
000090 82 84 a9 bb 70 44 d1 3f 2b b5 2c bd 60 d1 80 be
       -0.005173267 1.634901 -0.042164963 -0.2515974
0000a0 cc 54 29 bf c9 5a d0 3f ec 1b 56 be 1f 88 cb be
       -0.66145015 1.6277705 -0.20909089 -0.3975229
0000b0 99 83 12 bf 82 54 43 bf eb 4e 5d 3f f6 fd ba bd
       -0.5723205 -0.76300824 0.86448544 -0.091304705
0000c0 8f 20 b8 be 34 69 b2 3f ae f7 f1 3d 69 4a 8a 3f
       -0.3596234 1.3938355 0.11814819 1.0803958
0000d0 88 61 4e bf 54 90 80 bf 85 96 08 40 d1 56 cf be
       -0.8061757 -1.0044045 2.134187 -0.40495923
0000e0 60 e0 d5 3f 44 f2 1f be ce 1b 67 bf 2a d6 80 bf
       1.6709099 -0.15619761 -0.902768 -1.0065358
0000f0 63 04 9f 3d 5a 35 dd 3f 9b 5b 07 3e 1f 85 4c bf
       0.077645086 1.7281907 0.13218538 -0.79890627
000100 1c 2a 80 bf ac cf e5 3e be a8 2e bf 3a 03 bc 3e
       -1.0012851 0.44885004 -0.6822623 0.36721212
000110 a2 15 a9 3e 54 d9 11 3e f6 ce 38 bd f6 bc c0 bc
       0.33024317 0.1424306 -0.04511925 -0.023527604
000120 06 db 87 bf d9 71 db 3f 86 4e 81 bd 2d c5 88 be
       -1.0613716 1.7144119 -0.06313805 -0.26712933
000130 b2 69 11 bf 81 d4 21 3e 42 a3 84 bf f0 fc 09 bf
       -0.56801903 0.1580372 -1.0362322 -0.53901577
000140 c2 31 56 be 7e 7c 2b bf 09 77 ce 3e 0f 72 19 3e
       -0.20917419 -0.66986835 0.40325192 0.14984916
000150 64 86 2a bf a2 9e c3 3f 06 b7 f4 bd e8 51 78 3e
       -0.66611314 1.5282786 -0.119489715 0.24249995
000160 51 e7 39 bf 9d fe 31 bf 93 ac 6a 3f 9f 4f 14 bf
       -0.72618586 -0.69529134 0.9166958 -0.5793399
000170 f8 ed c7 3f 20 d3 ad 3c 8c c6 3a bf 50 c3 3a bf
       1.5619497 0.021218836 -0.7295921 -0.72954273
000180 86 c0 27 3e ed d1 ef 3f b6 52 15 3e b0 b7 03 bf
       0.16382036 1.8735939 0.14582333 -0.5145216
000190 0e c2 3a bf 6e a7 0a be ab 0a f0 be 28 da 85 3b
       -0.72952354 -0.13540432 -0.4688314 0.004084844
0001a0 28 a3 dd 3f 03 c5 28 be d6 32 78 bd 56 fe 87 3b
       1.7315416 -0.16481404 -0.060595356 0.0041501923
0001b0 aa 93 99 be 27 57 96 3f ce 14 dc 3d 0e 6f 9c 3f
       -0.2999547 1.1745347 0.10746156 1.2221391
0001c0 e6 03 30 bf 53 f4 52 bf fe c2 83 be b8 37 11 bf
       -0.6875595 -0.8240406 -0.25734705 -0.56725645
0001d0 49 c2 20 bf ed 9e 40 bf 52 a4 06 3f a0 e3 80 bc
       -0.62796456 -0.752425 0.5259448 -0.01573354
0001e0 bf a3 8d be 4b 33 7e 3f ef 7d 23 3e ff 6f 1f bf
       -0.2766399 0.99297017 0.15966009 -0.6228027
0001f0 4e 3a 68 bf bb f0 bb be 89 9c 08 bf 50 b0 c5 be
       -0.90713966 -0.367071 -0.53363854 -0.38611078
000200 cc ed 8a 3f ee fc df 3d 8e e3 1b be c8 c5 77 bf
       1.085382 0.109369144 -0.15223524 -0.96786165
000210 66 fd c5 bd 8d 5a ed 3f f6 78 eb 3c d7 1a 52 be
       -0.096674725 1.8543259 0.028744202 -0.20518051
000220 c4 a6 80 bf 1d 81 90 bf 58 35 96 3f bc 23 1a 3f
       -1.0050893 -1.1289402 1.1735029 0.60210776
000230 b0 b1 fa 3f c0 67 1d be f8 39 b8 3d 48 12 df bd
       1.9585476 -0.15371609 0.08995432 -0.10892159
000240 15 30 3f be 71 9b e5 be 5e 21 e5 3d 65 43 9d bf
       -0.18670686 -0.44845155 0.11188005 -1.2286192
000250 68 d6 e7 be 8f e1 b6 3d c4 18 57 3d b5 e7 22 be
       -0.45280766 0.08929741 0.052513853 -0.15908702
000260 53 93 a4 3f f2 9d fe be bd b5 80 bf 8c 3d 0f be
       1.285746 -0.49729878 -1.0055462 -0.13988322
000270 af d4 68 3d 31 1f 9f bd 5e 91 fa bd a9 4d 80 bf
       0.056843456 -0.07769621 -0.12234758 -1.00237
000280 0e 28 66 bf 0b db dd 3f 23 46 0d 3f 6f 50 3c 3c
       -0.8990487 1.7332472 0.55185145 0.011493786
000290 48 8d 83 3e 86 60 8e 3d e2 da 81 bf b4 d2 34 bf
       0.25693727 0.06952004 -1.0144923 -0.7063401
0002a0 8b 01 4d bd f7 28 6d bf 56 1d e3 3b e0 50 8a 3e
       -0.0500503 -0.9264063 0.0069309874 0.27014828
0002b0 8a f2 13 bf 52 64 18 bf 04 7f fa 3f 9a aa a4 3e
       -0.5779196 -0.59528077 1.9570012 0.3216141
0002c0 1f cc f8 3f 86 b6 97 bd 6b 96 8e 3c af 27 1e 3e
       1.9437293 -0.074078605 0.01740571 0.15444826
0002d0 3f 48 65 3f c6 82 e2 3e 56 f4 05 3b 0e 04 85 bf
       0.89563364 0.44240397 0.0020439825 -1.0391862
0002e0 17 e2 c1 3f f5 e1 bd bf 85 1e 42 3f c5 d2 89 3f
       1.5147122 -1.4834582 0.7582782 1.0767447
0002f0 02 58 74 3e a8 59 d8 3f 97 fe 9a 3e f6 8f 0e 3e
       0.23861697 1.6902361 0.30272362 0.13922104
000300 84 40 df 3e 40 96 4d 3d 63 19 99 bd f2 fc 2a c0
       0.4360391 0.050192118 -0.07475545 -2.6716886
000310 fe d9 f8 3f 08 f7 25 40 59 46 94 be 6a ed a4 3f
       1.9441526 2.5932026 -0.2895992 1.2884953
000320 68 71 1d be fb 28 8b 3d 8e 4a a2 be 47 99 f3 3f
       -0.15375292 0.06794926 -0.31697506 1.9031152
000330 56 a1 53 3a 9e d2 bf bf e0 34 ab 3c 25 fe 7f 3e
       0.0008073052 -1.498615 0.020899236 0.24999292
000340 b2 95 be 3f c8 37 5b bf 9e 23 a5 3f 84 b6 6c 3f
       1.4889433 -0.8563199 1.2901495 0.92465997
000350 38 1b b1 3d f6 a8 b8 bd 8b 49 e4 3d 2b 04 42 bc
       0.0864777 -0.09016602 0.1114684 -0.011841814
000360 2b 4c 8b 3d d3 8a e2 bd db 8a 08 3e 40 5c 18 3d
       0.06801637 -0.11061635 0.13334219 0.03719735
000370 0b b3 1a 3d 2f d3 17 be ab 51 6d bc a6 b7 6e bd
       0.037768405 -0.14826654 -0.014484803 -0.05828061
000380 12 21 21 3e af 3f 1c be 46 77 28 bd 4e 4c a9 bd
       0.15735272 -0.15258668 -0.041129373 -0.08266507
000390 78 70 f7 bd 88 48 83 3d 7b aa eb bd 20 59 a1 3d
       -0.120819986 0.064103186 -0.11507126 0.07878327
0003a0 cb e1 a3 3c 46 b5 b4 bd 56 60 9b bc 40 ce 6c 3c
       0.020005127 -0.08823638 -0.018966835 0.014453471
0003b0 cb 1e 98 bd 4e 4f db bd bb 5a c0 bd 06 b6 24 3d
       -0.07427748 -0.107084855 -0.093923055 0.040212654
0003c0 aa 61 16 be 0b ee d6 3d 3b 2b e0 3d b7 ee 1c 3e
       -0.14685693 0.10494622 0.109457456 0.15325437
0003d0 2a 65 10 3e e8 d4 bf bd eb 1c 94 bd cb d4 f9 3d
       0.14101091 -0.093667805 -0.07232078 0.1219879
0003e0 16 a1 b0 bc a0 50 fb bd 68 81 a3 bd 6e 99 ef 3d
       -0.021561187 -0.122712374 -0.07983667 0.11699186
0003f0 d1 da 04 bf 3f f9 2d 3d 33 80 0e be 38 cc 66 bf
       -0.5189639 0.042474028 -0.13916092 -0.90155363

fc1.bias f4 [64]
000000 a4 6a 58 3f 01 48 80 3f c1 85 3a 3f a2 ad 80 3f
       0.8453772 1.0021974 0.7286034 1.0052989
000010 c0 ca 80 3f f7 0b 30 40 86 71 26 be a6 d5 66 3f
       1.0061874 2.7507303 -0.16254243 0.9016975
000020 15 05 18 3f cf 45 91 3f da fd d2 3f 58 a3 96 3f
       0.59382755 1.1349429 1.6483719 1.1768599
000030 2e 25 d2 3f f7 bb bf 3f 42 7c 21 40 e0 05 d2 3f
       1.6417596 1.4979237 2.523209 1.6408043
000040 8c ed 7b 3f a8 3d 31 40 f6 39 d2 3f ba d3 bc 3f
       0.9840934 2.7693882 1.6423938 1.4752114
000050 40 13 54 3f 6b 91 db 3f a7 c4 fa bd c9 0f fc 3f
       0.82841873 1.7153753 -0.1224454 1.9692317
000060 4a df 4b 3f 60 66 26 be f5 de 90 3f 20 48 1e 3f
       0.7963759 -0.1624999 1.1318041 0.61828804
000070 26 55 07 3f c7 04 26 3f 2a 1c 92 3f 4c e6 af 3f
       0.528643 0.6485104 1.1414845 1.3742156
000080 1e e8 bd 3f 0c 63 ba 3f fc 12 99 3f f7 78 3a 3f
       1.4836462 1.4561477 1.1958919 0.7284083
000090 e8 78 78 3f c3 43 4e 3f 4c f0 ae 3f ac 5a 69 3f
       0.9705949 0.80572146 1.3667083 0.9115398
0000a0 5e 9b a8 3f 26 2c 89 3f 12 0c e1 3e d3 25 aa 3f
       1.3172414 1.0716598 0.4395452 1.3292793
0000b0 2a ee 44 3f 9b 09 80 3f de 93 df 3e ec 5d 84 3f
       0.7692591 1.0002931 0.436675 1.0341163
0000c0 62 35 20 40 47 d2 1e 3f 5c ee 00 40 4b 7e 00 40
       2.5032582 0.6203961 2.0145483 2.0077083
0000d0 64 1d 05 40 56 ab 18 40 40 0f ad 3f ff 49 1c 40
       2.0799189 2.3854575 1.3520279 2.4420164
0000e0 c8 da e3 3f 5e df b7 3f e8 a6 ab 3f 50 7e 5b 3f
       1.7801142 1.4365041 1.3410311 0.8573961
0000f0 d0 05 48 3f ab fe 3a 40 10 be 6a 3f 88 b0 27 40
       0.7813387 2.9217937 0.9169626 2.6201496

value_fc.weight f4 [1, 64]
000000 8f a1 cf bf 03 20 6e bf 00 c5 8f bf 47 c8 02 bf
       -1.6221179 -0.93017596 -1.1231995 -0.5108685
000010 98 c7 93 be 14 ae f2 3f e8 c5 75 bd 28 04 b1 bf
       -0.28863215 1.8959374 -0.06000319 -1.3829393
000020 96 6e 9b bf f4 4f c3 be b5 32 6e 3f 0a 1c 3f bf
       -1.2143123 -0.38146937 0.9304612 -0.7465216
000030 85 31 61 3f c9 c7 e4 39 a7 d0 ef 3f 29 95 53 3f
       0.87966186 0.000436364 1.8735551 0.82649475
000040 c6 17 2f bf fa 63 4b 40 34 9d 68 3f 85 ed 53 bf
       -0.6839565 3.177977 0.9086487 -0.827843
000050 bc 4e 17 bf 1b b0 35 bf bf 60 c1 3c d9 25 a6 bd
       -0.59104514 -0.7097184 0.023605702 -0.081126876
000060 46 1f 5a bf de a1 d4 3d 31 47 84 3f c9 93 82 bf
       -0.8520397 0.10382436 1.0334226 -1.020135
000070 b2 fd 55 bf bc 10 7b bf 2c b4 44 3d 96 0f 17 3f
       -0.83590233 -0.9807241 0.048023388 0.5900816
000080 82 8c 55 bd 50 7f fe bd d3 5b c1 bf f0 c9 94 bf
       -0.05213595 -0.12426627 -1.5106148 -1.1624126
000090 a3 b3 77 bf bc 18 ca bf b3 f7 41 bd 97 ce f4 be
       -0.9675848 -1.5788798 -0.047355365 -0.47813866
0000a0 8b af ee 3d bb 37 f3 be b8 44 46 bf 43 0d 01 3e
       0.11654576 -0.47503456 -0.77448606 0.12602715
0000b0 59 7f 8b bf 6b 8c 37 be e7 0e 78 bf 2f 5c 1c bf
       -1.0898238 -0.17924659 -0.9689774 -0.6107816
0000c0 96 88 68 40 da c5 9a bf 37 f0 e0 3f b2 68 e6 3f
       3.6333365 -1.209163 1.7573308 1.80007
0000d0 83 d0 c9 3f f7 27 1c 3f e9 7f 1b 3f ec a1 1d 3f
       1.5766758 0.6099848 0.6074205 0.615752
0000e0 0c 75 9e 3f d7 ac 7b bf 05 03 dc 3e 20 fc 62 bf
       1.237947 -0.9831061 0.42971054 -0.8866596
0000f0 09 c3 08 bf 3a a7 12 40 5a 90 b3 bf 9e 98 11 40
       -0.534226 2.2914567 -1.4028428 2.27494

advantage_fc.weight f4 [4, 64]
000000 7d f6 06 c0 7d fb 6a bf 41 12 b4 bf 59 2f a9 bf
       -2.1087945 -0.9178999 -1.4068071 -1.3217574
000010 9c fa db 3f a3 2b f6 3e de f1 8b 3d 77 63 c1 3e
       1.7185855 0.48080167 0.06833242 0.37771198
000020 95 61 88 bf 24 8f 0c c0 52 a0 0f 3f ba b9 93 bf
       -1.065478 -2.1962366 0.56104004 -1.1541054
000030 0f d0 57 3f fb c3 f7 3e a0 84 ac 3e b4 86 47 3f
       0.8430185 0.4839171 0.33694935 0.77939916
000040 5c e2 e0 bf 3a a4 b1 bf c8 ba d1 3f 05 3a a4 40
       -1.7569079 -1.3878243 1.6385126 5.1320825
000050 c8 25 aa bf 50 45 a5 40 bc a5 02 3d cc 7c 9f 40
       -1.329278 5.164711 0.031896338 4.983984
000060 2c 59 ef bf b4 b2 c0 bd a7 bb 2f 3f e0 ad 87 bf
       -1.8699088 -0.09409085 0.6864571 -1.0599937
000070 a5 c8 c0 bf 0e c9 a9 bf 43 7e b5 bf 0f 18 cf bf
       -1.5061232 -1.3264482 -1.4179157 -1.6179217
000080 f6 f1 9d 3e 33 2a c2 be e7 03 a2 bf 06 7a 49 bf
       0.30848664 -0.3792282 -1.2657441 -0.7870182
000090 11 91 6f 40 00 b9 90 bf 1a ff 48 bf 20 ad 1d c0
       3.7432292 -1.1306458 -0.78514254 -2.4636917
0000a0 0a 8a 68 bf a6 fd fa bf 70 1a 18 bf 59 66 0d bf
       -0.9083563 -1.9608657 -0.5941534 -0.55234295
0000b0 58 a9 d4 bf 84 6e 4f be fa 9f d4 be 26 b4 54 bf
       -1.661418 -0.20257002 -0.41528302 -0.83087385
0000c0 e0 da cc bf 27 55 cd bf 1f 8c 9c bf fe c9 37 c0
       -1.6004295 -1.6041611 -1.2230262 -2.8717036
0000d0 ab 14 00 3e e0 aa 73 40 5a 34 ee bf 9d 08 96 40
       0.12507884 3.8073044 -1.8609726 4.6885514
0000e0 72 25 18 3f 42 44 a9 40 34 1e 5b 3f 33 e3 5f bf
       0.59432137 5.2895823 0.8559296 -0.87456053
0000f0 a6 2e d8 bf 8d 5f 81 bf bc 7f fd 3d 67 36 e5 3b
       -1.6889236 -1.0107285 0.12377879 0.0069950107
000100 23 f4 5f 3f cc fb 84 3f 8d 80 98 3f a9 01 43 bf
       0.874819 1.0389342 1.191423 -0.7617441
000110 5a 95 5e 40 6e a0 7f 3f 4e 33 89 bd be 17 dc 3f
       3.4778657 0.9985417 -0.06699239 1.7194746
000120 47 f3 93 3e 9e 3d 9a bf 2a 3c 58 40 e1 37 ca be
       0.28896543 -1.2050054 3.3786721 -0.39495757
000130 22 37 4c 40 d2 7f b2 bf 61 e8 9b 3f 33 d0 74 40
       3.190865 -1.3945258 1.2180291 3.8252075
000140 8a 6e 4c bf 5d a7 63 c0 ae 82 46 40 77 8e 45 bf
       -0.7985617 -3.55709 3.101726 -0.7717051
000150 02 0a 64 40 cc 32 b5 bf 38 f3 d4 bd c3 af d8 bf
       3.5631108 -1.4156127 -0.10397953 -1.6928638
000160 6b 45 a4 3f 0a 24 f1 3d 8e 7a 27 c0 8b 48 a6 3f
       1.2833685 0.11774452 -2.6168551 1.2990888
000170 48 a9 ff 3f dd 0f 00 40 58 6c 8f 40 d3 03 5b c0
       1.9973536 2.0009682 4.4819756 -3.4221084
000180 a7 02 e9 bf 46 e8 c7 bf 03 18 c6 3f b0 49 c2 3e
       -1.8203934 -1.5617759 1.5476078 0.37946844
000190 b7 75 80 be ae 24 c6 3f 6d 41 73 bf 56 30 82 3f
       -0.2508981 1.5479944 -0.95021707 1.0171001
0001a0 d7 84 a3 bf 3e 4a 45 40 8a f9 cc 3f eb 7b c6 bf
       -1.2774915 3.0826564 1.6013653 -1.5506567
0001b0 60 0c 4a 3e 59 e2 76 40 4d 58 9a 3e 46 8c 14 3f
       0.19731283 3.8575652 0.30145493 0.5802654
0001c0 a8 1f 5e c0 25 ff 2c 3f 46 44 0f 40 7d 57 72 40
       -3.4706821 0.6757682 2.238542 3.7865899
0001d0 15 ff a5 3f fb 1e 87 c0 43 4f ae 3e a0 82 b1 bf
       1.296847 -4.222532 0.34044847 -1.3867989
0001e0 d4 d0 54 40 5f b2 89 bf 6e 18 7a 40 e1 1e d1 3f
       3.3252459 -1.075756 3.907741 1.6337548
0001f0 57 75 de 3f 98 8e 8a c0 97 0d 2e 40 d5 52 d0 3f
       1.7379559 -4.3299065 2.7195795 1.6275278
000200 ce d3 fe 3f df ce 05 c0 27 4a ae 3e 93 cb 68 40
       1.9908388 -2.0907514 0.3404095 3.6374252
000210 ab b5 e2 bd 52 fa ca 3f 0c 05 e8 bd 5a 37 16 40
       -0.11069807 1.5857642 -0.113290876 2.3471284
000220 6d 59 02 40 72 90 12 40 22 e5 f2 bf 0f 1c 79 40
       2.036708 2.2900662 -1.8976176 3.8923376
000230 e0 7a 00 c0 2a 25 5e 40 5d 4f b7 3f 4c 70 35 c0
       -2.0074997 3.4710183 1.4321095 -2.834979
000240 4e 1a 64 40 de b1 0d 3f 17 4a 00 c0 03 b1 03 c0
       3.5641055 0.5534953 -2.004522 -2.057679
000250 15 32 a6 be 2a e4 13 c0 3a 1c 1a bd f2 f2 34 c0
       -0.32460085 -2.310801 -0.037624575 -2.8273282
000260 c6 98 03 bf 0e f9 85 bd bf 5b 8d 3e 69 55 04 3f
       -0.5140499 -0.06541644 0.2760906 0.51692826
000270 0d f0 ce bd cd 32 78 3f 03 32 03 c0 b1 02 1a 40
       -0.1010438 0.96952516 -2.0499275 2.4064143
000280 ad f3 72 40 ca fc 6e 40 e0 05 38 40 a5 93 48 40
       3.7961228 3.734179 2.8753586 3.1340115
000290 0c 32 a9 bf e5 f9 09 40 89 ed 6f 40 fc 4b 66 3e
       -1.3218398 2.1558774 3.748873 0.22489923
0002a0 35 70 62 40 70 9d b1 bf e4 5c 9f 3f ad dc 5e 40
       3.5380986 -1.3876171 1.2450223 3.482219
0002b0 68 dd 43 40 c2 1d 03 c0 a2 3a 1e 40 34 ab f5 bf
       3.0603886 -2.0486913 2.4723287 -1.9192872
0002c0 c8 2e 42 3f c6 ff 9b 3f 3d 7a 1d 40 85 5c 92 c0
       0.7585263 1.2187431 2.4605858 -4.573794
0002d0 bd 58 15 40 92 65 46 c0 a1 60 56 40 b6 f4 49 c0
       2.3335412 -3.0999494 3.3496478 -3.155561
0002e0 bb 59 15 bf f5 c3 cc bf 81 df cb bf 4c 28 03 c0
       -0.5834004 -1.5997301 -1.5927583 -2.0493345
0002f0 81 cf 86 be ae dd 01 40 8a 65 84 3f ca 64 19 3f
       -0.26330188 2.0291553 1.0343487 0.59919417
000300 38 3d 16 40 9e 55 6d 40 73 3a dc 3f 62 94 8f 3e
       2.3474865 3.7083507 1.7205337 0.28042895
000310 7d a1 4e c0 a1 33 28 c0 7a e5 8b 3d 63 89 3a c0
       -3.2286065 -2.6281512 0.068308786 -2.9146354
000320 4d 89 0d 3f 82 cc 6d 40 88 72 87 bf 44 17 80 bf
       0.5528763 3.7156072 -1.0581827 -1.00071
000330 2a f4 88 bf a7 cd 08 c0 bf 42 35 c0 87 2d 96 be
       -1.0699513 -2.137552 -2.8321989 -0.2933161
000340 31 e0 a2 3f 91 77 65 40 38 18 d0 bf 88 b8 e9 bf
       1.2724668 3.5854228 -1.6257391 -1.825944
000350 c8 82 03 be b5 08 32 bf ee 09 bc bc d9 3a 69 3f
       -0.12842858 -0.69544536 -0.022953954 0.9110542
000360 31 b6 2d 40 90 b6 8a bc e9 0d 05 40 93 d7 1a 3f
       2.714245 -0.016932756 2.078974 0.6048519
000370 0f 1a ac 3f d2 13 84 be 0a 55 d4 3f 15 c9 72 40
       1.3445452 -0.25796372 1.6588452 3.793523
000380 fb be b3 bf 2e 51 98 bf 71 9e 3e bf 1f da 38 bf
       -1.4042658 -1.1899774 -0.7446051 -0.72207826
000390 1c b7 e4 bf e1 92 e7 3d c2 68 80 bf f4 2e 41 40
       -1.786838 0.11307312 -1.003197 3.0184908
0003a0 5f 15 f5 be 9b 81 2e 40 5f 90 67 bf b9 d6 0e bf
       -0.47867867 2.7266605 -0.9045467 -0.5579639
0003b0 9d 0d 89 3f e2 a8 c5 be a8 e6 10 bf f3 84 59 40
       1.070728 -0.3860541 -0.56601954 3.3987396
0003c0 79 02 4d 40 45 ad d5 3f bb 44 f5 bf 9c d3 87 40
       3.203276 1.6693503 -1.91616 4.244581
0003d0 80 3c 47 c0 d1 2a 95 40 83 61 90 bf f6 63 9f 3e
       -3.1130676 4.6614766 -1.1279758 0.31130952
0003e0 9f 07 0b c0 39 25 0b c0 9c 80 f7 bf c0 6b 26 40
       -2.1723402 -2.174147 -1.9336123 2.6003265
0003f0 f8 49 ca 3f ca a4 57 40 7c e5 1d c0 c6 d0 c1 bf
       1.5803823 3.369433 -2.4671316 -1.5141838

advantage_fc.bias f4 [4]
000000 31 86 8d 3f e6 1a 8b bf b0 bf 95 be 33 fc 2a 3e
       1.1056577 -1.0867584 -0.29247808 0.16697769
