dqn-reinforcement/a3_part_3_ddqn_lunalander_kumarsat_apurvaba.pth (torch, 306466 bytes, 28 tensors)

fc1.weight f4 [128, 8]
000000 90 6e a7 3f 61 84 b1 3e 96 1a e4 3e b0 5a 6b 3f
       1.3080616 0.3467131 0.44551533 0.91935253
000010 83 fe 25 bf 56 ea ac 3e ce 91 8e 3e 7f 0c d8 bc
       -0.6484148 0.33772534 0.27845615 -0.026373146
000020 05 7a d8 3f 67 f9 b6 3d 62 fd 61 3f bb fe 13 bd
       1.6912237 0.089342885 0.88277256 -0.0361316
000030 47 da e4 3a 63 1b 8b 3d 76 58 7b 3d 5c 48 b3 bb
       0.0017460071 0.06792333 0.06136366 -0.0054712724
000040 23 26 62 3f e0 aa 0c be 0d 38 9c 3e 60 7a 90 bd
       0.8833944 -0.13737059 0.30511513 -0.07054591
000050 1f 7f 76 bd f0 e8 c2 bc 77 db a6 bc 6e af a8 3e
       -0.060179826 -0.023792714 -0.02036832 0.32946342
000060 44 c6 8c bf 47 9c 2d bf 93 38 19 bf 69 6c 54 bf
       -1.0998006 -0.67816585 -0.5985195 -0.8297792
000070 a5 95 26 3f 07 43 13 be 18 41 a5 3e 4d 90 39 be
       0.6507209 -0.14381038 0.32276225 -0.18121453
000080 c1 5f 73 be 6a 04 43 3e f7 08 2a be ff c4 14 3e
       -0.23766996 0.19044653 -0.16604982 0.14528273
000090 70 e8 0b 3f 57 4d dd 3e c6 9a b0 3e 28 eb 5c be
       0.54651546 0.43223068 0.34493083 -0.2157408
0000a0 86 81 8b 3e 17 a2 ca bf 17 51 21 3f 95 c1 f7 3f
       0.27247256 -1.5830716 0.6301436 1.9355952
0000b0 7c 3c 5b 3f d3 2d be 3e f8 d1 ac 3d 18 31 a4 3e
       0.85639167 0.37144336 0.08438486 0.32068706
0000c0 80 97 5c 3e cc b8 00 c0 4e 8b ed be ac f6 99 bf
       0.21542168 -2.011279 -0.46395344 -1.2028403
0000d0 80 e3 65 be a5 94 0b 3e 1a c0 68 3d 1a d7 0e 3e
       -0.22450066 0.13630922 0.056823827 0.13949242
0000e0 2f 32 e3 3e fb 83 8d 3e 43 70 5e 3e 0b 16 55 bf
       0.44374225 0.27639756 0.21722512 -0.8323676
0000f0 87 fb d4 be 83 f1 da be 40 7b 14 3e dd d9 5b be
       -0.4159815 -0.42762384 0.14500141 -0.21469827
000100 82 86 8d bf 9f 09 92 be 6b 4b b0 3e 49 a5 71 bd
       -1.1056674 -0.28522965 0.3443254 -0.05899552
000110 5d 28 42 bf 1f dd 08 bf 35 3d 8c 3e dc d2 2b 3e
       -0.7584284 -0.53462404 0.27390447 0.16779655
000120 6b 79 2a 3f de db ba bf 0b c1 57 be 60 a7 28 bf
       0.6659152 -1.4598348 -0.21069734 -0.65880394
000130 a3 2e 29 3e 43 f3 7f be 97 11 a9 3e f5 d0 b5 3e
       0.16521697 -0.2499514 0.33021232 0.35510984
000140 26 46 55 bf c2 7f 6f 3e 1d ce 13 3f 00 5b 0e be
       -0.83310163 0.2338858 0.5773638 -0.13901901
000150 90 fc 83 3e 1a 98 8e 3e ca eb 57 3e 7d 70 96 be
       0.25778627 0.2785042 0.2108604 -0.29382697
000160 77 e2 5a be fb 9a 1f 3f 5d d4 aa 3c d7 88 aa bf
       -0.21375452 0.62345856 0.020853216 -1.332301
000170 9d 3f 0a 3f 34 d6 b2 3e e2 93 c7 be 23 ad 3e be
       0.54003316 0.3492905 -0.38980013 -0.18620734
000180 fc 0a e3 3e 9e 3d 3b be cb 2d e7 be b8 d3 a7 bf
       0.44344318 -0.18285224 -0.45152125 -1.3111486
000190 f9 8c 62 3c 1a f0 7a 3c de 11 e5 3c 32 e7 f4 ba
       0.013827556 0.015316034 0.027962621 -0.0018684624
0001a0 57 e5 98 bf 6d 1d 55 bf 7c 06 1a bf 33 5a bb be
       -1.1944989 -0.83248025 -0.60166144 -0.36592254
0001b0 2d 5e 2b bf d2 b5 30 bd a0 b8 a2 3e 03 e9 f4 bc
       -0.66940576 -0.043142147 0.31781483 -0.029896265
0001c0 d6 66 c4 be 6c fe 2f be 9d f7 64 be b2 5d 44 bf
       -0.38359708 -0.17186898 -0.22360082 -0.7670547
0001d0 50 06 26 3f 49 de 7c be 37 e1 3a bf db 06 39 bf
       0.6485338 -0.2469417 -0.729999 -0.72276086
0001e0 82 d2 fa 3c 76 2f ed 3d 44 7f f6 be cd 43 27 bf
       0.030617956 0.11581318 -0.4814397 -0.6533783
0001f0 e9 39 e5 3d 6d e2 4d bd 13 8e 5b bc 94 1b 9f be
       0.11192686 -0.050264765 -0.013400572 -0.31075728
000200 d2 6c 3c 3b 86 aa fb bd 4e 4a 67 3f 86 50 ec be
       0.0028751385 -0.12288384 0.90347755 -0.46155185
000210 70 2b b3 bf 91 e8 f2 bd 7e 29 05 bd a6 7b 21 3e
       -1.3997631 -0.11860765 -0.032510273 0.15769824
000220 0a ea ad bf a6 ec a6 bf 0a a6 00 bf c8 86 56 bf
       -1.3587048 -1.3040969 -0.50253356 -0.8379941
000230 17 5d 80 3e a7 df 62 3e eb 1c 9c 3e 13 a8 db be
       0.25071022 0.22155629 0.30490813 -0.42901668
000240 df 99 97 be 04 2f b3 bb 63 ef bb be be b9 0b 3f
       -0.29609582 -0.005468251 -0.36706075 0.54580295
000250 66 f7 7e 3f 53 75 66 be 99 f6 0a 3f c4 41 43 bf
       0.9959625 -0.22505693 0.5428253 -0.76272225
000260 93 b8 bb bd 82 13 65 bf fc 77 a7 3b de 3f 80 bf
       -0.09166064 -0.8948289 0.005110739 -1.0019491
000270 3d b9 74 3d b6 64 bd 3d c5 32 b8 bb 65 38 82 bf
       0.05974697 0.09247725 -0.0056212866 -1.017346
000280 94 01 c8 3e 8d 3e 0b 3f 29 85 d3 3e ae 67 a7 be
       0.39063704 0.5439232 0.4131253 -0.3269629
000290 63 a0 91 be 19 5e d5 3e 54 13 ed be fb a4 55 3d
       -0.28442678 0.41673353 -0.4630381 0.05215929
0002a0 4e c7 4d 3f 7e 89 1c bf c1 c6 d8 3d e0 f1 ba be
       0.8038224 -0.61147296 0.10584784 -0.3651266
0002b0 5c 8d 39 3f c4 4c f9 3c cb e3 19 bf d9 db 63 3e
       0.7248132 0.030432113 -0.6011321 0.22251834
0002c0 85 36 46 bf d8 5c 64 3e e6 cf af 3e 46 6a 29 bf
       -0.7742694 0.22301042 0.343383 -0.66177785
0002d0 dd a1 20 3f 12 60 3e 3f 28 dc c7 3b ab 13 55 be
       0.62746984 0.7436534 0.0060992427 -0.20808284
0002e0 2d a7 68 be c2 a7 1b 3f c7 d1 06 3e a8 18 9e 3e
       -0.22720022 0.60802853 0.13165961 0.30878186
0002f0 cb 0c 79 bc a7 f0 f9 be 3e 07 9a be 58 13 02 3e
       -0.015200804 -0.48816416 -0.3008365 0.12702692
000300 f2 b3 72 3f 6c cc 16 be ff 28 d5 be 6f e4 09 bf
       0.94805825 -0.14726418 -0.4163284 -0.53864187
000310 c0 c9 cd 3e 09 66 d9 bb 82 4c c5 3d 63 fd ff bd
       0.40192986 -0.006634478 0.09633733 -0.124995016
000320 79 e1 98 bd ad ac 63 3e f0 79 f1 bd 25 96 ba 3d
       -0.074648805 0.2223384 -0.11790836 0.09110669
000330 ec 6d c4 be f4 b0 cd be ae e0 2c bf f8 54 ef be
       -0.38365114 -0.40174067 -0.67530334 -0.46744514
000340 10 46 4f bd 01 5a ed bd 25 c8 61 be db 18 3b 3d
       -0.050603926 -0.115894325 -0.22049005 0.045678
000350 94 b1 4e bf bd 4a 3e bf ea ed 10 be aa 5e af 3e
       -0.8073971 -0.7433279 -0.14153257 0.3425191
000360 07 70 b9 bc 1e 39 c0 bb 0e 75 84 3c fc a8 69 3c
       -0.022636427 -0.005866184 0.016169097 0.01426148
000370 fe 9a ed bf 3a 1c 04 bc 49 a1 e0 be 25 5e 3d bd
       -1.8562925 -0.00806337 -0.4387305 -0.04623236
000380 79 79 c9 bd 0f ea d2 bc 55 f1 00 bf 01 53 85 bd
       -0.09837622 -0.025746373 -0.50368243 -0.06509972
000390 d9 96 88 be e7 3b 83 bf 8a 45 d1 be bc 6f 18 3f
       -0.26677588 -1.0252656 -0.40873367 0.59545493
0003a0 93 9f 47 3e f7 0a 8a 3f 6f dc 1f bc a3 6d 6c bd
       0.19494466 1.0784596 -0.009757145 -0.057721745
0003b0 99 8e d3 3b 59 94 99 be d5 66 79 be ed eb e8 bd
       0.006456208 -0.29995993 -0.24355634 -0.11373124
0003c0 b6 4e f6 3d bf f3 7a be 51 20 4f 3e 93 06 ec be
       0.12026732 -0.24507044 0.20227171 -0.46098766
0003d0 bf 3a f7 3d 80 7f 17 bf cf b2 c1 be 74 05 b7 3e
       0.12071752 -0.59178925 -0.37831733 0.35746348
0003e0 ba b0 49 3e 32 31 15 3f e3 41 b3 bd 8e d7 08 bf
       0.19696322 0.5827819 -0.08752801 -0.5345391
0003f0 18 8e 0b 3f 5e 6b 09 be 99 f0 2b bc a3 e5 3c 3d
       0.5451369 -0.13419864 -0.010494375 0.046117436

fc1.bias f4 [128]
000000 3a 7c 7b 3e 26 f2 05 bd c1 35 42 3c 15 b1 75 be
       0.24559107 -0.032701634 0.011853636 -0.23993333
000010 dc ed a1 3c df 4d 7d be 49 9e 93 3e 28 2c 0d 3d
       0.01976674 -0.24736737 0.288317 0.03446594
000020 ab 75 9d bc bc c4 49 be a0 b6 a9 bd 50 83 a5 3e
       -0.019221148 -0.19703954 -0.08286786 0.32326746
000030 79 be 4d 3e 46 eb 87 bb 02 a8 44 3a c8 45 4f be
       0.20092191 -0.00414792 0.0007501842 -0.20241463
000040 89 28 08 be 2e 0f a2 3e b1 e4 24 3e 3d 52 17 3f
       -0.13296713 0.31652206 0.16102864 0.5910986
000050 1d 9e af be e5 19 a5 be 43 60 00 3e 5d c9 bc 3d
       -0.34300318 -0.32246318 0.12536721 0.092180945
000060 e6 61 21 3e 0a 45 d9 bd 00 a6 72 3e 4d b8 11 3c
       0.15760002 -0.10608871 0.23696136 0.008894038
000070 93 b2 81 bd 58 86 ab be ba a3 a9 3e db 25 09 bd
       -0.063328885 -0.33500934 0.33132726 -0.033483367
000080 6e e6 cb 3e ac f7 57 be 71 4b 1b 3e 8d 61 99 be
       0.3982424 -0.21090573 0.15165497 -0.29957238
000090 e9 2a ed bd fd 24 de 3d f2 03 44 3e ac 09 52 3e
       -0.1158045 0.10846899 0.1914213 0.20511502
0000a0 4b 85 60 bd 42 2f ca 3e 6c e9 c1 be f6 77 14 3f
       -0.054814618 0.3948918 -0.378734 0.57995546
0000b0 5e f3 a0 3e 9b 52 4b 3e a2 8a db 3e 43 f8 2a 3e
       0.31435674 0.1985573 0.42879206 0.16696267
0000c0 31 47 3d be 57 97 ca 3e 84 69 b1 be eb 07 99 be
       -0.18484189 0.39568588 -0.34650815 -0.29888853
0000d0 03 b7 16 be b0 80 7e 3d 15 49 1f be ca 5f 83 bb
       -0.14718251 0.062134445 -0.15555222 -0.0040092217
0000e0 d1 e4 95 be a8 c3 53 3e f5 48 95 be 90 8f 86 be
       -0.29276136 0.20680106 -0.29157224 -0.26281404
0000f0 fc cb 30 3e d3 6c 01 3f 32 a1 90 3e 35 2c a3 3e
       0.17265314 0.5055668 0.28247982 0.31869665
000100 0d 39 6e be a3 0b 8f 3d 0b 0f 85 3e 7a 96 98 3e
       -0.2326395 0.069846414 0.2598804 0.29802305
000110 49 f5 fb be 16 8b 8a bc 9c 9c c8 3e a1 4e a4 bd
       -0.49210575 -0.016912024 0.39181983 -0.0802281
000120 76 b3 a8 be a6 c4 48 3e bb 67 42 be d9 26 83 bb
       -0.32949418 0.19606265 -0.18984883 -0.0040024337
000130 5d 83 2c bf cd af 16 3e bc b5 a8 bc 88 d8 03 3f
       -0.67387944 0.147155 -0.02059447 0.51502275
000140 d2 1c b1 3e b0 8f ce 3d 75 3b 56 3f 9a 57 88 3e
       0.345923 0.10086 0.83684474 0.26629335
000150 1b 56 ff 3d 50 02 4e 3e a6 b1 a6 be 73 68 d6 bb
       0.12467595 0.2011807 -0.3255741 -0.006543213
000160 23 84 6a be af 0a 6f 3f 92 53 45 bd 5a 65 41 3e
       -0.22901969 0.93375677 -0.048175402 0.18886319
000170 f6 1f fa 3d 1c 8d dc 3e d2 09 ad 3d 7d 58 bd bd
       0.12213127 0.43076408 0.08449139 -0.092453934
000180 4c 08 e3 3d a4 0d 71 be 5e e7 35 3e c5 88 68 be
       0.11085567 -0.2354036 0.17764041 -0.22708423
000190 f1 3f 75 3e ce bb 7e be e5 7c 08 3e 7b eb 98 3e
       0.23950173 -0.2487633 0.13328893 0.29867157
0001a0 b6 3e 8d 3d fe 50 c8 3e 00 c9 96 be c9 03 d7 3e
       0.06896727 0.39124292 -0.29450226 0.41995075
0001b0 01 c1 80 be ef 54 df be 69 39 4c 3e ec ff 8e be
       -0.2514725 -0.43619487 0.19943775 -0.27929628
0001c0 98 df b5 be 70 c0 d0 3e 8b 59 e2 be d2 ae 8c bd
       -0.3552215 0.40771818 -0.4420894 -0.06869282
0001d0 64 cb fb bc de 63 08 be df 5a b0 3c 39 0a 75 bd
       -0.030736633 -0.13319346 0.021527706 -0.059824202
0001e0 cf 96 92 be 14 06 ec 3d be 64 8e 3e c7 d4 63 be
       -0.28630683 0.11524597 0.27811235 -0.22249137
0001f0 b1 ef 2b 3f 08 53 ab 3e 91 31 b4 be 9f 56 f9 3e
       0.67162615 0.33461785 -0.35194066 0.486989

fc2.weight f4 [128, 128]
000000 95 b4 90 be 95 c3 e8 3e 13 c4 27 be 9d 55 4e 3f
       -0.28262773 0.45461717 -0.1638339 0.80599385
000010 ba da 96 3e b4 92 fd 3e bf 4a 84 be 02 c6 26 3e
       0.2946375 0.49525988 -0.25838277 0.16286471
000020 8f fb 8c 3e 24 24 17 3e 89 f4 14 bf 32 48 6b 3e
       0.27535674 0.1475988 -0.5818563 0.22976759
000030 7d da 7d be 2f c4 a4 3e 79 c0 ab bd 04 16 ce be
       -0.24790378 0.32180926 -0.083863206 -0.40251172
000040 ae b5 c1 be 72 a5 87 3e b0 f0 d0 3d de 46 82 be
       -0.37833923 0.26493412 0.102021575 -0.25444692
000050 09 ff e0 3d 76 24 85 3f 2c f4 93 3e 3c d8 83 3c
       0.10986144 1.0401752 0.28897226 0.01609432
000060 d0 0d c5 3d 7e c4 12 3e 36 f5 3c 3e 0e 98 b2 bf
       0.09621775 0.14332768 0.18452916 -1.3952653
000070 d5 6b ba 3e d8 64 e2 be a9 ce 16 be 48 32 6d be
       0.36410394 -0.44217563 -0.14727272 -0.23163712
000080 71 bb 79 be a0 93 a6 3d 17 98 03 3e c0 a5 7d 3d
       -0.2438791 0.08133626 0.12850986 0.06192565
000090 85 8e aa 3e ce 0a a9 3e cd 54 19 3e e5 20 90 3e
       0.3331186 0.33016056 0.14973755 0.28150097
0000a0 5a 74 bf 3e 90 85 28 bd ca c5 b6 be 0a db 61 be
       0.37393457 -0.041143 -0.35697776 -0.22056213
0000b0 c6 5c 83 be 1a ee 05 bf 5a e6 95 be b6 b0 8a 3d
       -0.25656718 -0.5231644 -0.29277307 0.06771986
0000c0 9e 13 45 bf 07 f4 f4 bd ba 53 6e 3e 8b 31 6a 3f
       -0.7698306 -0.11960607 0.23274127 0.91481847
0000d0 cb 43 c9 bb 93 20 b7 bd 9f 22 8b 3e 94 a5 92 bf
       -0.0061421148 -0.0894176 0.2717485 -1.145678
0000e0 10 8c ed 3e 23 93 62 3e 63 08 1e 3f 30 86 b0 3e
       0.46395922 0.2212644 0.6173155 0.34477377
0000f0 06 9d de 3d 30 2d e4 bb 16 fa ee 3c 03 ea 93 3e
       0.108697936 -0.0069633946 0.029171985 0.28889474
000100 2d ad 34 be 5a 68 cf be 9d 87 11 3e 8d 9f 75 3e
       -0.17644186 -0.405093 0.14211889 0.23986645
000110 a0 7f 8a 3f a9 ad c0 3e 8a 06 13 3c 38 d9 43 3f
       1.0820198 0.37632492 0.008973727 0.76503325
000120 5f d2 89 3d 49 87 45 bc 4b 9a a6 3e 0e 75 a1 3e
       0.06729578 -0.01205618 0.3253959 0.31534618
000130 ea b3 d8 bf e7 c2 01 bd 85 15 f3 3e 0c a2 48 bc
       -1.6929905 -0.031680014 0.47477356 -0.012245666
000140 21 65 08 3e f0 23 a6 bd bb 28 fd 3d bf 38 57 3e
       0.13319828 -0.08112323 0.12361284 0.2101774
000150 7e e7 19 3f 9d fb 79 bc 68 d4 ab 3e 9c c4 87 bf
       0.60118854 -0.015257743 0.3356049 -1.0606875
000160 de bb e7 be fd bd 9a be d4 d1 05 3f 80 bd 34 3d
       -0.4526052 -0.30223075 0.522733 0.044126034
000170 7d aa 26 3f 82 19 ec bd d9 ec 6c be 2c 10 4e be
       0.65103894 -0.11528303 -0.23137225 -0.20123357
000180 83 98 08 3f 08 f4 55 3f f4 e8 33 3d 96 f1 f7 3e
       0.53357714 0.8357549 0.043923333 0.48426503
000190 ff 7d 96 3c 3c f5 01 3d 08 6a 26 be 2b 93 48 3e
       0.018370626 0.031728014 -0.16251385 0.1958739
0001a0 09 a1 fe 3e 9b d3 52 3e c4 1c ba 3d c8 9c 81 be
       0.49732235 0.20588534 0.09087518 -0.25314927
0001b0 7c 43 19 3e 2f 78 36 3f 85 de dc 3d 27 0d 36 3f
       0.1496715 0.71277136 0.1078463 0.7111382
0001c0 e7 7b 59 3f 46 89 9b 3d 9f cf 1d bf b7 a7 82 3e
       0.84954685 0.07594542 -0.6164493 0.2551858
0001d0 f4 f9 97 be 7d 42 d2 be 45 e8 ad be e7 58 f8 3d
       -0.29682887 -0.41066352 -0.3396627 0.12126332
0001e0 ba ad 09 3f 59 78 6e bd ab 93 25 bf aa 1d 82 3f
       0.5378071 -0.05822024 -0.6467845 1.0165303
0001f0 f1 10 4d 3d c5 06 f4 3d 14 e8 98 3d ff e5 3e be
       0.050064985 0.11915354 0.074661404 -0.18642424
000200 f4 0f 0a 3e e5 21 63 3f 97 ad 5a 3e 07 69 b0 3e
       0.13482648 0.88723594 0.21355282 0.3445513
000210 23 4d 92 be f1 ac b7 3e 92 49 f2 3d c0 e3 07 3e
       -0.28574476 0.3587413 0.11830439 0.13270473
000220 02 c3 3d 3e 92 48 92 3e 63 6e f9 be f1 bc 66 3e
       0.18531421 0.28570992 -0.4871703 0.22533013
000230 92 a8 0c 3e 7f 0f 58 3d ff d6 90 3c 91 3b b5 be
       0.1373618 0.052749153 0.017680643 -0.35397008
000240 2c e6 71 3e 01 90 e5 be 14 40 8f be 85 88 ae bd
       0.2362296 -0.4483643 -0.27978575 -0.08522133
000250 8c d6 a3 3d 52 63 6c 3f 8f 5f 67 bd 1e f7 e1 bd
       0.07999906 0.9233905 -0.056487616 -0.11033462
000260 9a 69 4e 3e 72 b2 c9 bb 8c 24 7e 3e 90 f8 b5 bf
       0.20157471 -0.0061553055 0.24818629 -1.421648
000270 73 66 da 3d 73 7a f6 be 04 ac 3b 3c 2b 37 f1 bc
       0.10664072 -0.48140296 0.011454586 -0.029445251
000280 dc 61 69 be 86 97 12 be ef 59 de 3e 7a 3b 0c 3e
       -0.22791237 -0.14315614 0.4342799 0.13694564
000290 e2 3c ff 3e 9a 86 7f 3e 11 88 89 3d fc 1b c4 bd
       0.49851137 0.2495369 0.06715406 -0.0957565
0002a0 63 91 07 be a3 f4 9a 3c c0 b0 cf be e1 70 10 bb
       -0.13239054 0.01891548 -0.40564537 -0.0022039937
0002b0 a9 d5 5b be d3 8d 19 bf 57 40 4d be 23 78 05 3e
       -0.21468224 -0.5998203 -0.20044075 0.1303411
0002c0 aa 2d f7 be 5e ef 39 3e 1b d8 9f bd d2 dc d0 3e
       -0.48277026 0.18157718 -0.07804891 0.40793473
0002d0 e3 a6 62 3e af 6e 6a 3e 17 2d 04 bf a7 5d 14 bf
       0.22133975 0.22893785 -0.516313 -0.579554
0002e0 6f 48 37 3f 76 76 87 3e c4 1e d6 3d 77 c6 1a 3f
       0.715949 0.26457566 0.10455087 0.60459083
0002f0 f3 73 fa 3d e9 06 c7 3b 19 fc e9 3d 14 57 5c 3e
       0.12229147 0.006073822 0.11425037 0.21517593
000300 bf bf 5a be 10 83 0f bf d8 5d 13 3e b2 d8 85 3e
       -0.21362208 -0.5605936 0.14391267 0.26141888
000310 d4 0f f7 3e af 97 14 bf a2 1d 45 bc 22 63 41 3f
       0.48254263 -0.5804395 -0.012030991 0.7554189
000320 ed bf 6e be 27 af 92 be 1b e4 e8 3e fd ff ee 3d
       -0.23315401 -0.28649256 0.4548653 0.1166992
000330 2d 81 18 3d e6 0f 5b be a7 a8 47 3f c4 01 f9 bc
       0.037232567 -0.21392784 0.7799172 -0.03039635
000340 ec d6 d8 3e ab 24 fc bd 40 91 7e 3d a9 0e eb 3c
       0.42351472 -0.12311681 0.06215024 0.028693514
000350 b3 b0 58 3e e9 8f be bd e0 a9 0e be 93 03 cc bf
       0.21161155 -0.093047924 -0.1393199 -1.5938591
000360 93 4b bf 3e a7 40 8b bd a5 d7 da 3d aa eb 05 3e
       0.37362346 -0.06799441 0.10685662 0.1307818
000370 d9 af 84 bf 62 a3 f8 bb 0e 29 39 bd a5 dd 3a 3e
       -1.0366164 -0.007587836 -0.04520517 0.18248613
000380 df 3c c1 3e 50 5d ae 3e 9a 25 9f bd c4 25 05 3f
       0.37741753 0.34055567 -0.07770844 0.5201075
000390 65 75 8e 3d 2d 55 32 3d bf 6d ba be fa 51 51 bd
       0.06955985 0.04353826 -0.36411855 -0.05110357
0003a0 81 c1 3d 3e 35 9f b9 bd 44 1c b2 bf b5 6b 05 3e
       0.18530847 -0.090635695 -1.3914876 0.13029368
0003b0 bf f2 f6 3d e1 01 82 3e 0a 09 05 bc 6a ce 51 bd
       0.12058019 0.25392058 -0.008119831 -0.051222242
0003c0 0f 3e f3 3e 28 b3 a9 3d 4a 5d 71 bd ed 2f b7 bd
       0.47508284 0.082861245 -0.058926858 -0.08944688
0003d0 3e b8 ca be 81 31 99 be f0 30 52 be 01 7f c2 3d
       -0.3959369 -0.2992058 -0.2052648 0.0949688
0003e0 d7 7c 96 3e 82 9c 9c be 65 8e 0c bf dd 3b 00 3f
       0.2939212 -0.30588156 -0.54904777 0.50091344
0003f0 1c c1 52 be 51 f2 01 be 89 8d fb 3d 9d d5 aa be
       -0.20581478 -0.12690093 0.12282855 -0.333661

fc2.bias f4 [128]
000000 f1 fb 91 bd f3 6b 09 3e 3d d8 68 3e 69 76 36 3d
       -0.07128132 0.13420086 0.22738738 0.04454652
000010 9b 73 59 3d 3d f3 a4 3b 39 ea 22 bd c5 a4 81 bc
       0.053088766 0.005033879 -0.039774153 -0.015825639
000020 b2 97 1a 3f 3f ba 18 3f ac 89 98 be 13 70 e0 3d
       0.6038772 0.5965919 -0.29792535 0.109588765
000030 50 43 e2 3c 85 8a 22 3e 15 3a b3 bd f2 aa fa 3d
       0.027619988 0.15873154 -0.08751313 0.122396365
000040 e9 69 7e 3e d1 75 e5 3e e6 2b c2 bd 92 36 b0 3e
       0.24845089 0.4481645 -0.09481029 0.34416634
000050 b2 02 3c 3d 0b ac d3 bc de 37 b1 3d 25 54 eb 3d
       0.045901008 -0.025838872 0.08653234 0.11490659
000060 a8 62 09 3f 06 39 88 3e 38 b3 72 3e a0 43 38 be
       0.5366616 0.26606005 0.23701179 -0.17994547
000070 81 8e a7 bd 46 21 06 3e bc ca 3c bd 6b 80 fe 3c
       -0.08181477 0.1309863 -0.04609178 0.031067094
000080 d9 b6 3a be a7 21 f9 3d 70 b0 1c 3e 80 d8 d4 bd
       -0.18233813 0.12164622 0.1530168 -0.103928566
000090 bb 4c 1a be 54 d3 f5 3e cf e3 2c be 48 11 99 be
       -0.15068333 0.48012793 -0.16883777 -0.29895997
0000a0 f6 59 f5 3d 12 fa ed bd d4 46 4b be f1 d9 a6 bc
       0.11980049 -0.11619963 -0.19851238 -0.020367594
0000b0 1a a9 58 3d 4a 6a 5b 3e 81 2d 80 3c 98 cd 1c bb
       0.052895643 0.21427265 0.015646698 -0.0023926254
0000c0 62 f4 80 be 88 71 0c be b2 55 eb bc 60 7b 77 bd
       -0.2518645 -0.13715184 -0.028727386 -0.060420394
0000d0 5f b3 09 3d 25 17 00 3d 90 75 78 3d 89 ad eb 3d
       0.033618327 0.031272072 0.06065899 0.115077086
0000e0 15 5f 25 bd c0 c5 c0 bd c2 47 d9 bd f6 f8 92 3e
       -0.04037388 -0.09412718 -0.1060939 0.28705567
0000f0 6d e3 5b be a0 39 0f be 60 f5 9e be d7 cd 80 bd
       -0.21473475 -0.13986826 -0.3104658 -0.06289261
000100 7e f6 5f 3d e5 1d 8f bd 4d 6f c6 bd 9d c7 ce 3d
       0.054678433 -0.06988124 -0.09689198 0.10096667
000110 ec 99 06 be 57 47 0d 3e 2d bf 0c 3e 95 e4 4a be
       -0.13144654 0.13796745 0.13744803 -0.1981376
000120 5e a6 36 3e 03 89 96 3d 17 6c e1 3e a0 42 d3 3a
       0.17836902 0.07350352 0.44027779 0.0016117878
000130 81 7c 8f 3e 16 dc a4 be 2f 83 1e be 7b d8 5b 3d
       0.28024676 -0.32199162 -0.1547973 0.05367325
000140 6f ba a4 3c 28 66 03 3e 4a 81 ff 3d 44 4d 9a 3e
       0.02010843 0.12831938 0.12475832 0.30137074
000150 12 5c 2a 3f 04 b1 e8 3d ea bb a5 3e 14 d8 e6 3d
       0.6654674 0.11361888 0.3236993 0.112716824
000160 48 1f 89 be b0 3d 80 bc 93 97 bb 3d 62 03 2d 3e
       -0.26781678 -0.015654415 0.0915977 0.16895822
000170 f5 c2 9a 3e 05 a0 d2 3d 93 9a 9a 3e a5 e3 af bd
       0.30226865 0.102844276 0.30196056 -0.085883416
000180 d8 c9 ca bd 7e 12 05 bd 68 f3 08 3e f5 0c cb 3c
       -0.0990178 -0.03248834 0.13374102 0.024786452
000190 b4 c0 99 3e b2 ba f7 3d 01 10 cb bc 64 c2 7c 3d
       0.30029833 0.12096156 -0.024787905 0.061708823
0001a0 03 1f b0 3d 09 d4 10 3d 4f ed aa bd 22 4e a9 3c
       0.08599665 0.035358462 -0.08346044 0.02066714
0001b0 b6 4d 32 bc e2 c5 58 be 62 5c 4c 3e 13 45 ac 3e
       -0.010882786 -0.21169236 0.19957116 0.3364645
0001c0 d2 d7 85 3e 8e 7f d4 bd 1e 0d fc bb c5 c8 7a be
       0.2614122 -0.103758916 -0.0076919934 -0.2449065
0001d0 c7 6e a2 bd 7f 20 12 3e 4a 13 30 3e f4 f2 0e be
       -0.07931285 0.14270209 0.17194858 -0.13959867
0001e0 d1 0a 4b 3d a7 30 6c 3d 0d 84 a0 3d 02 74 e5 3c
       0.049570862 0.057663586 0.07837687 0.028009418
0001f0 42 f4 de 3c 9d 71 fb 3d 3f 52 a7 bd 75 01 f4 3c
       0.02721608 0.122775294 -0.08169984 0.029785851

value_stream.weight f4 [1, 128]
000000 bb 02 7e bf 72 50 f4 be 8f cb e5 3f d4 d9 62 bf
       -0.99222916 -0.47717625 1.7952746 -0.8861363
000010 4b 86 c2 3f 81 4e 36 3d e5 19 a3 3c 46 66 22 bf
       1.5197233 0.04450846 0.019909808 -0.63437307
000020 d6 a1 63 3f 22 47 b9 3f d0 1f 9f bf e2 e7 0c bf
       0.8891882 1.4474833 -1.2431583 -0.55041325
000030 28 e9 3b bf 08 76 dc be a2 ab c1 bf 1d ea 24 bf
       -0.73402643 -0.430588 -1.5130503 -0.6441973
000040 5f 88 d2 3f e7 15 83 3f 15 76 de bb 0c 7d c4 bf
       1.6447867 1.0241059 -0.006788979 -1.5350661
000050 db d9 3f 3d ec e7 44 bf d3 e7 62 bf 9c 90 1f bf
       0.046838623 -0.76916385 -0.88634986 -0.6233003
000060 80 80 a0 3f f4 55 ec be 95 8e 23 bf 9a 64 bc be
       1.2539215 -0.46159327 -0.6388944 -0.36795503
000070 1f fc 2f 3f 71 1b 97 be f3 cf 91 bf 8a 99 79 bf
       0.6874408 -0.29513124 -1.1391586 -0.97499907
000080 b6 92 67 bf 3d f1 09 bf ac 9c 32 bf 01 d0 dc 3f
       -0.9045824 -0.53883725 -0.6977031 1.7250978
000090 bd d9 5f bf be 5b 97 bf e7 87 95 bf 27 5f a7 bf
       -0.8744162 -1.1824872 -1.1682099 -1.3075913
0000a0 15 66 e3 be 4e 2a 16 3d 4c bc d3 bf dd df a5 bf
       -0.4441382 0.03666144 -1.6541839 -1.2958943
0000b0 ee f0 cc be 01 e1 e5 3f 7b 5c a2 3f d1 98 44 3f
       -0.40027565 1.7959291 1.2684473 0.7679568
0000c0 0d ea a1 be 3e 7c 72 3e af 7b 13 3c 9a 4f 29 3c
       -0.3162388 0.23680207 0.009001656 0.01033392
0000d0 c4 b0 51 bf 20 b9 27 3d 1c 0e cb be 0f 96 f7 be
       -0.8191035 0.040948033 -0.39659202 -0.48356673
0000e0 7b cc 17 bf db 4c 8d bd 86 5a 99 bf e3 9e b7 3f
       -0.5929639 -0.06899425 -1.198075 1.4345363
0000f0 a3 a9 d6 bf ec 7d 1d bf 02 d0 38 bf 3b e1 a4 3f
       -1.6770519 -0.61520267 -0.72192395 1.2881235
000100 0d 3a e5 be 41 b4 8a bf 48 22 85 3d 08 86 35 bf
       -0.44770852 -1.0836259 0.06500679 -0.7090764
000110 63 27 dd be 1c 01 75 be 26 80 88 bf d1 e5 7e bf
       -0.43194112 -0.23926204 -1.0664108 -0.9956942
000120 fb 56 2b bf a5 bc 14 bf 3a 2c 87 3f 68 57 57 bf
       -0.66929597 -0.5810035 1.0560372 -0.84117746
000130 98 17 45 3e c5 8f b3 bf 06 0b e7 bf 59 48 29 bf
       0.19247282 -1.402825 -1.8050239 -0.6612602
000140 e7 55 bc 3f 5c 5e 35 bf af 71 0e bf 0b 93 21 3e
       1.4713715 -0.70847106 -0.5564222 0.15778749
000150 c5 28 a5 3f 89 e1 23 bf 18 f6 c8 3f e8 13 cc be
       1.2903067 -0.64016014 1.5700102 -0.39858937
000160 36 f6 c7 bf cf 8d 74 bf f3 a8 53 bf 4e 15 11 bf
       -1.5622013 -0.9552888 -0.8267967 -0.56673133
000170 1b 3e c6 bf ba 16 59 bf cf f7 fb 3f 3f 60 57 bd
       -1.5487703 -0.84800303 1.9685 -0.05258202
000180 a0 ab f0 3c 95 ed 4c 3d 4c d1 ef be 7d 00 f4 be
       0.029378712 0.050031263 -0.46839368 -0.47656623
000190 2e ba 67 3f 23 f1 04 bf 36 cb 0f 3d b8 19 b6 3f
       0.9051846 -0.51930445 0.035105906 1.4226599
0001a0 90 ff 37 bf a9 d5 6e bf fc 9c 42 3c 5f 18 a6 3f
       -0.7187433 -0.9329477 0.011878248 1.2976187
0001b0 48 0a 02 3b 6a 21 ae bf 1f b1 c5 3f 20 de e3 3f
       0.0019842554 -1.3603947 1.5444678 1.7802162
0001c0 77 7d d0 be 97 dd 16 bf b5 fd 83 bf 3c d0 ae bf
       -0.40720722 -0.5893187 -1.03118 -1.3657298
0001d0 79 52 87 bf 24 0e bf be 3f 14 fd 3f e9 e8 b0 3f
       -1.0572044 -0.37315476 1.9771804 1.3821079
0001e0 17 37 07 bf 6d 35 11 bf 1d e7 af be ad 08 ff be
       -0.52818435 -0.56722146 -0.34356013 -0.49811307
0001f0 79 5d a8 bf c9 47 30 bf 67 07 3a 3d 23 69 12 3d
       -1.3153526 -0.68859535 0.045417216 0.035744797

advantage_stream.weight f4 [4, 128]
000000 a2 b9 d2 be f6 3a 5f bc cb 82 78 be 61 5b 89 3e
       -0.41157252 -0.013624897 -0.24268644 0.2682753
000010 df 72 25 3e 54 a2 c3 bc ce 05 43 bd cd 83 e4 bd
       0.16157101 -0.023881115 -0.047612958 -0.111579515
000020 ec 1a 35 3e 43 4d c7 3d 1b 6b c7 3e 12 1f 12 3f
       0.17686051 0.097315334 0.38948902 0.5707866
000030 01 3c 06 be 79 f9 83 3e 91 69 cf 3e bd 0f 24 bf
       -0.13108827 0.2577627 0.40510228 -0.64086515
000040 02 03 91 be cd be c5 3c 10 df 29 bd db 09 44 3e
       -0.28322607 0.024138832 -0.041472495 0.19144385
000050 df e7 cb 3d 62 c8 da 3e 78 0e 62 bd 65 b3 de 3d
       0.09956335 0.42731005 -0.05518958 0.108740605
000060 db ff 04 3c 33 04 82 bf 06 6e c8 3e 6b 36 dd bd
       0.008117641 -1.0157531 0.3914644 -0.10801395
000070 91 46 78 be b2 5c 8d 3e 70 53 87 3e 0b 92 39 bd
       -0.24245669 0.27609783 0.26430845 -0.045305293
000080 23 a2 98 3d fb 11 e7 3b 6d d3 a1 be ea 0f 2d bf
       0.074528 0.007051704 -0.31606618 -0.6760241
000090 75 ba 38 3e 1d 23 c2 be d1 bf 5e 3e 21 b5 8d bd
       0.18039878 -0.37917414 0.2175286 -0.06919313
0000a0 dc c4 a8 3d 22 15 2c bd 1c 3a 2c be f6 fc 68 3e
       0.08240673 -0.04201234 -0.16819042 0.22752747
0000b0 19 85 23 be cf 05 ba 3d 68 ae cf 3d 1e 36 27 be
       -0.15968741 0.09083139 0.10140687 -0.16329238
0000c0 a0 b3 c5 3e b1 3b 7a 3e 5f 56 57 3d 62 83 55 3c
       0.38613605 0.24436833 0.052572604 0.013031812
0000d0 06 d8 c1 be d0 49 76 3d 7b fa 13 3c c7 10 da bd
       -0.37860125 0.060128987 0.009031887 -0.10647731
0000e0 64 0a d0 be b8 4d 62 bd 04 73 25 3e ac c5 44 3e
       -0.40632927 -0.0552499 0.16157156 0.19216031
0000f0 f8 a9 3c 3f 6c 4a 4d be 25 05 c4 3e 9f 55 03 3e
       0.7369685 -0.20047921 0.38285175 0.1282563
000100 aa bf dc 3e 4e 15 f0 3a 1e 3a 71 3d d0 c1 0d 3f
       0.43114978 0.0018316896 0.058893315 0.5537386
000110 25 76 04 3f 96 e3 2d bf 78 cd 0d bf 80 bb 7e 3f
       0.51742774 -0.67925394 -0.55391645 0.9950485
000120 2d 86 0f be 72 3d 0a 3f fb f0 d6 bd ca 94 ab bd
       -0.14016028 0.5400001 -0.10495182 -0.08377989
000130 62 39 46 3d 43 f4 de 3e db f4 1a 3f 98 ef 96 bf
       0.04839457 0.43545732 0.6052987 -1.1791868
000140 bc f3 41 bd 3a 10 cb 3e ea 73 6c 3e 53 8b 21 bf
       -0.047351584 0.39660817 0.23091093 -0.63103217
000150 6f cd 13 bd fb a2 3f bf 76 09 74 3d 26 58 ed 3d
       -0.03608459 -0.74858063 0.059579335 0.115890786
000160 d8 a0 34 3e a4 f8 e4 3d 11 34 3c 3e 70 64 64 3d
       0.17639482 0.11180237 0.18379237 0.055759847
000170 7f f2 bf be d6 11 23 3f 5c e6 6a 3e 27 27 b4 3c
       -0.37489697 0.6369909 0.22939438 0.021991326
000180 ba 2c 2d bd dd d3 85 bd 11 a9 26 bd 10 01 ac 3e
       -0.042278983 -0.0653455 -0.040688578 0.3359456
000190 c6 79 89 bc ae 44 3a be 4b 14 26 3c 94 83 23 3e
       -0.016781699 -0.18190262 0.010136674 0.15968162
0001a0 c6 9d 98 bf ee 9f e1 3d 3a cc 69 bd 48 da ce be
       -1.1923149 0.11016832 -0.05707953 -0.4040091
0001b0 70 d6 80 bd 68 51 39 3e 83 07 88 bc 02 b9 fd 3d
       -0.06290901 0.1809746 -0.016605144 0.12388803
0001c0 42 af 83 bc 6b dc 1d 3e ae 19 b8 3c a5 6e 6d be
       -0.01607478 0.15416114 0.022473183 -0.23186739
0001d0 fd 4a 20 3e 3e 32 e8 3e a1 aa 28 3e da 82 23 be
       0.15653606 0.45350832 0.1647134 -0.15967885
0001e0 eb ff c0 3e 3b 1f 6d bd 25 31 3a 3f ea 34 d8 3e
       0.3769525 -0.05789111 0.7273124 0.4222787
0001f0 4b 35 d7 3d 38 9e 20 3e c2 32 b6 3d ac 16 42 3d
       0.10508212 0.15685356 0.088964 0.047384903
000200 d5 d4 0e be 4f 74 89 3d 81 85 f1 3a bc d8 12 bd
       -0.13948376 0.06711637 0.0018426628 -0.035851225
000210 1e 15 14 be 51 5f 6b 3d 02 10 d0 bc 9c fb e7 be
       -0.1446118 0.057463948 -0.025398258 -0.4530915
000220 8a 31 54 3d 42 d2 f4 3d ab 64 01 3f 96 01 d8 3d
       0.051805057 0.11954166 0.5054423 0.105471775
000230 19 a6 29 bd a7 ca 25 be 52 9a 08 3f f8 ed 9b 3e
       -0.04141817 -0.16190587 0.53360474 0.30454993
000240 bc fc f1 3d 29 70 0b be 70 a7 0b 3d 36 8a 33 3e
       0.118157834 -0.13617004 0.034095228 0.17533192
000250 9b 25 9b bc 97 8f 92 be 5c e6 7d 3d 95 4d b1 be
       -0.01893883 -0.28625175 0.061987266 -0.34629503
000260 9a 68 f8 bd 08 79 31 be 13 16 70 be 9d d2 e3 3d
       -0.12129326 -0.17331326 -0.2344592 0.11124156
000270 bf 63 e9 be ef e3 6b 3d 80 ab c5 bd 16 e5 4b be
       -0.45583913 0.05759042 -0.09651852 -0.19911608
000280 44 51 b0 3d 49 98 a0 be ac d3 20 3f b8 64 c7 3c
       0.0860925 -0.31366184 0.62822986 0.024340019
000290 4e 8a 65 be 5c 66 17 3e 00 97 af 3e 2f e4 0c 3e
       -0.2241604 0.14785141 0.3429489 0.1375892
0002a0 30 43 63 3d 66 95 5d bd b8 e5 8b bd 3f f1 8b bd
       0.055483997 -0.054097556 -0.06830925 -0.068331234
0002b0 fc fb 93 3d 3c ac 1e be 9b 26 77 3d f2 88 9b 3e
       0.072257966 -0.1549539 0.06033955 0.30377918
0002c0 9b e8 af 3d 7b 64 83 3f 24 9d 29 3d f1 e0 df bc
       0.08589288 1.0265039 0.041409627 -0.02732894
0002d0 d0 ae 40 3f 45 a8 dc bc 81 06 5b bc 0e 7b f2 bb
       0.7526674 -0.026935706 -0.01336825 -0.007399923
0002e0 cc 0c de 3c 64 13 1b bc 5f 3d e6 3e 3f fe 44 3e
       0.027105711 -0.009465072 0.44968697 0.19237612
0002f0 44 42 2a 3e 73 83 88 bd 53 ef 5a 3c df 3b de bd
       0.16626841 -0.06665697 0.013362723 -0.10851263
000300 80 b0 84 be 4f b8 9f be 25 e2 d7 3d 0c 50 86 be
       -0.2591591 -0.31195304 0.105411805 -0.26232946
000310 9b 68 dd be dd 3e 32 3f 60 e6 b1 3e 42 5f 09 3e
       -0.4324387 0.6962717 0.34746075 0.13415244
000320 18 a1 d1 3d 6c ad b8 be 52 2c 42 3e b5 06 29 3c
       0.10235804 -0.3606981 0.1896222 0.0103165405
000330 b6 a4 4a bf 3a ae 8d 3e 7c 81 1d bd 8d d9 d7 3e
       -0.7915758 0.27671987 -0.038453564 0.42158166
000340 47 f2 51 3e 2e aa 44 be 51 13 08 3e 5a 6d fd 3e
       0.20502578 -0.19205543 0.13288619 0.4949749
000350 a6 1c 5c be 58 68 f8 3e 5b 8c be bd b0 86 ae bd
       -0.21495304 0.48517108 -0.093041144 -0.08521783
000360 60 df 1d bf 5e 32 ae be 43 cf b8 be cb da 9b be
       -0.6166897 -0.34022802 -0.36095628 -0.30440363
000370 19 64 50 3f 47 36 85 be 77 cc 92 bc f6 86 58 3c
       0.81402737 -0.26017973 -0.017919762 0.013215771
000380 20 80 9d bc cb 7c 2e 3c bc f4 68 3d db a9 a0 be
       -0.019226134 0.01064987 0.056874022 -0.3137959
000390 9b 2c 3f 3e a6 09 36 3e 85 ba 46 bd 3e a1 4b ba
       0.1866936 0.17777118 -0.048517723 -0.00077678624
0003a0 3e 88 24 3f ec 1a 69 bc 5b 01 39 bd 1f 10 76 3e
       0.6427039 -0.01422761 -0.04516731 0.24029587
0003b0 fe 57 c5 bd 01 d0 5a be 89 ff 0a bd 17 47 28 be
       -0.09635924 -0.2136841 -0.033935104 -0.16433369
0003c0 e5 7c c1 3d d3 ce b4 be 15 3c 32 3d 11 e4 c8 3e
       0.0944765 -0.35314044 0.04351433 0.392365
0003d0 17 44 8d 3e 84 89 db bc e1 a5 84 3c 43 ef d6 bd
       0.2759101 -0.026798971 0.016192378 -0.10494854
0003e0 64 c4 02 bf d0 42 ab 3e 1b 9b 17 3f f7 c0 b5 be
       -0.5108092 0.3344941 0.5922105 -0.35498783
0003f0 a4 df b5 3d 84 99 11 be f2 3c ba 3d 1f 76 b8 3c
       0.08880547 -0.14218718 0.09093656 0.022517262

advantage_stream.bias f4 [4]
000000 de 06 6f bc 7f 13 20 3c b0 38 33 3e 97 f4 82 be
       -0.01458904 0.009770273 0.17502093 -0.25577232

fc1.weight f4 [128, 8]
000000 3c 71 a6 3f 80 0d b4 3e 04 22 df 3e f5 48 6c 3f
       1.3003306 0.3516655 0.4358064 0.92298824
000010 ce bc 25 bf 8e 11 aa 3e 9e f0 8e 3e 4e 4e ba bc
       -0.6474122 0.33216518 0.2791795 -0.022742417
000020 55 8a d8 3f e6 e4 b4 3d 9c 11 61 3f 8f 2b 1a bd
       1.6917216 0.088327214 0.87917495 -0.037639197
000030 1c 5d 8b 3b 35 94 88 3d 38 09 7a 3d 9d 16 d7 bb
       0.004253043 0.06668893 0.061043948 -0.006563975
000040 73 ca 61 3f e6 d4 0e be d4 65 9c 3e 7d a8 91 bd
       0.8819954 -0.13948402 0.3054644 -0.07112215
000050 14 91 7c bd 6a c4 d9 bc 05 1d ae bc 20 c6 a8 3e
       -0.061661795 -0.026582915 -0.021254072 0.32963657
000060 e5 b4 8c bf 8a ae 2f bf 5f a8 18 bf 0f dd 52 bf
       -1.0992705 -0.686257 -0.59631914 -0.8236856
000070 06 f0 26 3f 93 69 1d be ff 86 a5 3e 74 7b 37 be
       0.65209997 -0.15372305 0.32329556 -0.17918187
000080 56 20 6f be a9 c6 42 3e df 8c 2d be 82 aa 15 3e
       -0.23352179 0.19021095 -0.1694827 0.14615825
000090 66 80 0c 3f a7 c2 d9 3e 50 2e b1 3e 6b 61 5c be
       0.5488342 0.4253132 0.34605646 -0.21521537
0000a0 04 c3 8c 3e a4 d2 c5 bf 16 ea 22 3f ab 00 fa 3f
       0.27492535 -1.5454907 0.63638437 1.9531454
0000b0 4e 60 5d 3f 9f 85 b9 3e 07 19 ab 3d 19 9f a3 3e
       0.86475074 0.36234757 0.08354383 0.3195732
0000c0 15 df 58 3e d2 75 01 c0 62 fa ea be c6 85 9a bf
       0.21178849 -2.0228162 -0.45894152 -1.2072074
0000d0 df f5 66 be 1a 5f 0d 3e 67 c4 67 3d 3e 39 0e 3e
       -0.2255473 0.1380581 0.05658379 0.13889024
0000e0 a1 63 e3 3e 82 3d 8d 3e 01 93 66 3e d9 05 56 bf
       0.44411948 0.2758599 0.22517015 -0.8360267
0000f0 aa f2 d5 be 8b 88 d7 be bc b4 15 3e 83 a7 5d be
       -0.417867 -0.42096362 0.14619726 -0.21645932
000100 70 11 8d bf e2 f8 91 be 84 cf b0 3e 4b 95 70 bd
       -1.1020947 -0.28510195 0.34533322 -0.058736127
000110 a0 1e 43 bf 28 2a 08 bf 12 bb 8d 3e 88 c6 2d 3e
       -0.76218605 -0.53189325 0.27681786 0.16970265
000120 f6 8c 2a 3f 44 ea b9 bf 42 19 5a be 50 63 27 bf
       0.6662134 -1.4524617 -0.21298698 -0.65385914
000130 3b b8 22 3e f9 1b 80 be 22 8d a9 3e 49 ac b5 3e
       0.15890591 -0.2502134 0.33115488 0.35483006
000140 d3 76 54 bf 56 b9 6e 3e 97 19 14 3f 22 8c 0f be
       -0.8299381 0.23312888 0.57851547 -0.140183
000150 8e aa 86 3e bb 56 91 3e e6 25 58 3e 75 5b 94 be
       0.26301998 0.28386483 0.21108207 -0.28976026
000160 31 f2 5a be 6b 1a 21 3f 47 d9 60 3c 42 c3 aa bf
       -0.21381451 0.62930936 0.013723678 -1.3340838
000170 64 f2 09 3f 19 37 b4 3e 6b 87 c7 be e8 a8 39 be
       0.53885484 0.35198286 -0.38970503 -0.18130839
000180 73 80 e1 3e 7b ad 3d be 5e 7a e7 be 9f e5 a7 bf
       0.4404331 -0.18523209 -0.45210546 -1.311695
000190 0e 7f 27 3c 7a 95 66 3c 92 ce de 3c d2 17 2f bb
       0.010223163 0.014073724 0.02719811 -0.002671708
0001a0 72 30 98 bf 8e 2a 56 bf f8 5d 18 bf 30 81 ba be
       -1.1889784 -0.83658683 -0.59518385 -0.36426687
0001b0 0f 91 2b bf 5b a1 10 bd be af a3 3e 70 7b e7 bc
       -0.67018217 -0.03531013 0.31970018 -0.028257102
0001c0 ee 07 c5 be 3d 23 31 be 1d c8 62 be 6b 65 44 bf
       -0.38482612 -0.17298599 -0.2214665 -0.7671725
0001d0 a1 90 25 3f 67 83 81 be 69 e2 3a bf d9 05 39 bf
       0.6467381 -0.25295565 -0.73001724 -0.7227455
0001e0 cb b9 f7 3c 57 9e ea 3d 0e 17 f7 be 4b 2f 27 bf
       0.03023996 0.11455982 -0.48259777 -0.6530654
0001f0 a2 26 e5 3d 0e ee 48 bd 5a b9 6f bc f2 1c 9f be
       0.11189009 -0.04905515 -0.014631594 -0.3107677
000200 23 7e 4d 3b 17 db fe bd b1 ac 69 3f 13 66 ec be
       0.00313557 -0.12444132 0.9127913 -0.46171626
000210 ea ee b1 bf 2f 89 e6 bd 57 31 fe bc 35 ee 23 3e
       -1.3901036 -0.112566344 -0.031029386 0.16008838
000220 f6 62 ae bf 67 6b a8 bf 35 58 fd be 21 21 55 bf
       -1.362395 -1.3157777 -0.4948136 -0.83253676
000230 6f 65 85 3e 47 af 61 3e 62 9e 9c 3e b0 a8 da be
       0.2605395 0.22039519 0.30589586 -0.42706823
000240 23 8a 98 be 0f c7 8a 3b c2 0c bf be 4c c2 0a 3f
       -0.2979289 0.0042351554 -0.3731442 0.54202724
000250 75 35 7e 3f 01 35 6d be 7b 1d 09 3f aa 89 44 bf
       0.9930032 -0.2316475 0.5356061 -0.7677256
000260 28 a7 bd bd cd bd 66 bf dc 1d ae 3b 14 be 7f bf
       -0.09260398 -0.90133363 0.005313618 -0.9989941
000270 b5 2d 67 3d 02 3c c3 3d d6 45 b4 bb 7c 53 80 bf
       0.056440074 0.0953293 -0.005501489 -1.0025477
000280 68 d9 c8 3e 3f 70 0b 3f 0a 87 d3 3e 08 18 a7 be
       0.39228368 0.5446815 0.41313964 -0.32635522
000290 d9 d9 8d be 0c bf d5 3e 3d 12 ed be 27 80 8b 3d
       -0.27705267 0.4174732 -0.46302977 0.068115525
0002a0 14 3d 4e 3f a8 d9 1b bf 54 5a ca 3d 97 69 ba be
       0.8056195 -0.6087899 0.0988051 -0.36408684
0002b0 f2 f5 3a 3f de 75 f2 3c 16 e1 19 bf 1c 42 60 3e
       0.7303153 0.02959722 -0.6010908 0.21900219
0002c0 df 50 44 bf 75 a6 65 3e 8d 59 ad 3e 8a f9 29 bf
       -0.766859 0.2242678 0.33857384 -0.6639639
0002d0 89 a7 21 3f 7d aa 3c 3f 57 a5 04 3c 97 ed 54 be
       0.63146263 0.73697644 0.008096061 -0.20793758
0002e0 97 43 66 be c4 fb 1b 3f 4f eb 02 3e 83 61 9d 3e
       -0.22486721 0.6093104 0.12785076 0.30738458
0002f0 88 4c 74 bc 60 46 fb be 45 5d 9f be c8 11 e6 3d
       -0.014910825 -0.4907713 -0.31125847 0.1123386
000300 3d 36 72 3f 7f a9 18 be d3 4b d7 be b1 0e 0a bf
       0.9461401 -0.14908408 -0.42050037 -0.5392867
000310 cc dc cb 3e 6c ce db bb c9 d1 c1 3d 37 86 00 be
       0.39816892 -0.006707957 0.094638415 -0.12551199
000320 b8 01 a8 bd 1a 2f 63 3e a6 e9 ea bd ac b5 bc 3d
       -0.08203453 0.22185937 -0.11470346 0.09214339
000330 61 dc c3 be 9f 20 cd be 6e e0 2c bf 5e 54 ef be
       -0.38254073 -0.4006395 -0.6752995 -0.46744055
000340 16 e2 54 bd 77 c9 ee bd a5 f8 60 be 2f 27 4c 3d
       -0.051973425 -0.1165952 -0.2196985 0.049842056
000350 86 e3 4e bf d7 d9 3e bf bc 15 0b be 62 b3 b0 3e
       -0.80815923 -0.7455115 -0.1358251 0.34511858
000360 8f a7 ca bc 7c ca bd bb 38 ca 84 3c e9 b1 5a 3c
       -0.024738101 -0.0057919603 0.016209707 0.013348081
000370 88 85 ed bf fa a6 16 bc 9a c8 d7 be ec ef 5b bd
       -1.8556376 -0.009195084 -0.42145234 -0.053695604
000380 e8 5f d9 bd 57 eb b9 bc 5a df 00 bf da 8d 89 bd
       -0.10613996 -0.022695227 -0.5034081 -0.06716509
000390 11 7d 8e be 86 69 83 bf 5a bf d0 be 4f 1b 19 3f
       -0.27829793 -1.0266578 -0.4077099 0.59807295
0003a0 de 45 48 3e 15 3f 8a 3f 5e 35 41 bc 36 b4 75 bd
       0.19557902 1.0800501 -0.011792509 -0.059986316
0003b0 99 38 94 3b 51 61 97 be 6e 6a 79 be 0e 3b f2 bd
       0.0045233485 -0.29566434 -0.24357006 -0.1182767
0003c0 b3 73 f0 3d e5 da 7a be 65 47 4d 3e c0 e7 eb be
       0.11740818 -0.24497564 0.20046766 -0.4607525
0003d0 92 ad f1 3d bf ff 17 bf 68 d7 c1 be bd e9 b6 3e
       0.11800684 -0.5937461 -0.37859654 0.35725203
0003e0 de 75 44 3e c2 38 15 3f 19 b7 b7 bd d6 1b 09 bf
       0.19185588 0.5828973 -0.0897047 -0.535581
0003f0 3d 24 0a 3f 3a 84 0a be fe a0 30 bc c8 59 35 3d
       0.53961545 -0.13527003 -0.010780571 0.044275075

fc1.bias f4 [128]
000000 d4 87 7b 3e 54 cc 09 bd 11 8a 2f 3c 5c 35 74 be
       0.24563533 -0.033642128 0.01071407 -0.2384848
000010 f0 8f 9e 3c 23 98 7e be f0 e8 92 3e fe 4d 17 3d
       0.019355744 -0.24862723 0.28693342 0.036939614
000020 e2 f8 90 bc 50 6b 49 be f7 64 a9 bd 27 aa a6 3e
       -0.017696802 -0.19669843 -0.08271211 0.3255169
000030 09 88 4c 3e e8 28 77 bb ed 38 41 ba c0 d3 4e be
       0.19973768 -0.003771359 -0.00073708483 -0.20197964
000040 05 54 06 be 03 5c a1 3e f9 08 21 3e 0f c1 16 3f
       -0.13117988 0.31515512 0.15726079 0.58888334
000050 7b 71 af be 9b 3e a4 be 9d c5 03 3e 79 ff bb 3d
       -0.34266266 -0.32079014 0.12868352 0.09179587
000060 8c 81 20 3e 6e ee d9 bd 5d 5d 71 3e 30 21 18 3c
       0.15674418 -0.1064118 0.23570772 0.009285256
000070 cf 0e 75 bd 3f b4 a9 be d9 88 a9 3e 7b 4f 07 bd
       -0.059828576 -0.3314533 0.3311222 -0.033034783
000080 c7 c2 ca 3e 38 ed 5b be ac a5 1c 3e 38 e2 95 be
       0.39601728 -0.2147721 0.15297574 -0.29274154
000090 2d 28 ea bd 59 49 e0 3d 53 39 45 3e fe fb 52 3e
       -0.11433444 0.1095149 0.19260149 0.2060394
0000a0 3f bb 63 bd 74 45 ca 3e ee 94 bf be e3 52 14 3f
       -0.055598494 0.39506114 -0.37418312 0.57938975
0000b0 50 6e a0 3e 1c c6 49 3e 06 ca db 3e 0c 0b 2c 3e
       0.31334162 0.19704479 0.4292757 0.16801089
0000c0 33 e5 38 be a3 56 ca 3e aa 53 af be 39 77 99 be
       -0.18056183 0.39519224 -0.34243518 -0.29973772
0000d0 c8 da 16 be ce 7f 76 3d 19 71 21 be 90 58 a1 bb
       -0.14731896 0.060180478 -0.157658 -0.0049238876
0000e0 d7 e8 94 be a0 40 51 3e 65 a6 94 be 98 3b 87 be
       -0.29083893 0.20434809 -0.290332 -0.26412654
0000f0 5a 65 2f 3e 28 50 01 3f c7 da 90 3e 7b ea a2 3e
       0.17128506 0.50512934 0.28291914 0.3181952
000100 9e a3 6f be 25 a8 8d 3d e1 6b 88 3e f3 d3 99 3e
       -0.23402259 0.06916837 0.26644805 0.30044517
000110 ab 73 fc be 6c b4 7f bc dc 8a c8 3e 25 6f a2 bd
       -0.49306998 -0.015606981 0.3916844 -0.079313554
000120 cf ff a7 be c5 2b 48 3e 41 fa 3e be 6d b6 bc ba
       -0.32812354 0.19547947 -0.18650152 -0.0014397629
000130 7f a7 2c bf 6a 56 18 3e 06 60 b2 bc 33 e2 03 3f
       -0.6744308 0.14876714 -0.021774303 0.5151703
000140 92 4c b1 3e bb 0f cf 3d 7a 7c 56 3f af 9d 88 3e
       0.3462873 0.10110422 0.83783686 0.26682803
000150 e5 12 fb 3d 52 01 4d 3e b1 c0 a5 be 78 c3 0c bc
       0.12259463 0.20020035 -0.32373574 -0.008591525
000160 91 70 6a be d5 d9 6e 3f d6 3d 3b bd 0f bc 40 3e
       -0.22894503 0.93301135 -0.04571327 0.18821739
000170 1b 1e f9 3d 20 53 dc 3e cf 11 ad 3d c6 44 bc bd
       0.12163945 0.4303217 0.08450662 -0.09192805
000180 b6 5b e4 3d fe 8a 72 be da 51 33 3e c8 de 67 be
       0.11150305 -0.23685834 0.17511693 -0.22643578
000190 6e 22 71 3e 09 c1 7e be 47 09 06 3e 06 10 9a 3e
       0.2354829 -0.24878325 0.13089477 0.3009035
0001a0 fc 27 8f 3d 07 5a c7 3e 45 33 97 be cd 42 d7 3e
       0.06990048 0.38935873 -0.29531303 0.42043152
0001b0 c0 9d 7d be dc 3f e0 be 70 38 50 3e a4 8f 8d be
       -0.24767208 -0.4379872 0.20334029 -0.27648652
0001c0 77 b1 b4 be 4f fd cf 3e 60 8d e2 be 28 41 8b bd
       -0.35291645 0.40622947 -0.44248486 -0.06799537
0001d0 42 7e fe bc 45 db 07 be 2a 32 b9 3c 9e 7a 61 bd
       -0.031066064 -0.13267238 0.022606928 -0.055048577
0001e0 49 fe 92 be b0 53 eb 3d 7a 21 8e 3e bc 72 62 be
       -0.2870963 0.114905715 0.27759916 -0.2211408
0001f0 25 8d 2b 3f bc d1 aa 3e 60 dd b2 be 60 1c f9 3e
       0.67012244 0.3336314 -0.3493452 0.4865446

fc2.weight f4 [128, 128]
000000 80 47 8f be 96 0b ea 3e 4d 6d 24 be 91 1f 4d 3f
       -0.27984238 0.45711964 -0.1605732 0.8012629
000010 d7 0d 97 3e 22 39 ff 3e 69 9c 85 be e5 11 28 3e
       0.29502746 0.49848276 -0.26095894 0.16413076
000020 e4 1d 8d 3e ea 1b 19 3e a1 21 15 bf 67 74 6d 3e
       0.27561867 0.14952055 -0.5825444 0.23188935
000030 ae 3c 7a be 78 b1 a4 3e 6f b6 9e bd 8c f9 cc be
       -0.2443721 0.32166648 -0.0774964 -0.4003414
000040 b4 49 bc be c9 d6 86 3e 7e 5b cd 3d 0b 6a 81 be
       -0.3677498 0.26335743 0.100272164 -0.25276217
000050 12 eb d5 3d 50 bd 85 3f fb da 94 3e ed c4 41 3c
       0.10445227 1.0448399 0.2907332 0.011826736
000060 6b 9f c9 3d b2 9f 13 3e 51 8c 3b 3e 94 f6 b1 bf
       0.0984486 0.14416388 0.18315245 -1.3903375
000070 76 07 b8 3e 77 79 e3 be 71 83 18 be 18 3b 6c be
       0.35943192 -0.44428608 -0.14893891 -0.23069417
000080 07 8e 78 be 4f 0f a5 3d 1f 1f 07 3e dd 1a 88 3d
       -0.24272929 0.080595605 0.13195466 0.06645749
000090 f1 cc a2 3e 77 90 aa 3e 47 84 1a 3e 12 dc 8f 3e
       0.31796983 0.33313343 0.15089522 0.28097588
0000a0 4d 6e be 3e 4b 09 2c bd 57 2d b6 be 47 a2 60 be
       0.37193528 -0.04200105 -0.35581467 -0.21936904
0000b0 22 f5 82 be f7 50 07 bf 21 86 97 be 3a fc 8d 3d
       -0.25577646 -0.5285792 -0.2959452 0.06932874
0000c0 82 58 43 bf 94 e7 f1 bd 77 00 64 3e 7c d8 69 3f
       -0.7630693 -0.11811748 0.22265802 0.91345954
0000d0 19 ac ee bb 5d b0 b1 bd 37 75 8c 3e 0f 66 91 bf
       -0.0072836992 -0.08676217 0.27433178 -1.1359271
0000e0 8a d1 eb 3e df c6 64 3e bf d2 1d 3f 56 d7 ad 3e
       0.46058303 0.22341488 0.616497 0.3395335
0000f0 61 81 e5 3d 5c 8a 09 bc 04 81 f2 3c 94 db 92 3e
       0.11206318 -0.008394804 0.029602535 0.2868315
000100 b2 cc 3f be 9d 2f cf be dd 81 15 3e fd 5d 73 3e
       -0.18730429 -0.40466014 0.1460032 0.23766322
000110 17 0a 8b 3f 0d 89 bf 3e 78 5a fb 3b d4 f2 43 3f
       1.0862454 0.3740925 0.007670697 0.765424
000120 ef 78 51 3d 53 6d 44 bc 99 a0 a6 3e 06 83 a2 3e
       0.051140722 -0.011988956 0.325444 0.31740588
000130 02 e9 d3 bf 93 88 02 bd 44 1e f4 3e 11 ad 6f bc
       -1.6555483 -0.03186853 0.4767934 -0.014628665
000140 1e 86 05 3e 1c f5 9e bd 41 fb f8 3d e2 05 4c 3e
       0.13039443 -0.07761595 0.12157298 0.19924119
000150 ec 67 18 3f 8c 82 83 bc 70 8a ab 3e 77 77 87 bf
       0.5953357 -0.01605346 0.33504057 -1.0583333
000160 e6 74 e6 be d3 33 9b be bc dc 05 3f af 0d 3c 3d
       -0.4501106 -0.30312976 0.5228994 0.045911487
000170 8b 52 26 3f 97 88 e8 bd 17 41 69 be 33 ce 4c be
       0.649697 -0.113541774 -0.22778736 -0.20000534
000180 ec 1d 08 3f 0c 0c 55 3f 65 6b 27 3d ec ba f5 3e
       0.5317066 0.8322151 0.040873904 0.47994173
000190 b6 4b 93 3c a1 94 0f 3d b2 67 37 be 6e de 4b 3e
       0.017980438 0.035053853 -0.1791065 0.19909069
0001a0 5a 8e fc 3e 97 a5 4a 3e 04 86 b7 3d ea c4 80 be
       0.49327356 0.1978973 0.08961108 -0.25150234
0001b0 80 d1 18 3e e6 53 36 3f ee 9f df 3d 93 1b 33 3f
       0.14923668 0.7122177 0.10919176 0.6996395
0001c0 73 24 5c 3f 00 69 93 3d 16 8d 1b bf b8 ee 82 3e
       0.8599312 0.071977615 -0.60762155 0.25572753
0001d0 65 a8 98 be 5f eb d2 be bd 36 ad be 47 45 fb 3d
       -0.29815975 -0.411952 -0.33830824 0.12269073
0001e0 b2 89 08 3f 38 25 67 bd c1 5f 25 bf 7d 1d 82 3f
       0.53335106 -0.05643198 -0.64599234 1.0165249
0001f0 da 3e 4b 3d a0 5b ef 3d 33 bf 9b 3d 56 0b 42 be
       0.049620487 0.11687398 0.07604828 -0.18949637
000200 34 92 09 3e b7 10 63 3f 78 a5 58 3e 93 a9 b6 3e
       0.13434678 0.8869738 0.21156871 0.3567625
000210 a5 a2 90 be 75 c2 b6 3e 72 3f ec 3d 76 85 08 3e
       -0.28249088 0.35695234 0.11535539 0.13332161
000220 cc 0d 3c 3e 02 08 91 3e f2 17 f9 be 42 98 67 3e
       0.18364638 0.28326422 -0.4865108 0.22616675
000230 e3 28 0c 3e ad b6 5d 3d 77 f8 8b 3c 4e f0 b4 be
       0.13687472 0.05412929 0.01708625 -0.35339588
000240 27 7d 74 3e 75 91 e3 be 9c eb 8c be df 6e ae bd
       0.23875867 -0.44446912 -0.27523506 -0.08517241
000250 0a 45 a6 3d 1b a9 6c 3f 83 da 61 bd 0a 65 df bd
       0.08118637 0.92445534 -0.05514003 -0.109079435
000260 91 2a 4d 3e f4 db 81 bb 70 f7 7b 3e 83 0e b6 bf
       0.20035769 -0.003962988 0.24606109 -1.4223179
000270 fe 16 de 3d 20 9c f5 be f6 ef 1a 3c e3 3e e8 bc
       0.10844229 -0.47970676 0.009456625 -0.0283503
000280 af 9f 6b be 4f af 0c be cc 8a df 3e 21 07 11 3e
       -0.23010133 -0.1373875 0.4366058 0.14162876
000290 4f 76 fe 3e 55 1d 80 3e 7d f1 87 3d bf 0a c1 bd
       0.49699637 0.2502238 0.06637857 -0.09425878
0002a0 c0 c0 07 be e4 ac 8d 3c bf 41 ca be eb 59 5c bb
       -0.13257122 0.017294355 -0.39503285 -0.0033622931
0002b0 90 94 5d be 75 d9 1a bf 45 5c 4c be 0e 31 05 3e
       -0.21638703 -0.60488063 -0.19957073 0.13006994
0002c0 74 08 f7 be 82 35 3a 3e 83 a1 a2 bd b7 e0 d5 3e
       -0.48248637 0.18184474 -0.07940962 0.41773006
0002d0 1f ca 64 3e 61 08 6a 3e 19 dc 01 bf 6c 8e 14 bf
       0.22342728 0.22854759 -0.5072647 -0.5802982
0002e0 f1 b4 37 3f 2a ef 87 3e 81 02 df 3d f6 af 19 3f
       0.7176047 0.26549655 0.108891495 0.6003412
0002f0 d7 ca f8 3d 5b eb b6 3b 86 6a e9 3d 78 32 5c 3e
       0.12148064 0.005582256 0.11397271 0.21503627
000300 43 0d 5c be 70 d8 0f bf f1 9f 14 3e 8d d2 87 3e
       -0.21489434 -0.5618963 0.14514138 0.26527825
000310 f8 90 fb 3e 39 84 11 bf f1 c9 44 bc fb d6 41 3f
       0.4913404 -0.5684238 -0.012011037 0.7571866
000320 27 27 74 be f8 df 92 be 54 73 e8 3e 7b 58 f2 3d
       -0.2384306 -0.286865 0.45400488 0.118332826
000330 0e 7e e6 3c 50 c1 56 be db 48 48 3f 89 d7 f7 bc
       0.02813628 -0.2097218 0.7823617 -0.030254142
000340 22 42 d9 3e 3b a9 fb bd e0 f3 72 3d 59 b0 db 3c
       0.42433268 -0.122881375 0.05931461 0.026817488
000350 11 4a 60 3e dc 0a b6 bd f4 36 13 be 4b fd ca bf
       0.21903254 -0.0888879 -0.14376432 -1.5858549
000360 64 46 bd 3e e4 9f 90 bd 06 8b e8 3d 66 29 05 3e
       0.36967766 -0.07061747 0.113546416 0.13004074
000370 58 a4 82 bf 09 3f 0b bc 5f 48 36 bd c1 52 3b 3e
       -1.0206404 -0.0084989155 -0.044502612 0.18293287
000380 fb fa c2 3e 9e 5c b4 3e 7c ac 98 bd ad 2b 04 3f
       0.38082108 0.3522691 -0.07454774 0.51629144
000390 12 58 8a 3d 90 9e 29 3d 0e 2f b4 be 09 00 50 bd
       0.06755079 0.041410983 -0.3519215 -0.050781284
0003a0 76 f0 3f 3e 6b 2a b0 bd c7 4a b3 bf 2b 94 03 3e
       0.18744072 -0.086018406 -1.4007195 0.1284949
0003b0 f4 49 f3 3d 55 ac 7f 3e 78 9b ff bb 47 d2 1c bd
       0.1187934 0.24968083 -0.0078005157 -0.038286474
0003c0 a1 00 fc 3e 52 67 a3 3d a8 40 75 bd 4d 87 b2 bd
       0.4921923 0.07978691 -0.059876114 -0.08717213
0003d0 e6 d2 c9 be 1f 53 98 be 6a cd 52 be 87 de c3 3d
       -0.39418715 -0.29750916 -0.20586172 0.09563928
0003e0 80 e7 9c 3e b6 6c 9d be c8 0e 0d bf db ca fe 3e
       0.3064537 -0.30747002 -0.5510068 0.4976414
0003f0 37 33 52 be 17 ab 02 be 37 2d 03 3e 26 40 aa be
       -0.2052735 -0.12760578 0.12810217 -0.33252066
