dqn-reinforcement/a3_part_3_ddqn_cartpole_kumarsat_apurvaba.pth (torch, 88266 bytes, 28 tensors)

fc1.weight f4 [64, 4]
000000 da 4d 83 3e df 90 04 3f 20 56 eb 3d 7e ba c4 3e
       0.25645334 0.51783556 0.114910364 0.38423532
000010 4a 59 fd be c6 bc f8 bd 81 f2 ba 3e 1d 4a 30 3e
       -0.49482185 -0.12145381 0.3651314 0.17215772
000020 12 a1 9c 3e c5 97 df be 0c ea 9d 3e ba 83 4a 3e
       0.30591637 -0.43670478 0.30842626 0.19776812
000030 c3 6a 1c 3f 93 e1 1e 3d 35 31 f9 3e c2 13 af bc
       0.61100405 0.038789343 0.48670354 -0.021371726
000040 60 06 ca 3e 44 6c 28 3e 43 8f 4d bf 4b a2 0d 3d
       0.3945799 0.1644755 -0.80296725 0.034578603
000050 1d cb 23 bf ba a3 ee be f4 88 33 3e 9f 2f ce 3d
       -0.639818 -0.46609288 0.17532712 0.10067677
000060 c3 17 1c bf 6b fb e1 be fd 5b 58 bf 88 49 b8 be
       -0.6097376 -0.4413713 -0.8451536 -0.359936
000070 76 b0 78 be 66 31 da be 63 2e 8e bf ad 23 d2 be
       -0.24286065 -0.42615813 -1.1107906 -0.41042843
000080 e1 90 dc 3e ca 36 04 3c c1 68 86 bf 33 47 79 3e
       0.43079284 0.008069703 -1.0500718 0.24343567
000090 9d 8e 20 bd eb e3 dd 3e 79 45 2c 3f 50 0c cb bd
       -0.039198507 0.4333795 0.67293507 -0.09914458
0000a0 e9 1c cc 3e 9b d6 87 3e ea 4a e5 3f 92 f5 29 3e
       0.39865807 0.26530918 1.7913487 0.16597584
0000b0 08 e3 c1 bc 05 3f 6b be 1a 26 80 3f dd e5 3b 3e
       -0.023667827 -0.22973259 1.0011628 0.18349405
0000c0 b6 e3 6e 3e c4 3a 09 be a8 8c de bf 60 fc cb be
       0.23329052 -0.13401324 -1.7386675 -0.39840984
0000d0 25 37 17 3e 9b 33 85 3e ed 84 05 be 83 45 45 be
       0.1476713 0.26015934 -0.13038988 -0.19264798
0000e0 2e 2c ef 3c a9 3d e5 bd 25 90 67 3f ab b5 dc bd
       0.029195871 -0.11193401 0.9045432 -0.10776838
0000f0 ef f3 c1 be 2c bf a6 be b8 eb 84 bf 21 8c d8 be
       -0.3788142 -0.32567728 -1.0384436 -0.4229441
000100 b6 d7 dc 3d 33 e5 1f be fe 27 84 3e 8b 46 56 be
       0.10783331 -0.15614776 0.25811762 -0.20925348
000110 3c 40 16 bf 29 e7 eb be 09 aa 37 3e 30 7e cf 3d
       -0.58691764 -0.460748 0.17935957 0.1013149
000120 3f 88 fc 3e 07 7b b1 be f5 ca aa bf f3 ad 06 bf
       0.49322698 -0.34664175 -1.3343188 -0.52609175
000130 ca dd c0 be 64 79 a6 3e 46 e9 c4 3f ef 16 00 3f
       -0.37669212 0.3251449 1.5383689 0.50034994
000140 0a 7b dc be 4c a4 00 bf f1 b2 80 bf dd 04 ee be
       -0.4306262 -0.502507 -1.0054609 -0.46488085
000150 2a 97 ca 3d 20 f6 d9 bd a7 3a 0c 3f 4b d2 ba be
       0.098921135 -0.10642648 0.54776996 -0.36488566
000160 b0 69 43 bf cd 3b 70 be 68 39 aa be a8 e3 35 be
       -0.7633314 -0.23460312 -0.33246922 -0.17762625
000170 f7 54 21 3f ab 87 94 3e e1 92 18 bf 1b 73 cd be
       0.6302027 0.29009756 -0.5959912 -0.4012688
000180 73 e4 74 3f 16 69 b8 be e4 16 71 3e 19 a5 8e be
       0.95661086 -0.36017674 0.23543888 -0.27860335
000190 62 4f e7 be 04 39 08 be 8d 2f dd bf 9f b8 46 be
       -0.45177752 -0.13303 -1.7280136 -0.19406365
0001a0 73 44 3c bc 57 b6 14 bf 7a 9f c9 bf b7 60 d8 be
       -0.011490929 -0.5809073 -1.5751793 -0.42261288
0001b0 3c 13 6c bf 22 95 af be 9b 2b 63 3e cd a6 c8 bd
       -0.9221685 -0.34293467 0.22184603 -0.0979744
0001c0 43 25 a3 3e ec a5 c2 be 5f 7d 01 c0 37 1c 9f be
       0.31864366 -0.38017213 -2.023277 -0.31076214
0001d0 00 f5 c6 3d 0a 3a fb bd dc 66 d4 bf 18 ec 0b bf
       0.09714699 -0.122669294 -1.659389 -0.54657125
0001e0 2d 56 2b 3f d4 b9 19 be 98 6e 3b bf 49 c2 96 be
       0.6692837 -0.15012294 -0.7321563 -0.29445103
0001f0 7a a3 e7 bd b5 75 4e be 00 d1 18 bf de 91 86 be
       -0.113104776 -0.20162089 -0.5969391 -0.26283163
000200 fe 04 6b 3e 93 aa 02 be ae f3 00 3f 39 cf 4f 3e
       0.22951123 -0.12760381 0.50371826 0.20293893
000210 61 64 1c bf 9a ce 5d 3c 2b d8 dc bf 9c d2 9e bd
       -0.61090666 0.013538027 -1.7253469 -0.07755014
000220 92 fa 11 bf 69 fd 23 bf 83 b0 93 bf 95 0b 0b bf
       -0.57022965 -0.6405855 -1.1538242 -0.5431455
000230 0c 9c 7c 3e 8e 4d 98 be 11 9e 58 bf 28 9f 17 bf
       0.24668902 -0.2974667 -0.8461619 -0.5922723
000240 c4 85 64 be 10 19 16 3e f9 d0 e5 3f da 24 26 3f
       -0.22316653 0.14657998 1.7954398 0.6489998
000250 41 17 a1 3e 2b 30 0a bf f4 24 30 bf d6 27 c3 be
       0.31463054 -0.5397975 -0.68806386 -0.3811633
000260 45 ca bc be 5f 73 1e bf b0 3b 14 be f3 14 ea be
       -0.3687307 -0.6189479 -0.14475894 -0.45719108
000270 3a 46 31 3f c2 d8 6b 3a fc 67 d7 3e b4 36 e7 bc
       0.6924778 0.0008996838 0.4207152 -0.028224327
000280 29 48 37 3f 27 c1 2a 3d 95 20 3c be 98 57 e1 be
       0.7159448 0.04168811 -0.18371804 -0.4401214
000290 63 2b cc 3e a8 84 17 3e 63 bf 36 bf 66 92 c0 3e
       0.3987685 0.14796698 -0.7138578 0.37611693
0002a0 95 38 9a be 36 29 e2 be 3e 55 ad bf 0f b6 aa be
       -0.30121294 -0.44172066 -1.3541639 -0.33342025
0002b0 a3 58 09 3f 10 3a 00 be 1a 95 4c bf 95 92 6f be
       0.53650874 -0.12522149 -0.7991501 -0.2339576
0002c0 77 92 20 bf 79 0d 7b be ad cd 76 bf d9 8d a5 be
       -0.6272349 -0.24516858 -0.96407586 -0.32334784
0002d0 f9 e5 f4 bd 15 97 c5 3d 4d 31 1b be f7 a5 d2 bd
       -0.11957926 0.09647957 -0.15155526 -0.102855615
0002e0 a3 7c 42 3f 0c 43 80 3e 8c dc 9b 3f 57 65 7e 3e
       0.7597143 0.25051153 1.217668 0.24843346
0002f0 4c ed ac 3d 27 f6 59 bd 4d 29 ad bf 98 4f ac be
       0.08443698 -0.053213265 -1.3528229 -0.33654475
000300 45 4c 43 3f a4 86 b5 3e 8f 4f c1 3e a3 7f 6c 3e
       0.76288253 0.35454285 0.3775601 0.23095565
000310 75 14 a6 bd 66 49 7f bd 7a ac 2d 3e 7c 6e 76 3e
       -0.081093706 -0.062325858 0.16960326 0.24065584
000320 c2 f3 87 bf f9 a6 d6 be 47 14 9e be ca a6 83 be
       -1.0621264 -0.41924265 -0.30874845 -0.25713187
000330 fa ba 83 3d c8 3f 1d bf 32 b4 c5 bf 5e 00 fc be
       0.06432147 -0.6142545 -1.5445616 -0.4921903
000340 38 d0 4e be 3f 4e 94 3d bd ad da 3f ea 43 01 3f
       -0.20196617 0.07241487 1.7084271 0.50494254
000350 9b a3 2d bf ba b3 99 be a1 dd be bd 7a c6 a0 3e
       -0.6782777 -0.30019933 -0.09319616 0.31401426
000360 36 6e 04 3d 3d 26 31 be 22 3a a4 be ae 33 4f be
       0.032331668 -0.17299743 -0.32075602 -0.20234558
000370 7a d3 ce be 99 fa f8 3e 92 2b 86 bc fe b5 9f bd
       -0.4039572 0.4862869 -0.016378198 -0.07798384
000380 e8 59 1f be 57 93 35 3e 9f 3e 26 be 64 43 15 be
       -0.1556164 0.17731987 -0.16234826 -0.14576489
000390 4d e3 f5 be be e8 03 bf 6e 71 87 bf ad 5c ed 3c
       -0.4802498 -0.5152701 -1.0581491 0.028974855
0003a0 6b 87 1c 3e 52 d1 01 3f 48 0f 67 3f fa 10 7c 3e
       0.15286033 0.5071002 0.9025769 0.24615851
0003b0 41 b9 b9 3d 23 b8 81 be e4 d6 88 bf 83 60 d4 be
       0.090685375 -0.25335798 -1.069058 -0.41479883
0003c0 51 af 97 3e ea e9 53 be 1c 6b 8c bf 94 52 c7 be
       0.29625943 -0.206947 -1.0970187 -0.3893019
0003d0 97 c9 42 be 17 02 f1 be 98 c9 59 bf 04 14 1a 3e
       -0.19022213 -0.47071907 -0.8507323 0.15046698
0003e0 99 b4 cb be 81 86 ac 3e 08 af 4f bf 26 cd a9 be
       -0.39786223 0.33696368 -0.8112645 -0.33164328
0003f0 a9 13 0e be 81 e1 1a be 03 d6 e7 be af dc b3 be
       -0.13874687 -0.15125085 -0.45280465 -0.35129306

fc1.bias f4 [64]
000000 6a 5e f6 3e 0d 6a aa be 0a 5f 1a 3f a2 19 01 3f
       0.48118907 -0.33284035 0.6030127 0.5042974
000010 47 1a 15 3f 4f fb 84 be 7f ee 24 3f 12 73 2d be
       0.5824322 -0.25972983 0.64426416 -0.16938427
000020 b5 33 c0 3e f7 a2 66 3f e6 fc 83 3d c4 2e 14 3f
       0.3753945 0.90092415 0.06444721 0.5788386
000030 88 6c 99 be 2e 69 d6 be 65 36 20 3f 4c 12 8b be
       -0.29965615 -0.4187712 0.62583 -0.27162397
000040 aa d1 27 3f 06 78 30 3f 24 c9 57 3f f2 b1 c2 be
       0.65554297 0.6893314 0.8429129 -0.38026386
000050 cf d5 2f 3d f4 b4 fd 3e 26 07 06 3f 25 82 01 bf
       0.042928513 0.4955212 0.5235466 -0.5058921
000060 4d ad c9 bd bc 6d ac be 14 7b 33 3d 98 e9 2d be
       -0.098475076 -0.3367747 0.04381855 -0.1698364
000070 1b 06 ad bd 95 8f 87 be 4f 6c 4e be 9f df 4a 3f
       -0.0844843 -0.26476732 -0.20158504 0.7924747
000080 67 d2 4b 3f 02 4e 2a bd cc aa 3e bd 78 7d 64 be
       0.79617923 -0.0415783 -0.046549603 -0.22313488
000090 e1 9d f7 be 62 06 68 be 6a e8 ed 3e ec 20 33 be
       -0.4836264 -0.22658685 0.4646638 -0.17493027
0000a0 b3 4b be be 7a 02 a9 3c 16 50 65 bd 9e 90 a3 be
       -0.3716713 0.020631064 -0.05598458 -0.31946272
0000b0 33 d8 e9 3d 42 44 a3 bd be 4d ec bd b8 d5 84 be
       0.1141819 -0.079720035 -0.11538266 -0.25944304
0000c0 07 19 76 be 51 cc 46 3f 8d da 02 be ae ea 09 3e
       -0.24032985 0.7765551 -0.12778683 0.1346843
0000d0 26 94 d5 be 74 51 d5 3e e3 32 3b 3f 35 81 0f 3f
       -0.4171459 0.41663706 0.7312452 0.5605653
0000e0 46 27 61 be 6e b9 13 3f f4 39 3f 3f 21 bb 3f 3f
       -0.21987638 0.5770482 0.74697804 0.7489491
0000f0 82 99 33 3f 3a ff 46 3f c3 e1 75 3c 2a 0e 2f 3f
       0.7015611 0.77733195 0.015007439 0.6838099

fc2.weight f4 [64, 64]
000000 ad 9f 70 bc f8 96 70 ba 08 09 fb bb 66 39 8d bc
       -0.014686507 -0.00091777695 -0.0076609887 -0.017239284
000010 e3 ac 90 bc 9b 03 a1 3b 8d a0 b1 bb 1e 40 37 3c
       -0.017660564 0.00491376 -0.0054207505 0.01118472
000020 77 1e 5d bc 9f be 93 bc f4 76 a5 ba dd e3 fa bb
       -0.013496033 -0.018035231 -0.0012623952 -0.007656558
000030 a1 9d 6c b5 de 17 d3 00 db d2 40 bc d9 52 12 3c
       -8.814623e-07 1.9385852e-38 -0.011769022 0.008930885
000040 f6 1c 54 bc 4c c2 73 bb 11 8e 8a bc 11 c9 10 81
       -0.012946358 -0.0037194667 -0.016913446 -2.659288e-38
000050 1a ac 06 3c e2 76 61 bc 62 40 77 bb 02 73 89 9a
       0.008219743 -0.013761254 -0.0037727584 -5.684768e-23
000060 9b d2 89 bb 09 af ec 3b 42 b7 d4 3b 38 7b a3 3a
       -0.0042060143 0.0072230143 0.0064915726 0.0012472635
000070 fb bd 8d 38 1f a3 59 ba df 6f 1b 01 62 af 42 bc
       6.7587906e-05 -0.00083022 2.8549267e-38 -0.011882635
000080 30 88 43 bc 77 75 89 3b 65 d7 10 3c 70 a6 f4 b9
       -0.011934325 0.004194911 0.008840417 -0.00046663312
000090 68 94 b1 b2 61 f9 ab 39 82 94 7d bb e0 ce 69 b3
       -2.0673e-08 0.00032801463 -0.0038693254 -5.443769e-08
0000a0 5b e6 1d 96 dd 0d 0c bb b2 ae fa 3b fd df 80 00
       -1.2755046e-25 -0.0021370568 0.00765022 1.1835295e-38
0000b0 98 80 4f 3b 61 61 8f 35 ee 33 11 bb 61 6c a0 38
       0.0031662341 1.0682671e-06 -0.0022156197 7.649582e-05
0000c0 e7 63 0b b5 dd d9 26 bc ac e3 8f 3b e0 fd 4a ba
       -5.192691e-07 -0.010183779 0.0043911543 -0.0007743519
0000d0 16 70 bf b4 ac 71 6d 39 89 ee 4d bc a5 25 81 bc
       -3.5658076e-07 0.00022644427 -0.012569078 -0.01576502
0000e0 6a 89 2e 81 5b 98 2b bb 8f 2e 85 bc d8 8e 63 bc
       -3.2057342e-38 -0.002618334 -0.016257552 -0.013889037
0000f0 0e 77 81 bc dc 5e cd bb 4d e2 b0 bb 95 e8 45 bc
       -0.01580384 -0.0062674116 -0.005398071 -0.012079378
000100 51 89 21 bb cc 90 51 01 43 aa 8c bb ac c6 15 bb
       -0.0024648497 3.8491124e-38 -0.0042927577 -0.0022854013
000110 20 2d 1a bb f3 0e 13 b3 58 8f 84 bb a6 3d 81 01
       -0.0023525432 -3.42397e-08 -0.004045408 4.7475577e-38
000120 ec f5 c6 ba d9 ba 94 bb 25 7b 2d b2 89 9f 8f bb
       -0.0015179492 -0.0045388755 -1.0097925e-08 -0.0043830317
000130 a0 9e 10 02 4a 77 c0 00 53 45 71 bb 69 d4 98 8b
       1.0624972e-37 1.7675208e-38 -0.0036815002 -5.886787e-32
000140 f2 b4 5e bb 05 6e c0 bb e3 ed 4d bb 18 33 08 82
       -0.0033982364 -0.0058724904 -0.003142231 -1.0006365e-37
000150 38 4d 09 b9 88 de ee ba d8 eb 73 bb be 7c 50 01
       -0.00013094104 -0.0018224278 -0.0037219431 3.8293065e-38
000160 1d af 66 b0 92 29 82 01 37 7b 46 b7 31 75 8d b6
       -8.3922364e-10 4.781411e-38 -1.1830408e-05 -4.2157703e-06
000170 59 d7 a2 19 26 8b d0 00 aa 56 3b 01 ba 9b 86 bb
       1.6837386e-23 1.91517e-38 3.4408654e-38 -0.0041079195
000180 2e a7 a8 bb 4b ce c4 b6 11 1e cc b9 44 f9 c0 00
       -0.0051468825 -5.865271e-06 -0.00038932313 1.7721835e-38
000190 56 db 9c 81 d0 3c 6f 00 58 5b 36 bb cd c5 38 9c
       -5.762008e-38 1.0215555e-38 -0.0027825441 -6.1136145e-22
0001a0 1c ac 4b 01 74 f1 5a b6 18 6b 81 b6 2e 78 f3 00
       3.7408694e-38 -3.2625076e-06 -3.856967e-06 2.2359138e-38
0001b0 0a 2d 2e b9 46 09 1a 81 79 f3 39 b3 1a 90 8b 81
       -0.00016610711 -2.8291986e-38 -4.3295106e-08 -5.126731e-38
0001c0 56 4a 0d ae 97 ea aa bb 42 8e fe b8 d2 49 21 b7
       -3.2125712e-11 -0.0052159536 -0.000121381614 -9.613535e-06
0001d0 26 a8 26 81 34 0c 9a bb 96 c1 78 bb e7 5e 1b bb
       -3.0610025e-38 -0.0047011618 -0.0037957183 -0.002370769
0001e0 51 0e 97 81 eb cc 95 bb 5c e5 8d bb 04 61 52 bb
       -5.548918e-38 -0.0045715473 -0.0043303203 -0.0032101283
0001f0 e0 9f 2e bb 07 41 b1 bb 68 a4 04 a4 d8 e5 54 bb
       -0.0026645586 -0.005409363 -2.8762195e-17 -0.003248563
000200 81 78 44 3e fa 5b d4 3d a5 65 47 3d e7 7a d8 bc
       0.19186594 0.10369106 0.04868092 -0.026425792
000210 3d aa cf 3d 76 b1 58 3f e3 5e c8 3d 0d c7 2f 3f
       0.10139892 0.84645784 0.09783723 0.686631
000220 72 83 01 3e 2a 32 b1 3e 78 aa 97 be 3d 76 cf bd
       0.12647799 0.34608585 -0.29622245 -0.10129974
000230 8f c3 39 3f 5a c1 0d be d3 76 16 3e c1 3b 55 34
       0.72564024 -0.13843289 0.14693765 1.9858909e-07
000240 28 cc 36 3e fb 7f b1 bd b8 dc a4 3d 86 02 27 be
       0.17851317 -0.086669885 0.08049911 -0.16309556
000250 2c 21 ba bf e6 b4 8f 3e 8f 26 84 3e 7c b0 61 bd
       -1.4541373 0.28067702 0.25810668 -0.05509995
000260 c1 25 4b be de 50 14 81 5d 2f 80 bf 7c e9 38 bf
       -0.1983862 -2.7241326e-38 -1.0014454 -0.7223127
000270 2d 79 d9 3e 59 90 a9 3f c5 8d 11 bf 95 e2 e6 3d
       0.42475262 1.3247176 -0.5685695 0.11273686
000280 08 da 47 3e 79 56 8d bf a2 a1 7a bf 27 e5 46 3f
       0.19516766 -1.1042014 -0.9790288 0.7769341
000290 07 94 83 3e f1 6f 35 3e ae d4 d7 3d ce f2 e0 bd
       0.25698873 0.17718484 0.10538612 -0.10983811
0002a0 4a 75 c1 3c 37 35 5d 3e dd 60 ee bf 9b 31 13 bf
       0.023615498 0.21602331 -1.862331 -0.57497567
0002b0 d7 5c fd be 91 d7 c7 bd 32 c3 87 be f2 14 0c 3f
       -0.49484894 -0.09757913 -0.2651611 0.5471946
0002c0 20 08 91 bd 19 10 70 3e 2d 20 83 bf 50 a0 0e bf
       -0.07081628 0.23443641 -1.0244194 -0.5571337
0002d0 ed 8a 6c 3f 1a 69 9b be 19 cc 1c 3e bf 99 a1 3e
       0.92399484 -0.30353624 0.15312232 0.3156261
0002e0 b3 74 11 3e ad 14 f2 bc 8e e7 59 3d 64 f7 67 3d
       0.14204673 -0.029550875 0.053199343 0.056632414
0002f0 2b 80 4f 3e 78 a0 1e 3c ea 71 cd bd f1 c1 53 bc
       0.20263736 0.009681813 -0.10031493 -0.012924657
000300 71 dd 11 3e e7 e3 45 be 62 f2 30 3e 8e a1 e0 ba
       0.1424463 -0.19325219 0.17279962 -0.0017137991
000310 c2 37 a2 3e bb d9 1a be 9a 83 b5 3e 9c 3b da be
       0.31683165 -0.1512212 0.35451967 -0.42623603
000320 05 5d 07 3e 36 07 bc 3e d8 94 9a bd 75 95 96 3e
       0.13219078 0.36724252 -0.07547921 0.29410902
000330 85 d1 58 bf 43 ae da bd f7 8d 8c 3e 99 4a 0e bf
       -0.846947 -0.10677769 0.2745206 -0.55582577
000340 19 ea 80 3e ca a0 96 3e df 47 b7 3e e7 37 ab 3d
       0.25178602 0.29419547 0.3579702 0.08360272
000350 c8 d0 b2 be 7d 5c e3 3e 5c a7 df 3e c9 e6 ef bd
       -0.34924912 0.444065 0.43682373 -0.11713941
000360 93 13 c5 be b4 fd 0d bf 50 7c d1 be ba a8 ed bb
       -0.38491496 -0.55465245 -0.40915155 -0.00725278
000370 8f 69 25 3e 08 cb 36 bf 8b ec 18 bf fb d5 81 3e
       0.16153549 -0.7140355 -0.59735936 0.25358567
000380 32 54 af 3e 25 43 87 be 35 fc 75 3c ef 6e 7e be
       0.34243923 -0.26418415 0.015013744 -0.24847005
000390 3e f3 06 bf 71 9a 98 3f cf 31 6d 3e 16 4f ad bc
       -0.5271491 1.1922132 0.23163532 -0.021155875
0003a0 2a e4 1c be 73 a8 6c 3e 17 b1 23 bf c5 63 4e bf
       -0.15321413 0.23111133 -0.6394209 -0.80620986
0003b0 32 1d 2f bd 63 c7 f8 bd 65 49 53 be 11 34 52 bf
       -0.042752452 -0.12147405 -0.20633467 -0.821107
0003c0 ec 90 cb bc 61 ca c4 3e cf 63 f5 bc ea b4 47 be
       -0.024849378 0.38435653 -0.029954819 -0.19502607
0003d0 b7 fa 29 bf 8e 33 f3 3d d3 36 05 3e bb 10 91 3e
       -0.66398185 0.11875068 0.13009195 0.28333077
0003e0 c3 7f 98 3e e9 7f 13 3e 26 bc e7 3d fa 81 3f 3e
       0.29784974 0.14404263 0.11315183 0.18701926
0003f0 46 53 97 3e b4 c8 9f 3e 68 64 8e 3d a8 9a 8b 3e
       0.2955572 0.31207812 0.06952745 0.2726643

fc2.bias f4 [64]
000000 f2 37 5f bc 9b 4a b6 bb 64 85 a2 3d a2 98 84 3e
       -0.013624178 -0.005563093 0.079355985 0.258977
000010 84 c1 f4 ba 39 72 5e 3e f3 5f 65 3e 9f 8a 50 3d
       -0.0018673395 0.2172326 0.22399883 0.05091345
000020 b4 d5 02 bd e0 81 6a 3e 6a 84 94 3e ae 2f 6e 3e
       -0.031942084 0.22901106 0.29007274 0.23260376
000030 6d 93 f4 bd 36 a6 6d 3e 5d 7f 21 3e 7a dd 8e 3e
       -0.11942182 0.23207936 0.15771241 0.27903348
000040 82 a5 6f bc 92 8a bc 9f 8b f7 b4 b8 bf a7 2b 3e
       -0.0146268625 -7.985034e-20 -8.629177e-05 0.16763209
000050 71 26 9e be 89 0a 32 bd 91 11 c0 3e 08 41 c0 3e
       -0.30888703 -0.04346708 0.37513402 0.37549615
000060 78 92 4f ac b3 f5 1a 3e d4 c8 7f 3e 7b 59 37 3e
       -2.9497776e-12 0.1513279 0.24978954 0.17905228
000070 11 d7 0a 3e 01 78 aa 3e 36 ca 5f ba c1 2d d6 3e
       0.13558604 0.3329468 -0.00085369067 0.41831782
000080 61 f4 87 3b f3 3a 7f 3e 6a e9 c0 3c f8 f1 aa bc
       0.0041490053 0.24924831 0.0235488 -0.020867333
000090 f0 7d 1b bc 0b 65 cd 3b 10 56 d5 3b 28 b8 0e 3e
       -0.009490475 0.006268149 0.0065105036 0.13937438
0000a0 f7 1f 23 bd d3 93 5d 3e e0 6b fa bd e5 f8 12 b4
       -0.039825406 0.21638422 -0.12227607 -1.3687857e-07
0000b0 97 bd b4 3e 88 3c 2c 3c c7 ba 39 b6 3c e3 aa 3e
       0.35300896 0.010512479 -2.7675867e-06 0.3337649
0000c0 83 61 90 3e 63 dd 3d 3e 6a 9a a3 3e 17 e0 94 3e
       0.28199396 0.18541484 0.31953746 0.29077217
0000d0 7e d4 c5 3e d8 40 83 3e bd 1a af 3e 67 9f 06 ae
       0.3863868 0.2563541 0.34200087 -3.060965e-11
0000e0 66 33 54 3e 7b 96 b7 ad 1a c6 a3 bd 79 e1 a5 3d
       0.20722732 -2.0871518e-11 -0.07996769 0.08099646
0000f0 34 a0 56 3d 5d 95 71 3e 6b f0 0b be c0 f2 a4 01
       0.052398875 0.23592134 -0.13665931 6.0592415e-38

value_stream.weight f4 [1, 64]
000000 53 7c 8b 3b d5 d1 81 3a 70 dc 7c 3f ac 68 27 3f
       0.004256764 0.0009904454 0.9877386 0.6539409
000010 c3 97 d1 ba 29 59 0b 3f 35 4b 1f 3f c2 1a 80 bf
       -0.0015990663 0.5443292 0.6222413 -1.0008166
000020 37 f3 cc be c1 c3 44 3f 65 c5 13 3f 3e bf 18 3f
       -0.40029308 0.76861197 0.57723075 0.5966681
000030 4d 89 aa bf 69 e9 09 3f 7d be 21 3f 3b 6c f8 3c
       -1.3323151 0.5387178 0.6318129 0.030325046
000040 06 69 5f bc 46 54 0e 81 ee 2d 02 ba 54 7f 6f 3f
       -0.013635879 -2.6141744e-38 -0.00049659505 0.9355366
000050 c1 45 a6 bf 06 dd 48 bf 52 8b 27 3f 64 56 1c 3f
       -1.2990037 -0.78462255 0.6544696 0.6106932
000060 e4 db 4b ad f2 07 50 bb 9c a7 a1 3d 6a c2 3d 3f
       -1.15880396e-11 -0.0031743017 0.07893297 0.7412478
000070 9e e2 21 bf 97 c4 7a 3f 39 c8 91 3b f2 33 66 3f
       -0.63236415 0.9795622 0.004448917 0.8992301
000080 3c 73 8c bf 77 ae 2c 3f b7 e7 e7 3e 92 eb 86 3b
       -1.0972667 0.6745371 0.45293972 0.0041174376
000090 c1 1c 05 bf 4a fa 74 be c2 bf c0 b9 ae b9 28 3f
       -0.51997 -0.23923603 -0.00036763964 0.65908325
0000a0 d3 6d 66 bf 2b 10 ce be 68 1f 92 bf 21 b3 cf 3b
       -0.9001133 -0.4024671 -1.1415834 0.0063384925
0000b0 41 2a 1d 3f 69 66 64 be 08 0b 01 bb cf f0 15 3f
       0.613926 -0.22304691 -0.0019690413 0.5857057
0000c0 24 92 30 3f 67 13 37 3f ef 2d 3a 3f b6 08 32 3f
       0.6897299 0.7151398 0.7272634 0.6954454
0000d0 ef 72 47 3f 0f 68 2b 3f 14 02 17 3f 9d b7 0f 3c
       0.7790975 0.66955656 0.58987546 0.008771804
0000e0 bb 39 1c 3f 71 44 fb b8 a4 0c d6 be 56 b3 60 be
       0.6102559 -0.00011981361 -0.4180652 -0.21943411
0000f0 41 8a 7f 3f 25 f7 8f 3f 12 10 8c bf 0c 5d 3f a9
       0.99820334 1.1247298 -1.0942404 -4.2491225e-14

advantage_stream.weight f4 [2, 64]
000000 39 84 39 bc dd 37 88 3b f7 a8 f0 bd d5 0b 36 be
       -0.011323028 0.00415705 -0.117509775 -0.17777951
000010 6b 81 ae 3b 8a f8 69 bd 27 62 96 be 47 a4 8e be
       0.0053254864 -0.05712179 -0.2937176 -0.2785971
000020 29 c9 8f 3e a6 06 0f be 20 cd 97 3b 20 42 48 be
       0.2808316 -0.1396738 0.004632607 -0.19556475
000030 d0 83 52 be 5f 83 40 be 31 ca 1a be 3e 51 62 bf
       -0.20558095 -0.18800114 -0.15116192 -0.88405216
000040 7c 4c dc bc 73 c9 0a 82 70 6a 85 39 b8 aa 51 3e
       -0.02689194 -1.0196452e-37 0.0002544704 0.2047528
000050 e7 06 fa be 62 8c 5a be 3a 08 62 be 00 2a 6c 3f
       -0.4883339 -0.21342614 -0.2207345 0.92251587
000060 ec b9 ad 18 68 37 3c 3f f8 c3 5a bf 1a ad 24 3c
       4.4907185e-24 0.73522043 -0.85455275 0.010051036
000070 57 a1 67 be 03 11 c3 3e a3 87 f4 3a 36 c0 07 3f
       -0.2262014 0.38098916 0.0018656146 0.53027666
000080 3c d2 54 3e 91 be 0f be a4 cd 20 40 71 e9 f3 3b
       0.20783323 -0.14037539 2.5125513 0.0074436
000090 0f 02 16 3f 56 57 2a 3f 4d dd 07 3c b0 1e 27 3d
       0.5859689 0.66539514 0.008292508 0.04080075
0000a0 d6 09 0c be fe 03 b3 3f bb a8 ac be 1d e1 f9 ba
       -0.13675627 1.3985593 -0.3372248 -0.0019064281
0000b0 8b 49 a8 bd d1 c6 b1 3d 35 74 08 ba c7 86 9a be
       -0.08217152 0.08680499 -0.00052053045 -0.30180952
0000c0 5a 1f c7 bd 68 fa fa bd 87 73 4e be d2 93 8f bd
       -0.09722777 -0.122547925 -0.20161258 -0.07010616
0000d0 b4 38 de 3d c5 9b 23 3d c7 69 eb bd a4 e9 a6 3b
       0.10850659 0.039943475 -0.11494785 0.00509377
0000e0 a8 a6 f0 bd 7f e3 87 37 7b 57 c5 3e 2d 31 9d 3e
       -0.11750537 1.619919e-05 0.38543305 0.3070158
0000f0 c7 20 44 3d e7 16 7f bd 39 74 09 bf df 34 ab 15
       0.04788282 -0.0622777 -0.53692967 6.9149766e-26
000100 39 84 39 3c dd 37 88 bb 2f cb 59 bd 2d d9 af 3d
       0.011323028 -0.00415705 -0.053172287 0.08586345
000110 6b 81 ae bb 29 93 76 3e d6 b6 32 3e 0a ea 1e 3e
       -0.0053254864 0.24079575 0.17452559 0.15518966
000120 5b d4 95 be 29 3b 0a 3e 69 27 a3 3c ec 47 81 3e
       -0.29263577 0.1349913 0.019916253 0.25250185
000130 36 da 3f 3d 79 30 36 3e 04 79 d6 3d e4 e1 40 3f
       0.04683896 0.17791928 0.10472301 0.7534468
000140 ca 4c dc 3c 73 c9 0a 02 70 6a 85 b9 7b 2c 33 be
       0.026892085 1.0196452e-37 -0.0002544704 -0.17497437
000150 31 78 f9 3e 8f eb 98 3e 19 74 8d 3e aa e4 60 bf
       0.4872451 0.29867217 0.27627638 -0.87848914
000160 ec b9 ad 98 47 16 44 bf b0 c6 5a 3f 04 ad 28 3e
       -4.4907185e-24 -0.7659649 0.85459423 0.1647225
000170 19 8f 88 3e d6 28 bd be a3 87 f4 ba f3 a4 17 bf
       0.26671675 -0.36945218 -0.0018656146 -0.5923607
000180 d5 ed 49 be ed 0c 0e 3e 21 e2 2a c0 71 e9 f3 bb
       -0.19719632 0.13872118 -2.6700518 -0.0074436
000190 47 7f 15 bf bc e1 26 bf 8f 99 01 bc ef 31 37 3e
       -0.58397335 -0.65188193 -0.007910146 0.17890142
0001a0 c1 53 39 3e 49 53 bb bf 14 09 8c 3e 1d e1 f9 3a
       0.18098356 -1.4634792 0.27350676 0.0019064281
0001b0 71 f0 29 3e 40 41 ac bd 35 74 08 3a c7 92 9a 3e
       0.16595627 -0.08410883 0.00052053045 0.30190107
0001c0 ca 7a c7 3d 76 a9 8f bb ce cf 0c 3e 81 a7 61 3e
       0.09740217 -0.004384215 0.13751146 0.22036554
0001d0 1f 44 fd bc 56 41 31 bd 1d 8d aa 3d a4 e9 a6 bb
       -0.030916272 -0.0432752 0.083276965 -0.00509377
0001e0 d6 3f 09 bd 7f e3 87 b7 e2 5f 66 be 2d 31 9d be
       -0.033508144 -1.619919e-05 -0.22497514 -0.3070158
0001f0 a6 cf 97 bd 82 36 b5 bd 5a 81 19 3f df 34 ab 95
       -0.07412653 -0.08848287 0.59963 -6.9149766e-26

advantage_stream.bias f4 [2]
000000 cd 0f 95 bd b5 26 d2 3d
       -0.072784044 0.10261289

fc1.weight f4 [64, 4]
000000 5d be 81 3e 70 96 04 3f ad be e8 3d e0 2e c5 3e
       0.25340548 0.5179205 0.113644935 0.38512325
000010 27 0f fb be dc d7 01 be 3f 40 bc 3e 42 ee 2e 3e
       -0.49034998 -0.1268 0.36767766 0.17083076
000020 27 3b 9b 3e 43 58 de be 34 0b 9c 3e b9 45 49 3e
       0.30318567 -0.43426713 0.30477297 0.19655503
000030 f4 1c 1c 3f ca 0a 1b 3d 8d 69 f7 3e 34 4b a6 bc
       0.6098168 0.037852086 0.48322716 -0.020299532
000040 ac d9 c7 3e c6 d7 28 3e 67 4d 4e bf e6 c1 0c 3d
       0.39033258 0.16488561 -0.80586857 0.034364603
000050 e9 95 22 bf ed cb f0 be aa 70 3f 3e 14 d4 c5 3d
       -0.63509995 -0.47030583 0.18695322 0.09659591
000060 da 80 1c bf 6a ce e0 be 92 24 59 bf df bc b8 be
       -0.6113411 -0.4390748 -0.84821427 -0.36081597
000070 8a 97 77 be e6 f0 df be ce 49 8d bf 4c 78 cf be
       -0.24178901 -0.43738478 -1.1038148 -0.40521467
000080 35 16 dc 3e a9 09 fd 3b 33 b4 86 bf 60 00 78 3e
       0.42985693 0.007722099 -1.0523742 0.24218893
000090 46 d2 2b bd 59 46 de 3e 34 57 2b 3f 14 00 cc bd
       -0.04194858 0.43413046 0.66929936 -0.099609524
0000a0 f2 85 cc 3e ad 5d 87 3e 91 0b e5 3f 76 b7 2c 3e
       0.39945942 0.26438656 1.7894155 0.1686686
0000b0 17 3a d3 bc 4c d6 68 be 1e 36 7f 3f 2d b9 3a 3e
       -0.025784535 -0.22737998 0.9969195 0.18234701
0000c0 8e 37 71 3e 02 38 09 be b3 32 de bf 37 63 ca be
       0.23556349 -0.13400272 -1.7359222 -0.3952882
0000d0 92 fd 1a 3e aa 04 87 3e 02 4f 0c be e5 98 46 be
       0.15135792 0.26370746 -0.13702014 -0.19394262
0000e0 39 5e e1 3c 8d 3b e3 bd c2 ac 66 3f 32 74 de bd
       0.02751075 -0.11095343 0.9010736 -0.10862006
0000f0 9a 04 c0 be 76 b8 aa be c1 d4 83 bf 37 f9 d7 be
       -0.3750351 -0.33343858 -1.0299302 -0.42182323
000100 29 87 d8 3d b6 6e 1e be b8 a5 82 3e ed 21 57 be
       0.10572655 -0.1547192 0.25517058 -0.21009035
000110 82 7a 16 bf ad cf ea be 7f 15 34 3e ec b2 cd 3d
       -0.5878068 -0.4586157 0.17586325 0.10043892
000120 56 ab fa 3e 0e 4c b0 be 3a 33 ab bf ab cb 06 bf
       0.48958844 -0.34433025 -1.3375008 -0.5265452
000130 40 af b9 be fc f8 a0 3e 4b f2 c3 3f 10 aa 01 3f
       -0.36266518 0.3143996 1.5308317 0.5065012
000140 86 3e da be 1e 61 01 bf 8c fe 80 bf d9 72 ed be
       -0.42625827 -0.50538814 -1.0077682 -0.46376684
000150 35 9f c5 3d 2d 69 d6 bd 2f 5c 0b 3f a5 4c bb be
       0.09649507 -0.104692794 0.54437536 -0.36581913
000160 7d bb 43 bf f9 94 6d be e9 ce ab be 66 11 37 be
       -0.7645796 -0.2320136 -0.33556297 -0.1787773
000170 a5 13 21 3f a3 26 93 3e 9e ea 1a bf a7 ec c9 be
       0.629206 0.28740415 -0.6051425 -0.39438364
000180 02 28 74 3f 7e 78 b8 be fb 6c 71 3e ab d7 8c be
       0.9537355 -0.36029428 0.23576729 -0.27508292
000190 63 05 e3 be 8c 1d 0e be 17 4e dc bf 64 8c 45 be
       -0.44340047 -0.13878459 -1.7211331 -0.19291836
0001a0 93 76 82 bc ab e6 14 bf 57 79 c9 bf 03 37 d9 be
       -0.015925681 -0.5816447 -1.5740155 -0.42424783
0001b0 32 2f 6b bf a4 aa af be 6e b0 65 3e 3e 1a ca bd
       -0.9186889 -0.34309876 0.22430584 -0.098682866
0001c0 23 af a3 3e 6d f3 c0 be 2a 95 01 c0 35 49 a1 be
       0.31969556 -0.3768572 -2.0247293 -0.31501165
0001d0 95 ba dc 3d 54 01 ea bd 73 7c d3 bf 7a 6b 0c bf
       0.10777775 -0.114260346 -1.6522354 -0.54851496
0001e0 f4 a6 2a 3f 26 63 18 be 56 15 3c bf 57 de 97 be
       0.66661 -0.14881572 -0.73470056 -0.2966182
0001f0 c7 0a ed bd 27 d2 4c be 76 99 19 bf 09 df 86 be
       -0.11574321 -0.20002042 -0.5999979 -0.26342037
000200 e3 2c 68 3e c1 02 00 be 94 1d 00 3f 87 8f 4e 3e
       0.22673373 -0.1250105 0.5004513 0.20171939
000210 39 74 1b bf ea 49 4c 3c bb b4 dc bf db 17 a0 bd
       -0.60724217 0.012468794 -1.7242655 -0.0781705
000220 49 46 12 bf c6 fc 24 bf 70 8f 92 bf 29 3c 0a bf
       -0.57138497 -0.644482 -1.1450024 -0.5399805
000230 0d 18 7d 3e 9d 76 98 be 80 7e 59 bf 3e 7d 18 bf
       0.24716206 -0.29777995 -0.8495865 -0.59566104
000240 a0 21 60 be 30 e7 1a 3e 99 d0 e4 3f 41 86 24 3f
       -0.21887827 0.15127254 1.7876159 0.64267355
000250 f1 fe a0 3e 41 61 09 bf 83 63 30 bf 55 b3 c4 be
       0.31444505 -0.5366402 -0.6890184 -0.3841807
000260 47 68 bd be 35 e3 1d bf 31 62 17 be 0e 88 ea be
       -0.3699362 -0.61674815 -0.14783551 -0.45806926
000270 1b 57 30 3f fc b6 e4 3a 20 55 d6 3e 24 1b d6 bc
       0.6888291 0.0017449553 0.4186182 -0.026135989
000280 82 49 37 3f 3c ad 23 3d 70 1c 4c be e5 78 df be
       0.7159654 0.03996013 -0.19932723 -0.43646923
000290 79 67 cc 3e cc 5e 15 3e 70 59 37 bf 49 16 c0 3e
       0.39922693 0.14586943 -0.71620846 0.37517002
0002a0 68 41 97 be 3d 18 e4 be d6 f2 ac bf c3 9b ab be
       -0.29542089 -0.44549742 -1.3511608 -0.33517274
0002b0 fe bd 0a 3f f1 fb f5 bd 44 38 4d bf ac 6c 72 be
       0.54196155 -0.12010945 -0.8016398 -0.23674268
0002c0 09 b0 1f bf 0a ca 7b be 4a a7 76 bf 78 68 a5 be
       -0.62377983 -0.2458879 -0.9634901 -0.32306266
0002d0 31 19 e8 bd 91 19 bb 3d 2f 1b 1a be 67 ee cc bd
       -0.1133293 0.09135736 -0.15049432 -0.10006409
0002e0 26 22 42 3f 62 bd 80 3e d9 1a 9c 3f 71 86 81 3e
       0.75833356 0.25144488 1.2195693 0.25297883
0002f0 c5 53 b4 3d a4 29 48 bd c2 92 ac bf eb e8 aa be
       0.0880504 -0.048867837 -1.3482287 -0.33380827
000300 24 31 42 3f 14 c3 b6 3e 83 ec c1 3e 5d 33 6e 3e
       0.7585623 0.35695708 0.37875757 0.23261781
000310 b8 88 aa bd 8f ed 76 bd 66 92 2a 3e 2c 67 75 3e
       -0.08326858 -0.060285147 0.16657409 0.23965138
000320 e9 93 87 bf a3 f2 d7 be 90 22 9c be 8a 5d 82 be
       -1.0592014 -0.42177305 -0.3049512 -0.2546199
000330 50 82 77 3d cc 34 1e bf 20 90 c5 bf 64 71 fc be
       0.06042701 -0.6179931 -1.5434608 -0.4930526
000340 75 04 4c be 76 44 9b 3d c3 cc d9 3f f5 96 ff 3e
       -0.19923575 0.07581417 1.7015613 0.4991986
000350 60 20 2e bf 51 d0 98 be e9 ea c9 bd 4c d5 a0 3e
       -0.6801815 -0.29846433 -0.09859259 0.31412733
000360 26 bf f6 3c 72 53 2f be 47 b1 a5 be ac f6 4f be
       0.030120444 -0.17121676 -0.32361814 -0.20308942
000370 f1 36 d0 be 1c 55 f9 3e b5 85 a1 bc 1c d4 9f bd
       -0.40666917 0.48697746 -0.019717077 -0.078041285
000380 a2 14 1c be 3f 55 39 3e 35 fc 1d be 60 f5 17 be
       -0.15242246 0.18098925 -0.1542824 -0.14839697
000390 73 f2 f6 be 85 86 03 bf 2a f6 87 bf 3e 3c ee 3c
       -0.4823185 -0.51377136 -1.0621998 0.02908146
0003a0 38 24 18 3e 78 da 01 3f eb 11 66 3f 0b 7e 7c 3e
       0.14857566 0.5072398 0.8987109 0.24657457
0003b0 0c 12 b1 3d 1b 98 80 be ca 41 89 bf fa 5c d4 be
       0.0864602 -0.25116047 -1.0723202 -0.41477185
0003c0 11 92 95 3e a5 44 51 be 12 db 8c bf f9 87 c7 be
       0.29213002 -0.20436342 -1.1004355 -0.38970926
0003d0 9a ed 44 be f7 b4 ef be 76 98 5a bf ec 58 19 3e
       -0.19231263 -0.46817753 -0.85388887 0.14975327
0003e0 a0 86 c7 be 43 c3 aa 3e 84 71 4e bf e8 cd aa be
       -0.38969898 0.33352098 -0.8064196 -0.3336022
0003f0 bb 79 11 be 79 80 18 be 40 6a e9 be 1b 2f b4 be
       -0.14206593 -0.14892758 -0.45588875 -0.3519219

fc1.bias f4 [64]
000000 43 a8 f6 3e 4a 8e ac be 58 85 1a 3f e6 34 01 3f
       0.48175249 -0.33702308 0.60359716 0.5047134
000010 cb 50 15 3f 65 be 85 be 7a 1b 25 3f 4f 5c 2a be
       0.58326405 -0.26121822 0.6449505 -0.16636775
000020 91 42 c0 3e 2c cb 66 3f 70 51 81 3d 84 4f 14 3f
       0.37550786 0.90153766 0.06314361 0.5793383
000030 b9 26 9a be e5 ef d3 be 0d 4a 20 3f 6a 4e 8c be
       -0.30107668 -0.41393963 0.6261299 -0.27403575
000040 76 f1 27 3f 3e 9c 30 3f b5 08 58 3f 08 e7 c8 be
       0.65602815 0.68988407 0.84388286 -0.39238763
000050 73 a2 2b 3d ca fa fd 3e af 36 06 3f f8 8e 02 bf
       0.04190297 0.496054 0.5242719 -0.50999403
000060 0a 4c ce bd 9f ca b0 be 15 0e 38 3d c4 57 30 be
       -0.10073097 -0.34529588 0.044935305 -0.1722098
000070 6f 78 b0 bd 55 0e 8a be e0 b7 50 be 2d 08 4b 3f
       -0.08616721 -0.2696406 -0.20382643 0.7930935
000080 f0 fd 4b 3f 35 32 39 bd f5 c0 3b bd 95 b1 61 be
       0.7968435 -0.045213897 -0.045838315 -0.22040398
000090 29 db fa be 7c ae 68 be 54 3b ee 3e 43 c1 35 be
       -0.4899533 -0.2272281 0.4652964 -0.17749505
0000a0 11 85 c0 be 7d 1e 93 3c 5d f2 68 bd 54 d6 a0 be
       -0.37601522 0.017958874 -0.05687176 -0.3141352
0000b0 aa 2f e9 3d e1 5d a8 bd 3d 92 e8 bd 16 57 86 be
       0.11386044 -0.08221031 -0.11356018 -0.26238316
0000c0 90 3f 79 be 23 ed 46 3f b0 93 05 be a4 8c 08 3e
       -0.24340653 0.7770559 -0.1304462 0.133349
0000d0 15 5b d8 be 34 56 d5 3e 84 56 3b 3f 3d af 0f 3f
       -0.4225699 0.4166733 0.7317889 0.5612677
0000e0 3b 68 5f be a6 bf 13 3f 07 7b 3f 3f 5b 11 40 3f
       -0.21817105 0.5771431 0.747971 0.7502648
0000f0 a9 e5 33 3f ea 28 47 3f 72 c4 26 3c 4d 46 2f 3f
       0.7027231 0.77796805 0.010178672 0.68466645

fc2.weight f4 [64, 64]
000000 53 f9 7b bc 45 99 8e ba fc 61 01 bc 1b b7 93 bc
       -0.015379268 -0.0010879418 -0.007896896 -0.018031647
000010 56 21 96 bc ec 4c ab 3b 14 1e b5 bb 0d 3a 4a 3c
       -0.018326443 0.0052276757 -0.005527267 0.012342942
000020 16 a7 69 bc d3 0b 97 bc 6e 37 f6 ba 8c 50 01 bc
       -0.014261028 -0.018438255 -0.001878483 -0.007892739
000030 d2 eb bb b5 83 f0 49 a4 99 b8 46 bc c3 0c 1f 3c
       -1.4001218e-06 -4.378865e-17 -0.012128972 0.0097076325
000040 f6 4d 5a bc 25 84 78 bb 55 c0 8d bc 46 37 98 a0
       -0.013324251 -0.003792056 -0.017303625 -2.5786378e-19
000050 86 4b 0c 3c 57 73 6a bc fb ce 7c bb 5b 33 16 ad
       0.008562928 -0.014309726 -0.0038575518 -8.537916e-12
000060 c9 2d ad bb f1 c5 02 3c 50 22 e1 3b ec bf aa 3a
       -0.005284999 0.007981763 0.0068705454 0.0013027168
000070 15 c0 aa 38 2a 33 89 ba 78 8a cb a9 72 e5 46 bc
       8.14201e-05 -0.0010467519 -9.0390315e-14 -0.012139665
000080 31 5d 48 bc 8f 29 91 3b fe a4 15 3c 1d ee 42 ba
       -0.01222925 0.004430003 0.0091335755 -0.00074359943
000090 d7 bf 06 b5 36 4e 1f 3a 48 17 82 bb 1c c3 4a b5
       -5.0198054e-07 0.0006077023 -0.0039700605 -7.5534786e-07
0000a0 ef c2 73 ac ff 8c 3a bb 82 9d 04 3c 94 d6 70 a4
       -3.4640587e-12 -0.0028465388 0.008094193 -5.222346e-17
0000b0 cb f2 57 3b 4e 6d 3f 36 eb 84 47 bb b5 63 11 39
       0.0032951112 2.8524842e-06 -0.0030444216 0.00013865421
0000c0 97 18 6a b6 8d c0 2a bc 1d be 94 3b 79 8f 56 ba
       -3.488303e-06 -0.010421884 0.004539265 -0.0008184831
0000d0 bf 28 40 b6 9f 95 73 39 d2 10 53 bc 5f 34 85 bc
       -2.8633947e-06 0.00023230024 -0.012882428 -0.016260324
0000e0 c0 35 ec a7 13 4e 2f bb ac 03 89 bc 85 f0 68 bc
       -6.5561434e-15 -0.0026749417 -0.016725384 -0.014217501
0000f0 68 01 85 bc 48 75 d1 bb a0 12 c6 bb 0a d0 4a bc
       -0.016236022 -0.006392155 -0.0060447007 -0.012378702
000100 d4 86 3d bb 46 22 86 a8 fd 70 9d bb bc 7a 2f bb
       -0.0028919475 -1.4891852e-14 -0.004804729 -0.0026776036
000110 fc bd 30 bb 14 f6 b3 b4 3a c4 93 bb 69 37 b4 a7
       -0.0026968708 -3.3520394e-07 -0.004509476 -5.002011e-15
000120 1b 09 f0 ba 7f 3b a3 bb ac ea 3b b4 84 14 a2 bb
       -0.001831326 -0.0049814577 -1.7501105e-07 -0.0049462933
000130 33 58 5a 1b 72 41 79 9d 5a d9 88 bb f2 99 94 aa
       1.8061036e-22 -3.298871e-21 -0.004176301 -2.6396902e-13
000140 b0 79 7b bb ca 24 d3 bb 47 9a 62 bb ee 04 f2 95
       -0.0038372092 -0.0064435946 -0.003457682 -9.77508e-26
000150 a1 99 6b b9 15 1a 0f bb 2c ef 8a bb 43 23 1e a6
       -0.00022468578 -0.0021835614 -0.0042399373 -5.486505e-16
000160 09 dd f2 b2 5e 50 8a a9 5e c3 db b7 f0 b4 5f b7
       -2.8273023e-08 -6.1423726e-14 -2.619781e-05 -1.3333964e-05
000170 a6 33 99 2b fc 93 24 1d 39 2c 9b a2 04 41 94 bb
       1.0885639e-12 2.1781725e-21 -4.2059657e-18 -0.004524352
000180 41 cb b8 bb ba 85 71 b7 43 8d 18 ba cd 3f 65 1c
       -0.005639464 -1.4395855e-05 -0.00058193895 7.5852205e-22
000190 ba 47 c5 98 e8 c3 2c 9a d1 5b 54 bb 88 e9 e3 ac
       -5.099573e-24 -3.5727018e-23 -0.003240336 -6.4776552e-12
0001a0 68 4b 0d a7 ba 2e 30 b7 c6 2e 3a b7 c2 a7 7f 9e
       -1.9608559e-15 -1.0501297e-05 -1.1097354e-05 -1.3534279e-20
0001b0 97 26 8e b9 34 b5 0c 99 a6 9a d7 b4 7a 79 35 18
       -0.00027113102 -7.274424e-24 -4.0159392e-07 2.3455032e-24
0001c0 c3 b6 d1 b1 6b 56 bb bb 8b 31 61 b9 43 18 8f b7
       -6.103478e-09 -0.005717089 -0.00021476128 -1.7058226e-05
0001d0 be 98 88 98 17 45 af bb f1 3f 8a bb 3c 6c 35 bb
       -3.5309406e-24 -0.0053488123 -0.004219048 -0.002768292
0001e0 ed 3a 98 95 03 b1 a6 bb 7d e8 9d bb 00 cf 69 bb
       -6.148528e-26 -0.0050870194 -0.0048189745 -0.003567636
0001f0 ed 08 44 bb b3 de c0 bb d0 42 9e ad b6 40 6f bb
       -0.0029912547 -0.005885923 -1.7992191e-11 -0.0036507077
000200 95 07 44 3e eb ed c6 3d 34 21 45 3d 06 1b d8 bc
       0.19143517 0.09713348 0.048127368 -0.026380073
000210 d8 a9 cf 3d 71 88 58 3f a9 1f c8 3d 3f b4 2e 3f
       0.10139817 0.84583193 0.09771664 0.68243784
000220 53 1b 01 3e 72 30 b1 3e a1 2a 98 be 4b aa d0 bd
       0.1260808 0.34607273 -0.29720023 -0.10188731
000230 e6 65 3a 3f 89 e2 10 be 22 58 16 3e aa 22 1f 36
       0.72811735 -0.14148916 0.14682057 2.3713023e-06
000240 8c d5 36 3e a9 f4 b2 bd d8 95 a5 3d 6c 72 4c be
       0.17854899 -0.087380715 0.08085221 -0.19965523
000250 cf 51 ba bf 7d e6 8f 3e f9 f1 83 3e 6b 74 6a bd
       -1.4556216 0.28105536 0.25770548 -0.05723993
000260 80 e5 47 be 0c a1 7b 1d 67 44 80 bf fa d3 39 bf
       -0.19521141 3.3302833e-21 -1.0020875 -0.72589076
000270 5c 96 da 3e 0a ef a9 3f 4a ec 10 bf fa eb e6 3d
       0.4269284 1.3276074 -0.5661055 0.11275478
000280 38 70 47 3e d3 b5 8d bf 28 1f 7b bf f7 dc 47 3f
       0.19476402 -1.1071113 -0.98094416 0.7807154
000290 cb aa 73 3e 11 ad 2e 3e b2 e4 d7 3d 50 27 dc bd
       0.23795621 0.17058207 0.10541667 -0.10749686
0002a0 e4 f9 bf 3c bf 53 5c 3e de 8d ee bf e9 70 14 bf
       0.023434587 0.21516322 -1.8637044 -0.5798479
0002b0 3f 27 fd be 7e 24 c3 bd 13 d5 87 be 6e bf 0c 3f
       -0.49444005 -0.09528445 -0.2652975 0.549796
0002c0 4c b5 90 bd e4 93 6f 3e fd 6b 83 bf 4d 95 0e bf
       -0.0706583 0.2339626 -1.026733 -0.55696565
0002d0 fb ab 67 3f 78 f5 9b be 83 cc 1c 3e a2 9d a1 3e
       0.90496796 -0.30460715 0.1531239 0.31565577
0002e0 c3 c2 13 3e 8c 69 f7 bc 28 c7 58 3d 95 f0 68 3d
       0.14429764 -0.030201696 0.052924305 0.056870062
0002f0 9c cf 4f 3e b7 6f 16 3c e8 ff ce bd 98 11 51 bc
       0.2029404 0.009181908 -0.10107404 -0.012760542
000300 47 f8 11 3e 38 f5 40 be ab c4 30 3e af c6 03 bb
       0.14254867 -0.18843544 0.17262523 -0.0020107438
000310 15 52 a2 3e a8 72 19 be fa d1 b5 3e 9a 2b dc be
       0.3170325 -0.14985144 0.35511762 -0.43002015
000320 20 77 07 3e 3f 3b bc 3e 93 12 9e bd 94 94 96 3e
       0.13229036 0.3676395 -0.077183865 0.2941023
000330 72 b3 57 bf f4 80 e3 bd 7b 9b 8c 3e 7e a0 0e bf
       -0.84258187 -0.1110858 0.27462372 -0.5571364
000340 dc 02 81 3e 11 c7 96 3e bc 67 b7 3e 62 19 c2 3d
       0.25197494 0.2944875 0.3582133 0.09477498
000350 86 4c b3 be a9 6f e3 3e e7 fe df 3e 4c bc f6 bd
       -0.3501932 0.44421127 0.43749163 -0.120476335
000360 6f b9 c3 be c7 34 0d bf 53 6f d2 be 35 05 d0 bb
       -0.38227412 -0.55158657 -0.4110056 -0.006348277
000370 a9 f4 28 3e 9f fc 35 bf 89 86 18 bf 8a 11 82 3e
       0.1649958 -0.71088594 -0.59580284 0.25404006
000380 66 5c af 3e 2e ec 85 be ca b3 62 3c 9b 6a 7a be
       0.34250182 -0.26156753 0.01383681 -0.2445473
000390 21 20 05 bf ff a3 97 3f dd 73 6d 3e 2d df 9c bc
       -0.5200215 1.1846923 0.2318873 -0.019149387
0003a0 90 58 1e be d4 c9 6b 3e ae fd 23 bf 16 fb 4f bf
       -0.15463471 0.2302621 -0.6405896 -0.812425
0003b0 04 d2 28 bd 7d 9e e6 bd 6c 1c 54 be 0e 05 51 bf
       -0.04121591 -0.11260698 -0.20713967 -0.8164834
0003c0 87 76 cf bc ef f0 c4 3e cf b0 ec bc aa 92 48 be
       -0.025325073 0.38465068 -0.028892903 -0.19587198
0003d0 11 6c 28 bf 0d 70 f4 3d db 8f 05 3e 77 80 91 3e
       -0.65789896 0.119354345 0.13043158 0.28418323
0003e0 7b b6 97 3e 67 fa 13 3e c6 15 e8 3d 2e f5 3f 3e
       0.2963141 0.1445099 0.11332278 0.18745872
0003f0 1c 81 97 3e 36 f7 9f 3e 17 c7 91 3d d1 dc 8b 3e
       0.2959069 0.31243294 0.071180515 0.27316907

fc2.bias f4 [64]
000000 39 6f 63 bc cb ab c4 bb d2 12 a2 3d e7 bf 84 3e
       -0.013881498 -0.0060019246 0.07913746 0.2592766
000010 ad 58 12 bb da b9 5e 3e fd 98 65 3e c4 c7 40 3d
       -0.0022330687 0.21750584 0.22421642 0.04706551
000020 d2 65 04 bd 80 d1 6a 3e 7b b8 94 3e 46 69 6e 3e
       -0.032323666 0.2293148 0.29046997 0.23282346
000030 2c d0 f8 bd a4 e5 6d 3e 26 ce 21 3e 51 b9 8e 3e
       -0.12149081 0.23232132 0.15801296 0.2787576
000040 d0 34 7b bc 68 2e 93 b1 55 ba 57 b9 f1 64 2c 3e
       -0.015332416 -4.283539e-09 -0.00020573412 0.16835381
000050 79 d4 9d be 37 7b 63 bd a2 2d c0 3e 03 8b c0 3e
       -0.30826166 -0.05553743 0.37534815 0.37606058
000060 8d b9 c0 b5 f9 c5 1b 3e e7 67 7f 3e 73 1f 37 3e
       -1.4359117e-06 0.1521224 0.2494198 0.1788309
000070 b3 71 00 3e 9e d3 aa 3e cc a3 ec b9 03 7b d6 3e
       0.12543373 0.33364576 -0.00045135466 0.41890725
000080 ff 0e f3 bb 6e 88 7f 3e 34 c1 c5 3c 18 a2 ac bc
       -0.007417559 0.24954388 0.024139978 -0.021073386
000090 20 23 1a bc f9 87 d8 3b 72 94 e5 3b e9 12 0f 3e
       -0.0094077885 0.006608006 0.0070062215 0.13972057
0000a0 ec 9d f4 bc 1c df 59 3e 80 37 f6 bd 91 f9 6c b5
       -0.02986046 0.21276516 -0.120223045 -8.828002e-07
0000b0 4e e5 b4 3e 30 b2 de 3a 0c 9f e4 b6 cc f7 aa 3e
       0.35331196 0.001699036 -6.813445e-06 0.3339218
0000c0 53 8c 90 3e 25 8b 3e 3e 11 bf a3 3e 8d 06 95 3e
       0.2823206 0.18607767 0.3198171 0.2910656
0000d0 0a 1e c6 3e 6f 78 83 3e d9 44 af 3e f1 52 04 b4
       0.38694793 0.2567782 0.34232214 -1.2323632e-07
0000e0 98 a8 54 3e 16 cf 3f b1 45 17 a5 bd e8 9d a9 3d
       0.20767438 -2.7911873e-09 -0.08061079 0.08282071
0000f0 9a 82 57 3d 68 3e 72 3e 87 f8 13 be 6e ed 16 b0
       0.052614786 0.23656619 -0.14450274 -5.490709e-10

value_stream.weight f4 [1, 64]
000000 52 b6 8b 3b f7 07 83 3a 3a 10 7d 3f ed 82 27 3f
       0.0042636776 0.000999688 0.98852885 0.6543415
000010 06 1d d5 ba 50 71 0b 3f cb 62 1f 3f 7f 01 80 bf
       -0.001625926 0.54469776 0.6226012 -1.0000457
000020 92 63 cd be 2b db 44 3f 22 df 13 3f be d6 18 3f
       -0.4011503 0.76896924 0.5776235 0.5970267
000030 6d 92 aa bf 9d 01 0a 3f 79 d6 21 3f e1 05 f8 3c
       -1.3325936 0.5390871 0.63217884 0.03027624
000040 32 c0 60 bc 18 eb 17 2f 88 0f 58 ba f0 b4 6f 3f
       -0.013717698 1.3816892e-10 -0.00082420604 0.93635464
000050 34 48 a6 bf b6 69 4a bf 55 a4 27 3f ec 6c 1c 3f
       -1.2990785 -0.7906755 0.65485126 0.611037
000060 8c 28 ca b3 6f d5 ee ba 7a 52 a1 3d 1a ee 3d 3f
       -9.4137334e-08 -0.0018221567 0.07877059 0.7419144
000070 4c 16 21 bf d1 d9 7a 3f 5c ce 92 3b c1 4a 66 3f
       -0.6292465 0.9798861 0.0044801664 0.89957815
000080 a0 14 8e bf 13 c8 2c 3f 8d fe e7 3e 52 02 87 3b
       -1.1100044 0.6749279 0.45311394 0.0041201496
000090 5b 31 05 bf 65 e0 74 be 4f 23 32 3b f6 d4 28 3f
       -0.52028435 -0.23913725 0.002718169 0.6594995
0000a0 ab 5d 69 bf 5e bd cc be 75 b3 92 bf 03 8b df 3b
       -0.9115855 -0.39988226 -1.1461016 0.0068219914
0000b0 64 42 1d 3f 79 2c 62 be a5 a5 0a bb e1 08 16 3f
       0.6142943 -0.22087277 -0.002115586 0.586073
0000c0 34 ac 30 3f c9 21 37 3f 5d 46 3a 3f 92 24 32 3f
       0.6901276 0.7153593 0.72763616 0.6958705
0000d0 da 80 47 3f 55 7e 2b 3f e6 1b 17 3f dd eb 19 3c
       0.77930987 0.6698964 0.59026945 0.009394613
0000e0 35 51 1c 3f c6 c4 18 b9 9a 60 d6 be ae c4 5a be
       0.6106141 -0.00014569153 -0.41870576 -0.2136409
0000f0 84 bd 7f 3f c9 f6 8f 3f 60 25 8c bf ef 57 02 b0
       0.9989855 1.1247188 -1.0948906 -4.7418686e-10

advantage_stream.weight f4 [2, 64]
000000 36 23 3a bc 2a bf 8a 3b 7b 9d ed bd 45 cd 35 be
       -0.011360934 0.0042342143 -0.11602303 -0.17754085
000010 61 c8 b3 3b 5a 29 69 bd f8 47 96 be 6c d3 8c be
       0.0054865335 -0.0569242 -0.29351783 -0.27505052
000020 b0 43 8f 3e 51 e0 0e be 96 68 9d 3b 24 11 48 be
       0.2798133 -0.13952757 0.0048037274 -0.19537789
000030 c9 4a 51 be 92 46 40 be df a7 1a be fa 29 62 bf
       -0.20438685 -0.1877692 -0.151031 -0.883453
000040 aa f4 df bc e5 75 4e ad c5 ae fb 39 47 e4 52 3e
       -0.027338345 -1.1735922e-11 0.00048004664 0.20594893
000050 0d 45 f6 be 55 a8 59 be d9 c0 61 be 6c 39 6c 3f
       -0.48099557 -0.2125562 -0.22046222 0.9227512
000060 b4 72 01 33 d7 54 3c 3f c9 ab 5a bf 8a c8 36 3c
       3.0139475e-08 0.73566955 -0.85418373 0.011156211
000070 16 45 6c be c1 3d c3 3e 67 69 fd 3a 6e d4 07 3f
       -0.23073229 0.38133052 0.001933378 0.53058517
000080 97 d3 54 3e cb 8a 0f be 2c e9 20 40 ce 37 f4 3b
       0.2078384 -0.14017789 2.5142317 0.0074529415
000090 f2 2c 16 3f bd 77 2a 3f 17 1c fe 3b a7 06 28 3d
       0.5866233 0.66588956 0.0077548134 0.04102197
0000a0 ed 5e 0c be ec 6b b2 3f 7b 97 a8 be 2d d1 1a bb
       -0.13708086 1.3939185 -0.3292807 -0.0023623214
0000b0 44 c7 a7 bd de cb a6 3d a3 76 1f ba 58 64 9a be
       -0.08192304 0.08144353 -0.0006083047 -0.3015468
0000c0 f8 bb c6 bd ac 51 fb bd aa 31 4e be 8c 38 8f bd
       -0.09703821 -0.12271437 -0.20136133 -0.06993207
0000d0 82 3a df 3d da 84 23 3d e2 06 eb bd e4 bc bf 3b
       0.10899831 0.03992162 -0.11475922 0.005851375
0000e0 71 b2 f0 bd d0 2e c0 37 19 26 c6 3e 44 d0 9c 3e
       -0.11752785 2.2909982e-05 0.3870094 0.30627644
0000f0 4a 8e 49 3d d7 b9 7d bd 06 eb 09 bf 73 e1 87 2b
       0.049207963 -0.06194481 -0.5387424 9.654902e-13
000100 36 23 3a 3c 2a bf 8a bb aa e2 5f bd d9 5b af 3d
       0.011360934 -0.0042342143 -0.054659523 0.085624404
000110 61 c8 b3 bb 76 5f 76 3e 70 82 32 3e ac 47 1b 3e
       -0.0054865335 0.24059853 0.1743257 0.1516406
000120 e4 4e 95 be cb 14 0a 3e a1 c0 a1 3c 72 2f 81 3e
       -0.2916175 0.13484494 0.019745173 0.2523151
000130 1c f4 3a 3d a6 f3 35 3e 60 34 d6 3d 9c ba 40 3f
       0.045642957 0.17768726 0.104592085 0.75284743
000140 f8 f4 df 3c e5 75 4e 2d c5 ae fb b9 05 66 34 be
       0.02733849 1.1735922e-11 -0.00048004664 -0.17617042
000150 44 b6 f5 3e e2 79 98 3e 68 50 8d 3e 17 f4 60 bf
       0.4799062 0.2978049 0.27600408 -0.8787245
000160 b4 72 01 b3 bb 33 44 bf 8b ae 5a 3f 6a 8b 27 3e
       -3.0139475e-08 -0.76641434 0.8542258 0.16361776
000170 10 e1 8a 3e 91 55 bd be 67 69 fd ba 2b b9 17 bf
       0.27124834 -0.36979344 -0.001933378 -0.5926692
000180 1a ef 49 be 28 d9 0d 3e ac fd 2a c0 ce 37 f4 bb
       -0.19720116 0.1385237 -2.671733 -0.0074529415
000190 30 aa 15 bf 26 02 27 bf 56 94 f1 bb fd f7 36 3e
       -0.5846281 -0.65237653 -0.0073724193 0.17868038
0001a0 77 a9 39 3e 3f bb ba bf 55 f7 87 3e 2d d1 1a 3b
       0.18131052 -1.4588393 0.26555887 0.0023623214
0001b0 5b af 29 3e 49 46 a1 bd a3 76 1f 3a 59 70 9a 3e
       0.16570799 -0.07874734 0.0006083047 0.3016384
0001c0 65 17 c7 3d 94 37 8a bb ef 8d 0c 3e ec 79 61 3e
       0.09721259 -0.004218051 0.13726018 0.22019166
0001d0 a5 a5 00 bd 6b 2a 31 bd 34 2a aa 3d e4 bc bf bb
       -0.03140797 -0.043253344 0.08308831 -0.005851375
0001e0 8f 28 09 bd d0 2e c0 b7 c9 fc 67 be 44 d0 9c be
       -0.033485945 -2.2909982e-05 -0.22655024 -0.30627644
0001f0 72 86 9a bd 2f e5 b5 bd 32 f8 19 3f 73 e1 87 ab
       -0.07545175 -0.08881604 0.6014434 -9.654902e-13

advantage_stream.bias f4 [2]
000000 99 1d 94 bd 91 34 d1 3d
       -0.07232208 0.10215104
